vae_model.pth (torch, 209362 bytes, 12 tensors)

encoder.0.weight f4 [128, 122]
0	0x3c0a1d46	0.008429831
1	0xbda1e813	-0.07905593
2	0x3d8d9930	0.06913984
3	0x3d5bca88	0.053659946
4	0x3c8bfc60	0.017088115
5	0xbc1648b7	-0.00917261
6	0x3d8815c6	0.06644778
7	0x3d96aacc	0.07356796
8	0xbdac5210	-0.0841409
9	0xbc99a9df	-0.018757759
10	0xbba79f02	-0.0051153908
11	0x3b820a4b	0.003968512
12	0xbd9965e8	-0.0749014
13	0xbd4b1b8c	-0.049586818
14	0xbcfeed00	-0.03111887
15	0xbcff0b30	-0.031133264
16	0x3d95a932	0.07307662
17	0xbd0c3c41	-0.03423715
18	0xbac14172	-0.0014744236
19	0xbd520cfb	-0.05128191
20	0x3cfd0337	0.030885322
21	0x3b664803	0.0035138137
22	0x3d7c28c8	0.06156233
23	0xbd6dbd0f	-0.05804163
24	0x3d3249f2	0.04352755
25	0xbd935aef	-0.071950786
26	0xbd9d64cc	-0.07685241
27	0x3b289041	0.0025720748
28	0x3c89474d	0.016757632
29	0x3be60e20	0.007020727
30	0xbd4ce913	-0.050026964
31	0x3d6f26e9	0.058386717
32	0x3d13a299	0.036043737
33	0x3c92a9f1	0.0179033
34	0xbd6e4968	-0.058175474
35	0xbc13ffce	-0.009033157
36	0xbcf3b36e	-0.029748645
37	0x3be94472	0.007118755
38	0x3cc5dadb	0.02415221
39	0xbc212316	-0.009835025
40	0xbdab476e	-0.083632335
41	0xbd00bb0a	-0.031428374
42	0xbb664361	-0.0035135376
43	0xbc187852	-0.00930603
44	0x3d73e23c	0.059541926
45	0x3d24878d	0.040168334
46	0xbd2f4097	-0.042786207
47	0x3d9c57c4	0.076339275
48	0xbd9c8e4e	-0.0764433
49	0x3d2b4e73	0.041822862
50	0xbd63c94b	-0.05561189
51	0xbd979463	-0.074013494
52	0x3da5e722	0.08100726
53	0xbd4b3d8e	-0.04961925
54	0xbd8f2816	-0.06990068
55	0x3d9f2efb	0.07772633
56	0xbcde2497	-0.027117057
57	0xbd213eec	-0.039366648
58	0x3d9d3e07	0.076778464
59	0x3d338931	0.043832008
60	0x3d2c869e	0.04212057
61	0xbc3d38a4	-0.011549149
62	0xbcf18568	-0.029482558
63	0xbda8a6e2	-0.08234955
64	0x3d9a6217	0.075382404
65	0xbd12367e	-0.0356965
66	0xbd959679	-0.07304091
67	0x3c03b08c	0.0080376975
68	0xbd816bac	-0.06319365
69	0xbd22b60e	-0.039724402
70	0x3cb91a3f	0.022595523
71	0xbd8d46f9	-0.068983026
72	0xbc9bf4a0	-0.019037545
73	0xbd59f7bb	-0.05321477
74	0xbd832fe1	-0.064056166
75	0x3d8d0fce	0.0688778
76	0x3ae0233d	0.0017100346
77	0x3d7208a1	0.05909026
78	0x3c446855	0.011987765
79	0xbdb87d8b	-0.090083204
80	0xbd0f3e30	-0.034971416
81	0x3cfe040a	0.031007785
82	0x3c1f5178	0.0097240135
83	0xbc8fb684	-0.017543085
84	0x3d733c39	0.059383605
85	0xbcd77a47	-0.026303424
86	0xbd7905eb	-0.06079666
87	0xbda2ca3a	-0.07948728
88	0x3cffb968	0.031216338
89	0xbd054a44	-0.03254153
90	0x3cce8ade	0.025212701
91	0xbbdbe146	-0.0067102043
92	0xbc6b69dd	-0.0143685015
93	0xbd2eeb43	-0.04270483
94	0xbd8d7b01	-0.06908227
95	0x3d800dad	0.062526084
96	0xbd30b12c	-0.043137714
97	0xbda490b9	-0.08035416
98	0xbcd8efa0	-0.02648145
99	0x3cebcf52	0.028785381
100	0x3dce3553	0.100687645
101	0x3da7dd3d	0.08196495
102	0xbd0ddc2c	-0.0346338
103	0x3db99964	0.0906246
104	0x3d20daa4	0.039271012
105	0x3d01a001	0.031646732
106	0x3d088ce5	0.033337492
107	0x3a2769f0	0.00063863304
108	0xbcde7bde	-0.027158674
109	0x3cee770c	0.0291095
110	0xbccc3288	-0.024926439
111	0xbd41ae42	-0.047285326
112	0x3c7814b3	0.015141654
113	0x3d418e33	0.047254752
114	0x3d845a9c	0.06462595
115	0xbd9a3454	-0.07529512
116	0x3d82e099	0.06390495
117	0xbc9b8e0b	-0.01898863
118	0xbd6d9959	-0.05800757
119	0xbb98c698	-0.004662346
120	0xbc8a8e5b	-0.016913584
121	0x3c11dce5	0.008902763
122	0x3d3cd3aa	0.046100296
123	0xbdbccd1b	-0.09218808
124	0xbbf86cd2	-0.0075813318
125	0xbdb27db4	-0.08715382
126	0xbd567ba2	-0.052364
127	0x3cf07d3a	0.029356588
128	0x3ccc7643	0.024958735
129	0x3cf6eca4	0.030142136
130	0xbc8e86bb	-0.017398229
131	0x3d5baab1	0.05362958
132	0x3d5a7ea7	0.05334344
133	0x3d2e8365	0.042605776
134	0x3d7a917a	0.061173894
135	0x3caf885c	0.021427326
136	0x3d52b52f	0.05144232
137	0xb90f51cb	-0.00013668013
138	0x3d9e6dbd	0.07735775
139	0x3c681d4a	0.014167139
140	0x3cab9076	0.020942908
141	0x3cf179f2	0.029477093
142	0xbdba8482	-0.09107305
143	0x3c330513	0.010926503
144	0x3c74e277	0.014946572
145	0x3d94462c	0.07239947
146	0xbccf9dfe	-0.025343891
147	0xbcbdbac0	-0.023160338
148	0x3c829a2f	0.015942661
149	0xbcfe074a	-0.031009335
150	0xbdb83010	-0.08993542
151	0xbd997bd3	-0.07494321
152	0x3d1c4c9c	0.038158998
153	0xbd1e07d7	-0.038581695
154	0x3d35bdc7	0.04437044
155	0xbd31f37b	-0.04344509
156	0xbc287552	-0.010281878
157	0xbd82d603	-0.06388476
158	0xbdae1c67	-0.08501511
159	0xbcf3adac	-0.0297459
160	0x3d56b938	0.052422732
161	0xbae8941a	-0.0017744333
162	0x3d98ded5	0.07464377
163	0xbd5b7e5a	-0.053587295
164	0xbcdd71e0	-0.027031839
165	0x3c8b9c69	0.017042356
166	0x3d42723c	0.047472224
167	0xbd5e5e5b	-0.054289203
168	0x3d701793	0.058616232
169	0xbd2f6d49	-0.04282883
170	0xbcd0e579	-0.025500046
171	0x3d856bed	0.06514726
172	0x3b60e36d	0.0034315244
173	0xbdc39bac	-0.095511764
174	0xbdba49de	-0.0909612
175	0xbd1b94d1	-0.03798372
176	0xbd49bd1b	-0.04925261
177	0xbca9f45b	-0.0207464
178	0xbdcb3b22	-0.09923388
179	0xbbfe540c	-0.007761484
180	0xbb11b5e7	-0.0022233666
181	0x3b533b0e	0.0032231244
182	0x3d7b5966	0.061364554
183	0xbd58c08b	-0.052918
184	0xbd5b06c2	-0.05347324
185	0xbd3e2e54	-0.0464309
186	0x3d763f80	0.060119152
187	0xbd43ba77	-0.04778525
188	0xbd98e29e	-0.07465099
189	0xbcb5d2fc	-0.022195332
190	0x3d053182	0.032517917
191	0x3d104ddd	0.035230506
192	0xbc44ab8c	-0.012003791
193	0x3d4a26ae	0.049353294
194	0x3c369403	0.011143687
195	0xbcf21ea6	-0.02955563
196	0xbd17a750	-0.037024796
197	0x3c31f52f	0.010861679
198	0xbd989256	-0.07449786
199	0x3ba99387	0.0051750573
200	0xbdb802e4	-0.08984926
201	0x3d3a11e7	0.04542723
202	0xbd4b65cf	-0.04965764
203	0xbd917665	-0.0710266
204	0xbd08c415	-0.033390123
205	0xbc73032d	-0.0148323
206	0x3cabb305	0.020959387
207	0xbd98ce3b	-0.0746121
208	0xbcc92bb1	-0.024556966
209	0xbd8ee7f3	-0.069778346
210	0x3d90df02	0.07073785
211	0x3d23f70d	0.040030528
212	0xbd5fc4e9	-0.054631148
213	0xbdbbcde8	-0.09170133
214	0xbc645be0	-0.01393792
215	0xbd2bb656	-0.041921936
216	0x3d9aa495	0.07550923
217	0xbc70885b	-0.014680947
218	0xbd85055f	-0.06495165
219	0xbcba71bd	-0.022759313
220	0x3d20fd32	0.039303966
221	0xbd77f5d7	-0.060537186
222	0xbbc22020	-0.0059242398
223	0x3c103e4c	0.008803915
224	0x3d8cf218	0.06882113
225	0x3d0ae1bb	0.03390668
226	0x3c9a935f	0.0188691
227	0x3d9f182e	0.07768284
228	0x3d70c007	0.05877688
229	0xbce96f28	-0.028495386
230	0x3d6b3c3b	0.057430487
231	0xbd55979d	-0.052146543
232	0xbcbac73e	-0.022800084
233	0x3aa59028	0.0012631463
234	0xbcbf8545	-0.023378978
235	0xbdaffc37	-0.08593028
236	0xbd9fcff0	-0.07803333
237	0xbdc97848	-0.09837395
238	0xbc7b61ac	-0.015343111
239	0x3cd0421d	0.02542215
240	0xbd189b12	-0.03725726
241	0x3c6063c3	0.01369566
242	0x3d38bf98	0.045104593
243	0x3cebbf10	0.02877763
244	0x3c99692a	0.018726904
245	0x3cf2cbe2	0.029638235
246	0xbcf93aa3	-0.030423468
247	0xbd4f7afa	-0.05065439
248	0xbd6c0216	-0.057619177
249	0xbd845de8	-0.06463224
250	0xbc907caf	-0.017637579
251	0xbd5a03cc	-0.053226277
252	0x3cd292d9	0.025704788
253	0x3d64ab76	0.05582758
254	0xbcc3bcfa	-0.023893822
255	0x3d7697f5	0.06020351

encoder.0.bias f4 [128]
0	0x3d44a406	0.048007987
1	0xbd9b0a05	-0.075702704
2	0x3c9c46df	0.019076763
3	0x3d9e53f2	0.07730855
4	0xbd88aef2	-0.06673993
5	0x3ce80bd0	0.028325945
6	0xbdaf47dc	-0.08558628
7	0xbd96ed1b	-0.07369443
8	0xbd4c697f	-0.049905296
9	0x3d951c72	0.07280816
10	0x3d2e3a98	0.042536348
11	0xbbb7b15d	-0.00560586
12	0xbac34b71	-0.0014899803
13	0x3ce557c1	0.027995946
14	0x3d805303	0.06265833
15	0xbdb4d219	-0.088291354
16	0x3d149562	0.036275275
17	0x3c734ac1	0.014849366
18	0xbc867fa7	-0.016418291
19	0xbb73e05b	-0.0037212584
20	0xbd0d01fe	-0.034425728
21	0xbd10b494	-0.035328463
22	0x3a902509	0.0010997365
23	0x3d203e06	0.03912165
24	0x3af8947d	0.0018965151
25	0xbbdc71d5	-0.006727437
26	0xbbaf6389	-0.0053524417
27	0x3ba4564b	0.0050151697
28	0x3d95675c	0.07295105
29	0xbcd5ed71	-0.026114197
30	0x3d31cce5	0.043408293
31	0x3dd69195	0.10476986
32	0x3d9a19e9	0.07524473
33	0xbcb5abd3	-0.022176659
34	0x3d8dc42f	0.06922185
35	0xbd9dc0d2	-0.07702793
36	0xbc3bb435	-0.011456539
37	0xbd76b261	-0.06022871
38	0x3dc9f6d0	0.09861529
39	0x3d0156c8	0.0315769
40	0xbc66323c	-0.014050063
41	0xbdc3ad0f	-0.09554493
42	0x3da098f2	0.07841672
43	0xbdc3c0a1	-0.095582254
44	0xbd49887f	-0.04920244
45	0x3d7f992c	0.062401935
46	0xbd9ede8f	-0.077572934
47	0x3db0861b	0.086193286
48	0xbdb96eac	-0.09054312
49	0xbcbd0e00	-0.023077965
50	0x3d9d088e	0.07667647
51	0x3c18319e	0.009289173
52	0x3d597747	0.053092267
53	0x3ba465ab	0.0050170026
54	0xbdad0e93	-0.084500454
55	0x3cc8bf0d	0.024505163
56	0xbc525f83	-0.012840155
57	0x3d1f457c	0.038884625
58	0x3c1023f4	0.008797634
59	0x3cfdd342	0.030984525
60	0xbd83e72e	-0.064405784
61	0x3d04ef3c	0.032454714
62	0xbcce6b85	-0.025197754
63	0x3d6d315a	0.057908393
64	0x3da022c2	0.078191295
65	0xbd852709	-0.06501586
66	0x3d129c5d	0.03579365
67	0xbd8b6a77	-0.06807416
68	0x3c109526	0.008824622
69	0x3c989a01	0.018628122
70	0xbd6a415d	-0.05719124
71	0xbc454041	-0.012039245
72	0x3bd9759f	0.006636336
73	0x3d88b505	0.06675152
74	0xbd96dc3e	-0.073662266
75	0xbd823b09	-0.06358916
76	0xbd89a17f	-0.06720256
77	0x3d7aa587	0.061193015
78	0xbdb87714	-0.09007087
79	0x3dd20267	0.102543645
80	0xba618e63	-0.0008604286
81	0xbe0c9e0b	-0.13732164
82	0x3d8a0dff	0.06740951
83	0xbd756dff	-0.059919354
84	0x3db14a69	0.08656771
85	0x3dbba727	0.09162741
86	0x3cbf0800	0.023319244
87	0x3d74ae88	0.05973676
88	0x3dba9f0a	0.091123655
89	0xbd3ac276	-0.04559561
90	0x3d65c258	0.056093544
91	0xbd59ca4b	-0.053171437
92	0x3ddfbfbd	0.10925243
93	0xbd30192c	-0.042992756
94	0x3cada6d1	0.021197708
95	0xbdadf0c8	-0.08493191
96	0xbd9793dc	-0.07401249
97	0xbdbe418e	-0.09289847
98	0xbd1c0608	-0.03809169
99	0x3d2411db	0.04005609
100	0xbdc4e87b	-0.09614655
101	0xbaac8d7f	-0.0013164728
102	0x3d242677	0.040075745
103	0x3d8640fd	0.06555364
104	0x3d5d8178	0.05407855
105	0x3d764640	0.06012559
106	0x3db3fbc7	0.08788257
107	0xbd26330e	-0.040576033
108	0xbd959f0b	-0.07305726
109	0xbcd23552	-0.02566019
110	0x3c8fc119	0.01754813
111	0xbde2da6a	-0.110768154
112	0xbc538aba	-0.012911493
113	0x3d89e3c7	0.06732898
114	0xbdc322a7	-0.09528094
115	0xbb8af10b	-0.0042401603
116	0x3cfe828f	0.031068115
117	0xbd09afbd	-0.033614863
118	0xbcdf94b7	-0.027292592
119	0x3d62bcc7	0.055355813
120	0x3d4305d1	0.04761297
121	0x3d8cb18d	0.068698026
122	0x3d506cf3	0.050885152
123	0xbd437a2f	-0.047723945
124	0xbd34be6d	-0.044126917
125	0x3c404d1d	0.011737135
126	0xbd7465ab	-0.05966727
127	0xbd2e32fc	-0.04252909

encoder.2.weight f4 [64, 128]
0	0xbd2f2877	-0.0427632
1	0xbd0001bf	-0.031251665
2	0x3d62d072	0.05537457
3	0x3b4cc560	0.0031245574
4	0xbced02d0	-0.028932005
5	0x3ce3df62	0.027816478
6	0xbca75e49	-0.0204307
7	0x3a1afb3c	0.00059120706
8	0xbc141afc	-0.009039637
9	0x3d81ab89	0.06331546
10	0xbdae3c52	-0.08507599
11	0xbd8d814e	-0.069094285
12	0xbd041be7	-0.032253172
13	0x3bbb73e3	0.005720602
14	0x3c0d2796	0.008615395
15	0xbcc05c92	-0.023481641
16	0x3d4f5cbd	0.05062555
17	0x3cc12d3a	0.023581136
18	0xbca82890	-0.020527154
19	0x3c9f1dcf	0.019423394
20	0xbdb6d902	-0.0892811
21	0xbcf2b9b1	-0.02962956
22	0xbd05fd54	-0.032712296
23	0x3d34137a	0.043963887
24	0x3bedab80	0.0072531104
25	0x3ded501a	0.11587544
26	0xbd0150d7	-0.031571236
27	0x3d1b6273	0.037935685
28	0xbd4f12e0	-0.05055511
29	0xbd1b5f04	-0.03793241
30	0xbc32f673	-0.010923016
31	0xbdc71866	-0.097214505
32	0xbda7e58b	-0.08198079
33	0x3d9b46f6	0.07581894
34	0xbd822bc9	-0.063560076
35	0x3c600716	0.013673564
36	0xbb65946b	-0.003503109
37	0x3dafd9a9	0.08586437
38	0x3d0f8975	0.0350432
39	0xbcb931b9	-0.022606717
40	0x3d1f31d5	0.038865883
41	0x3a4f0c79	0.0007898282
42	0x3aea41b4	0.0017872364
43	0xbd23ad7c	-0.03996037
44	0xbd9b30fb	-0.07577702
45	0xbca36b50	-0.019948632
46	0x3cc51c3d	0.024061317
47	0x3b2b44f1	0.0026133622
48	0x3c321aa4	0.010870609
49	0x3d47eff5	0.048812825
50	0x3d6a751f	0.0572406
51	0xbb891488	-0.0041833557
52	0x3d5daa23	0.054117333
53	0xbda9dc67	-0.082939915
54	0x3cde272d	0.02711829
55	0x3d153833	0.03643055
56	0xbc87c266	-0.016572189
57	0xbd5c72e8	-0.05382052
58	0xbd5e542e	-0.0542795
59	0xbd6403a8	-0.05566755
60	0xbd37a688	-0.04483655
61	0xbd924b00	-0.07143211
62	0xbda6b376	-0.08139698
63	0xbd21f4c4	-0.039540067
64	0xbd9200bf	-0.071290486
65	0x3d32a9d9	0.04361901
66	0x3d44e1cb	0.048066895
67	0xbc87973f	-0.016551612
68	0x3d799dec	0.06094162
69	0x3d698283	0.05700923
70	0xbc99773a	-0.01873361
71	0xbc3f3d04	-0.011672262
72	0x3d6c86dd	0.057745803
73	0x3d0e8969	0.034799013
74	0x3caf3b8f	0.021390704
75	0x3d36564c	0.044515893
76	0x3c032df7	0.008006564
77	0x3d403654	0.04692681
78	0x3d89a9a6	0.06721811
79	0x3c0bd808	0.008535393
80	0xbdacb55e	-0.084330305
81	0xbd070b1e	-0.032969587
82	0xbd0ae004	-0.033905044
83	0x3d915cfa	0.07097812
84	0x3d188e0f	0.037244853
85	0x3ce3023a	0.027711023
86	0x3c50eede	0.012752263
87	0x3ad25875	0.0016048091
88	0x3c1c2f8e	0.009532822
89	0xbc2a8a26	-0.010408914
90	0xbc978049	-0.018493788
91	0x3c8a2ed4	0.016868033
92	0x3b9485e6	0.0045325635
93	0xbda83e34	-0.08214989
94	0xbc5e5ee7	-0.013572431
95	0x3d7de54b	0.06198625
96	0x3d0a21c0	0.033723593
97	0x3da74843	0.0816808
98	0x3cee63cd	0.029100323
99	0xbdcbd0aa	-0.09951909
100	0x3c8c6591	0.017138274
101	0x3ce3e1ca	0.027817626
102	0x3d89863c	0.06715056
103	0x3d8bd444	0.06827596
104	0xbc78e443	-0.015191141
105	0xbd9e660d	-0.077343084
106	0xbdd086d9	-0.1018197
107	0xbdac8680	-0.08424091
108	0x3d03cfb3	0.0321805
109	0x3bbeaff4	0.005819315
110	0xbc9b644d	-0.018968726
111	0xbc5a12f7	-0.013310186
112	0x3d024d26	0.031811856
113	0xbd0aeeae	-0.03391903
114	0xbd9e5a8f	-0.077321164
115	0xbd4aaf1c	-0.049483404
116	0xbd9e2b5a	-0.077231124
117	0xbd720130	-0.059083164
118	0x3cf562c4	0.029954322
119	0x3d80a7bf	0.06281995
120	0xbd48d4d6	-0.0490311
121	0x3d4b4a21	0.04963124
122	0x3cdff296	0.027337354
123	0x3d6651c2	0.056230314
124	0xbd1f6ed9	-0.038924072
125	0x3d258107	0.040406253
126	0xbd7614e4	-0.060078517
127	0xbd838a2c	-0.064228386
128	0x3d7499c8	0.05971697
129	0x3d063b6e	0.03277152
130	0x3d345111	0.044022623
131	0x3d424477	0.047428574
132	0xbd9896ca	-0.07450636
133	0xbc67ad6e	-0.01414047
134	0xbdaf886a	-0.08570941
135	0x3d1de120	0.038544774
136	0x3d3e514d	0.046464253
137	0xbc31e270	-0.01085721
138	0xbbd03f56	-0.0063552065
139	0xbe1198db	-0.14218466
140	0x3d3ac9dc	0.045602664
141	0x3daface3	0.085778974
142	0x3d138b5e	0.036021583
143	0x3b454835	0.0030102853
144	0x3da0da5f	0.07854151
145	0xbd488491	-0.04895455
146	0x3c36b663	0.011151883
147	0xbd1ad5a0	-0.037801385
148	0x3ccd9535	0.025095562
149	0xbdb756b4	-0.08952084
150	0x3dacc332	0.08435668
151	0xbc4def39	-0.012569242
152	0x3d81e54c	0.06342563
153	0x3cd51c96	0.026014607
154	0xbda35c09	-0.07976539
155	0xbd827b47	-0.063711695
156	0x3c8e42b5	0.017365793
157	0xbb92b5b6	-0.004477228
158	0x3d2ba0ee	0.04190152
159	0xbd4dfd65	-0.050290484
160	0xbca2327d	-0.019799465
161	0xba8413db	-0.0010076718
162	0x3d8037fa	0.06260677
163	0xba8387a0	-0.0010034926
164	0xbd886e02	-0.06661607
165	0x3c8f5026	0.017494272
166	0xbcd39232	-0.025826547
167	0x3db71dd9	0.0894124
168	0x3cd9f097	0.02660398
169	0x3d09012e	0.03344839
170	0x3cb61e33	0.022231197
171	0xbd7b2b17	-0.06132039
172	0xbcb6d361	-0.02231759
173	0xbc721e19	-0.014777684
174	0x3d30f5d2	0.043203183
175	0xbe308656	-0.17238745
176	0x3d58fe44	0.05297686
177	0xbd847f71	-0.0646962
178	0x3c5d4bd1	0.013506846
179	0xbd269d96	-0.04067763
180	0xbc3d90a5	-0.0115701305
181	0x3d322735	0.043494422
182	0x3d36e1d0	0.044648945
183	0x3d632d7e	0.055463307
184	0x3d1f1b93	0.038844656
185	0xbc53168e	-0.012883795
186	0xbc213475	-0.009839167
187	0x3b520e22	0.003205188
188	0xbd6d3558	-0.0579122
189	0x3c8bcb0c	0.017064594
190	0xbd73c79d	-0.059516538
191	0x3d2cd4e3	0.042195212
192	0x3b524cfa	0.0032089339
193	0x3c449a4b	0.011999677
194	0xbca619e3	-0.020276016
195	0xbc3f3224	-0.011669669
196	0xbd44cce1	-0.04804695
197	0x3d7f17f3	0.0622787
198	0x3d321c0e	0.043483786
199	0x3d6b4888	0.057442218
200	0x3d225a0e	0.039636664
201	0x3d58fd79	0.052976105
202	0x3d926ca1	0.071496256
203	0x3c7ed37a	0.01555335
204	0xbd95995c	-0.073046416
205	0x3da65127	0.08120947
206	0xbcfe57e7	-0.031047774
207	0x3d92d618	0.071697414
208	0xbd4547df	-0.048164245
209	0xbd92086f	-0.07130515
210	0xbc334f0b	-0.010944138
211	0x3d9b9598	0.07596892
212	0x3d8f5ae9	0.069997616
213	0xba0184e3	-0.0004940761
214	0x3d07a9ef	0.033121046
215	0x3d3a1562	0.04543055
216	0x3dc442ca	0.095830515
217	0xbd7da28f	-0.061922606
218	0x3cf2e49d	0.029650027
219	0xbce465c8	-0.027880564
220	0xbd32b800	-0.043632507
221	0xbd27ece1	-0.04099739
222	0x3c8169d3	0.015797531
223	0xbd335b33	-0.043788146
224	0xbc42b3a2	-0.011883648
225	0xbc5535d6	-0.013013324
226	0xbb2a6ecc	-0.0026005981
227	0x3d14c693	0.036322188
228	0xbcf5070d	-0.029910589
229	0xbdd90ff2	-0.105987445
230	0x3baa2018	0.005191814
231	0x3c28aeb9	0.010295563
232	0x3c54b283	0.012982014
233	0xbd60b20d	-0.054857302
234	0x3d4a388d	0.049370337
235	0xbdc0328d	-0.09384642
236	0xbc09e75e	-0.008416979
237	0xbd049d93	-0.032376837
238	0xbcf8084f	-0.0302774
239	0xbdac0480	-0.08399296
240	0x3d3742e2	0.04474152
241	0x3d9d7838	0.076889455
242	0xbd95a980	-0.0730772
243	0xbc8f0d95	-0.017462531
244	0x3d301a7d	0.04299401
245	0x3d8b5979	0.06804175
246	0x3c5f3fd2	0.013626056
247	0xbcf3f141	-0.029778125
248	0xbd7f0243	-0.062258016
249	0x3d8bdfec	0.06829819
250	0xbd5ec938	-0.054391116
251	0xbd1af6bf	-0.03783297
252	0xbd3f55ad	-0.046712566
253	0xbb452f16	-0.003008788
254	0x3abfc11f	0.0014629698
255	0x3d83929e	0.064244494

encoder.2.bias f4 [64]
0	0x3c8a7348	0.016900674
1	0x3d5fa4bd	0.054600466
2	0xbd7fa217	-0.06241044
3	0x3da36726	0.079786584
4	0xbd8d1799	-0.068892665
5	0x3decc16d	0.115603305
6	0xbc9c1cd8	-0.019056723
7	0xbde385e4	-0.11109522
8	0xbd78d709	-0.06075195
9	0xbd973551	-0.07383216
10	0x3dad0298	0.0844776
11	0x3d320e61	0.043470744
12	0x3abc03d0	0.0014344398
13	0xbd15617c	-0.03646992
14	0xbbf54dfe	-0.007486104
15	0x3d8fb184	0.0701628
16	0x3d27dedd	0.040984023
17	0xbca2faae	-0.019894924
18	0xbc9bb0ce	-0.019005205
19	0x3c2e8115	0.010650893
20	0xbdbee78c	-0.09321508
21	0x3d830568	0.063975155
22	0xbdaf15d7	-0.085490875
23	0xbdc9cb1f	-0.098531954
24	0xbc57677d	-0.013147232
25	0xbd912a21	-0.070881136
26	0xbd14a2aa	-0.03628794
27	0x3d6a6be2	0.05723179
28	0xbca5cc0e	-0.020238902
29	0xbd9dfe37	-0.07714503
30	0x3de59791	0.112105496
31	0x3d3274ab	0.043568294
32	0xbaa06653	-0.0012237526
33	0xbd911209	-0.07083518
34	0xbccc108c	-0.024910234
35	0x3d5adf57	0.05343565
36	0x3d91ad83	0.07113173
37	0x3da48aed	0.080343105
38	0xbd9994b9	-0.0749907
39	0x3d2d7888	0.042351276
40	0xbd425ecb	-0.047453683
41	0x3cccbb07	0.024991525
42	0x3d2e1fcb	0.04251079
43	0xbd75efe4	-0.06004323
44	0xbd824c2e	-0.06362186
45	0x3c666725	0.0140626775
46	0x3d854872	0.065079585
47	0x3c893fc2	0.016754035
48	0xbd0b83eb	-0.034061354
49	0xbd5ff6f9	-0.05467889
50	0xbd606722	-0.054785855
51	0x3dcda44f	0.10041105
52	0x3c3e6386	0.011620408
53	0xbdaa09f9	-0.083026834
54	0x3d7b4437	0.06134435
55	0x3da02b47	0.078207545
56	0x3d4d0ce5	0.050061125
57	0x3da591ce	0.08084451
58	0xbdb75ad8	-0.08952874
59	0xbdad2d4f	-0.084559076
60	0x3d44c048	0.048034936
61	0xbcf2dd28	-0.029646471
62	0x3d919b98	0.07109755
63	0x3d0adbbb	0.033900958

encoder.4.weight f4 [32, 64]
0	0x3c5910ef	0.013248666
1	0xbd97b628	-0.074077904
2	0xbb9349e0	-0.0044948906
3	0xbdc91381	-0.09818173
4	0x3b57ed8d	0.0032947988
5	0x3c912e83	0.017722374
6	0x3d3259b8	0.043542594
7	0x3c913349	0.01772465
8	0x3d15aaf7	0.036539998
9	0xbb742a40	-0.0037256628
10	0x3cb431e2	0.021996442
11	0xbdde0e76	-0.10842602
12	0xbdc881e0	-0.09790397
13	0x3cefc9d6	0.029271048
14	0xbccb8dd1	-0.024847897
15	0x3d072d74	0.03300233
16	0xbca7f05a	-0.02050035
17	0x3d77cf86	0.060500644
18	0xbdb15926	-0.08659582
19	0xbcd3aa56	-0.025838058
20	0x3d855d87	0.065119796
21	0xbd8f0420	-0.06983209
22	0xbd1d6eb0	-0.038435638
23	0xbced1259	-0.028939413
24	0xbdd82d74	-0.105555445
25	0x3de354e8	0.11100179
26	0xbdf024b5	-0.11725751
27	0x3ce3817c	0.027771704
28	0xbc0a518b	-0.008442293
29	0xbde57a82	-0.11205007
30	0x3d39fbd1	0.045406166
31	0x3db5189a	0.08842583
32	0xbc3776ad	-0.011197728
33	0x3d1d69a4	0.038430825
34	0x3d233248	0.039842874
35	0x3dde5a29	0.108570404
36	0xbcf65ed8	-0.030074522
37	0x3dba641a	0.09101124
38	0xbdf01e9d	-0.11724589
39	0x3d37917c	0.04481648
40	0xbd738c25	-0.059459824
41	0xbd97b2c1	-0.074071415
42	0x3d482e75	0.04887243
43	0xbd65eea0	-0.056135774
44	0xbda621d4	-0.08111921
45	0x3d8ffb1d	0.07030318
46	0x3d2d000d	0.042236377
47	0xbb32089b	-0.0027165774
48	0x3deb4c07	0.114891104
49	0x3b1fd611	0.0024389068
50	0x3db33182	0.08749677
51	0x3da84cf8	0.082178056
52	0x3de154d2	0.11002506
53	0x3d3ab033	0.045578193
54	0x3d13bd29	0.03606907
55	0x3d5bd20b	0.05366711
56	0xbd519b90	-0.051173747
57	0xbdcd2264	-0.10016325
58	0xbd02a195	-0.031892378
59	0xbd8b6afb	-0.06807514
60	0xbc84b69e	-0.01620036
61	0x3decbb70	0.11559188
62	0xbda72f52	-0.081633225
63	0x3ded0f03	0.11575129
64	0x3d81b93f	0.06334161
65	0xbc8a559a	-0.016886521
66	0xbde816b2	-0.11332454
67	0x3daac664	0.08338621
68	0xbd7a159f	-0.061055776
69	0x3d82ca79	0.06386275
70	0xbd57c71f	-0.05268013
71	0x3dbdfa6a	0.09276278
72	0x3c586fa6	0.013210213
73	0x3d8b2dbe	0.06795834
74	0xbdb0ddcc	-0.086360544
75	0xbcac2761	-0.021014871
76	0xbd2fbf94	-0.042907313
77	0xbd5037aa	-0.050834335
78	0xbddb176f	-0.10697829
79	0xbdc8f145	-0.098116435
80	0xbc17f916	-0.009275695
81	0x3df14684	0.11781028
82	0x3cc15cdc	0.02360385
83	0x3da3baac	0.07994589
84	0xbdd259f5	-0.10271064
85	0xbd807b0a	-0.06273468
86	0xbdc11ad8	-0.09428948
87	0x3cc284a1	0.023744883
88	0x3dbbaf83	0.091643356
89	0xbc16df80	-0.00920856
90	0x3c441c3c	0.011969622
91	0xbdfa6297	-0.12225836
92	0xbd246e25	-0.040144105
93	0x3de56410	0.11200726
94	0x3d95521f	0.07291054
95	0xbd1bc4b6	-0.038029395
96	0xbd673830	-0.05645007
97	0x3d75c47c	0.060001835
98	0xbc2e8916	-0.010652801
99	0xbcdd4a83	-0.027013069
100	0xbddb315b	-0.10702773
101	0xbde750dd	-0.1129472
102	0xbce86649	-0.028369086
103	0xbe067254	-0.1312955
104	0x3d364ad5	0.04450496
105	0xbd9558f9	-0.07292361
106	0x3c4bb9be	0.012434421
107	0x3dba4c6c	0.090966076
108	0x3dd17178	0.102267206
109	0x3d92444f	0.07141935
110	0xbc8e74c1	-0.017389657
111	0x3d134ddd	0.035962928
112	0x3da67c27	0.08129149
113	0xbda8a522	-0.082346216
114	0x3d7264bd	0.059178103
115	0xbda9852a	-0.08277352
116	0x3de0632e	0.10956417
117	0x3e036fda	0.12835637
118	0xbdf71a96	-0.12065618
119	0xbcf70b9f	-0.030156909
120	0x3d99bfce	0.07507287
121	0xbddf790f	-0.10911762
122	0x3c888005	0.016662607
123	0x3d985dee	0.07439791
124	0x3d924f67	0.07144051
125	0x3cfb2d0d	0.03066113
126	0x3bf30084	0.007415833
127	0xbe0b5cb3	-0.1360958
128	0xbe055a45	-0.13022716
129	0xbddc79c9	-0.10765416
130	0xbc4d50d0	-0.012531474
131	0x3da0dc67	0.078545384
132	0x3d9d3115	0.07675377
133	0x3daf1a61	0.08549953
134	0xbbfab3aa	-0.007650812
135	0xbc6964d5	-0.014245232
136	0xbd68f8f6	-0.056878053
137	0xbdfe91d8	-0.12430161
138	0x3d066fb6	0.03282138
139	0x3d8e3de8	0.069454014
140	0xbdf610b5	-0.12014905
141	0x3d7547eb	0.05988304
142	0xbd469d3b	-0.04848979
143	0xbccd3b77	-0.02505277
144	0xbd1f8921	-0.038949136
145	0xbd32cdb8	-0.04365322
146	0x3de0d0a4	0.10977295
147	0x3d6b254b	0.057408612
148	0xbcd607c4	-0.02612675
149	0x3d36620c	0.0445271
150	0x3da874d2	0.08225407
151	0xbd40dad2	-0.047083683
152	0xbd893da9	-0.06701214
153	0x3c5da510	0.0135281235
154	0xbd200868	-0.039070517
155	0xbd94ef7d	-0.07272241
156	0x3d2c9ac8	0.0421398
157	0x3d972140	0.07379389
158	0xbdbd88b0	-0.09254587
159	0xbd5d2bfb	-0.05399702
160	0xbde74d7e	-0.11294077
161	0x3d841031	0.06448401
162	0x3c63a096	0.013893267
163	0x3d62612e	0.05526846
164	0xbd491245	-0.04908969
165	0x3c737386	0.014859086
166	0x3d36906a	0.044571318
167	0xbb427745	-0.002967314
168	0xbdb336db	-0.08750697
169	0xbd395738	-0.045249194
170	0xbd2be932	-0.04197044
171	0x3da807f0	0.08204639
172	0x3d48edce	0.049054913
173	0x3b3a23c3	0.0028402663
174	0xbd0749c6	-0.03302934
175	0xbda38c2b	-0.07985719
176	0xb846a789	-4.7362908e-05
177	0x3c8b8bab	0.017034372
178	0x3db610da	0.08889933
179	0x3dce5c15	0.10076157
180	0xbc8b4a1c	-0.017003112
181	0x3d2fecc4	0.042950407
182	0xbd3505a1	-0.04419482
183	0xbdd7a947	-0.10530334
184	0x3dd89a1d	0.1057627
185	0x3d7b8acf	0.061411675
186	0xbe012ee1	-0.12615539
187	0x3d3e419d	0.046449292
188	0x3d32ea64	0.043680564
189	0xbd674c50	-0.05646926
190	0xbd8f9240	-0.07010317
191	0x3c7512fd	0.01495814
192	0xbd886623	-0.06660106
193	0xbd54357c	-0.05180882
194	0x3dd74884	0.10511878
195	0xbdf316d4	-0.118695885
196	0xbdc72909	-0.09724624
197	0xbd9b3a18	-0.0757944
198	0xbcc5a8d9	-0.024128364
199	0x3d842819	0.064529605
200	0x3ba2b576	0.0049654795
201	0x3dae53f8	0.085121095
202	0xbd47d2a6	-0.048784874
203	0xbda2f28c	-0.079564184
204	0x3d42ef8d	0.047591735
205	0x3d7bef6a	0.06150762
206	0xbcb9bfe2	-0.022674505
207	0xbc47d5dc	-0.012196984
208	0xbcfa12f6	-0.03052662
209	0xbd5f137f	-0.054461952
210	0xbd84e04a	-0.06488092
211	0x3dde63c3	0.10858872
212	0x3c37c1ea	0.011215666
213	0xbc0389e7	-0.008028484
214	0x3d5b3bd4	0.053523853
215	0x3e188653	0.1489499
216	0x3d81da1e	0.06340431
217	0xbdaab820	-0.083359
218	0xbd4cab1a	-0.049967863
219	0xbdefa68d	-0.11701689
220	0xbb94f5a4	-0.004545884
221	0xbd6158b4	-0.055016235
222	0xbbba2f72	-0.0056819255
223	0x3d6091e5	0.054826636
224	0xbb866ba9	-0.0041021896
225	0xbcd89a9f	-0.026440917
226	0x3e08869c	0.133326
227	0xbdb6177a	-0.088911965
228	0x3c4dfc45	0.012572353
229	0xbdb427a9	-0.08796627
230	0x3def8a01	0.11696244
231	0xbdbcb6eb	-0.09214576
232	0xbd63f914	-0.05565746
233	0xbe034362	-0.12818673
234	0xbd46da05	-0.048547763
235	0xbd956308	-0.07294279
236	0xbda7c321	-0.08191515
237	0xbde24018	-0.11047381
238	0xbda55960	-0.080736876
239	0x3dad394a	0.08458193
240	0xbc9264e4	-0.017870374
241	0xbcd51071	-0.026008816
242	0xbcf4c9d2	-0.029881392
243	0x3d98913d	0.07449577
244	0x3da2feb8	0.0795874
245	0x3c8e3757	0.017360372
246	0xbd173a8c	-0.03692107
247	0xbda6fd39	-0.08153767
248	0xbdd4535e	-0.103674635
249	0xbd84bf04	-0.06481746
250	0x3c7e356d	0.015515667
251	0x3dc882c3	0.09790566
252	0xbce987b6	-0.028507095
253	0xbcefb49f	-0.029260932
254	0xbd53ac2e	-0.051677875
255	0xbd4f445c	-0.050602302

encoder.4.bias f4 [32]
0	0xbd534ad7	-0.051585045
1	0x3dac0a78	0.08400434
2	0xbb0a1145	-0.0021067422
3	0x3db69f91	0.089171536
4	0xbd9adb21	-0.07561327
5	0x3aef3f42	0.0018253105
6	0xbd6d8640	-0.05798936
7	0x3dbb31b6	0.09140341
8	0x3d0a330b	0.033740085
9	0xbd1a15bf	-0.037618395
10	0xbcc7861b	-0.024355939
11	0xbd0765a6	-0.033055924
12	0x3dc24537	0.09485858
13	0x3cc0a7e0	0.023517549
14	0x3dc4322b	0.09579881
15	0x3d3e107b	0.046402436
16	0xbd62c30d	-0.055361796
17	0x3d369f14	0.044585302
18	0x3cf7f2ea	0.030267198
19	0x3d591fdd	0.053008903
20	0xbbaa8b0f	-0.0052045654
21	0xbd9cc13e	-0.076540455
22	0xbc6fe366	-0.014641618
23	0xbcf7deff	-0.0302577
24	0xbd557185	-0.052110214
25	0xbc9bcfb2	-0.019019935
26	0xba32f38e	-0.00068264536
27	0xbdb5638c	-0.08856878
28	0x3da39e4a	0.079891756
29	0xbdb934aa	-0.09043248
30	0xbd1256da	-0.03572736
31	0xbcaea77c	-0.021320097

decoder.0.weight f4 [64, 16]
0	0xbd63fc07	-0.055660274
1	0x3dc41530	0.09574354
2	0x3d82c7e0	0.063857794
3	0xbccf265c	-0.025286846
4	0xbd73c3a0	-0.059512734
5	0xbe7ead5d	-0.2487082
6	0x3e69df89	0.22839178
7	0xbe152cb9	-0.14567842
8	0x3dc1ddaf	0.09466111
9	0x3e84a0bf	0.2590389
10	0x3d53d821	0.05171979
11	0xbd87c60d	-0.06629572
12	0x3e378f08	0.17925656
13	0xbdea09d9	-0.114276595
14	0xbe2bca07	-0.16776286
15	0x3e10233c	0.14075941
16	0xbd99b105	-0.07504467
17	0xbe8a07c3	-0.26959047
18	0x3e135d67	0.14391099
19	0x3e5b06bc	0.21389288
20	0xbe67002a	-0.22558656
21	0xbdd857ad	-0.10563598
22	0xbe884eba	-0.26622564
23	0x3e07632a	0.13221422
24	0xbdf4423f	-0.11926698
25	0xbdc81937	-0.09770434
26	0x3db8806b	0.09008869
27	0xbe967935	-0.2938935
28	0x3db5f13f	0.08883905
29	0xbe3f7bf6	-0.18699631
30	0x3e7bf0b1	0.24603535
31	0x3cd0a2f1	0.025468322
32	0x3e292485	0.16517837
33	0xbddbe36a	-0.10736735
34	0x3e20d76e	0.1570718
35	0xbd782622	-0.06058324
36	0x3e09b960	0.13449621
37	0x3e6794b8	0.22615325
38	0xbe3b705b	-0.18304579
39	0xbe2b5226	-0.16730556
40	0x3e75631c	0.23963588
41	0x3ce984e2	0.028505746
42	0x3dc42e64	0.09579161
43	0xbe348aea	-0.17631117
44	0xbded5783	-0.11588957
45	0xbd91c61e	-0.07117866
46	0xbe104cc4	-0.14091784
47	0xbd10d4ca	-0.03535918
48	0x3d521733	0.051291656
49	0xbdeb0160	-0.11474872
50	0xbe6001b2	-0.21875647
51	0x3e8bd97d	0.27314368
52	0x3e16a823	0.14712577
53	0xbdac6dbc	-0.08419368
54	0xbe7d2406	-0.24720773
55	0xbe387be7	-0.18016015
56	0xbdf67ff7	-0.12036126
57	0x3cd0da95	0.025494853
58	0xbe0f3181	-0.13983728
59	0xbe14e9b6	-0.14542279
60	0xbe81b3fa	-0.25332624
61	0xbe0ea957	-0.13931786
62	0xbbbed9fa	-0.0058243247
63	0x3dba5377	0.09097951
64	0x3df91b23	0.12163379
65	0xbd86028e	-0.06543456
66	0x3e5fc07c	0.2185077
67	0xbe668185	-0.22510345
68	0x3e186f8a	0.14886299
69	0x3e3ab913	0.18234663
70	0xbb6ec85f	-0.0036435348
71	0x3e5f8c4a	0.2183086
72	0xbda5bd26	-0.08092718
73	0x3e84e732	0.25957638
74	0x3ddb0a97	0.10695379
75	0x3e01a455	0.12660344
76	0x3e186cf1	0.14885308
77	0xbdea46c5	-0.114392795
78	0xbc796581	-0.015221954
79	0x3e16f250	0.14740872
80	0xbe230bc5	-0.15922458
81	0x3df80f3f	0.12112283
82	0xbe087db3	-0.133292
83	0xbdfbdbbc	-0.122977704
84	0x3c0ad2e7	0.008473135
85	0xbd411c2e	-0.047146015
86	0xbb1a1485	-0.0023510766
87	0xbe8189ed	-0.25300542
88	0xbe31d957	-0.17368065
89	0x3e489577	0.19588266
90	0x3e159816	0.14608797
91	0x3e07af70	0.13250518
92	0xbe6dc586	-0.2321988
93	0x3e48ae45	0.19597729
94	0x3d86c0b6	0.065797254
95	0x3e2cebc5	0.16886814
96	0xbe85dc9a	-0.26144868
97	0xbd98ee98	-0.07467383
98	0x3d4025ea	0.046911158
99	0xbe589b7c	-0.21153063
100	0x3e0dfdfc	0.13866419
101	0xbdb092ac	-0.086217254
102	0xbcdd2dd4	-0.026999392
103	0x3dc71ee7	0.09722691
104	0xbdd55814	-0.1041719
105	0x3e348d01	0.17631914
106	0x3e1a94a1	0.1509576
107	0xbc29f495	-0.010373254
108	0x3df6cd0f	0.120508306
109	0x3d876f32	0.06613006
110	0xbd06f6db	-0.032950263
111	0xbdc53ff7	-0.09631341
112	0x3e1773e9	0.1479031
113	0x3cd366a5	0.02580578
114	0x3dd4f774	0.103987604
115	0x3dc6f0f8	0.0971393
116	0x3ba3002c	0.0049743857
117	0xbe415293	-0.18879156
118	0xbd6c7bb9	-0.05773518
119	0x3e40c718	0.18825948
120	0xbe247a24	-0.16062218
121	0x3e1f5a8f	0.15561889
122	0xbe53525f	-0.20636891
123	0x3e47d5dd	0.19515176
124	0x3d2c87db	0.04212175
125	0x3e8581cc	0.2607559
126	0xbe14a02a	-0.14514223
127	0x3e5ad691	0.21370913
128	0x3d6c141c	0.057636365
129	0x3d71b7a7	0.059013035
130	0x3c8f1ffc	0.017471306
131	0xbddba8b0	-0.10725534
132	0xbe5d2b84	-0.21598631
133	0x3d999e49	0.075008936
134	0x3d5ccb7b	0.05390499
135	0xbc13341a	-0.00898459
136	0x3e1238f8	0.14279544
137	0xbd86df58	-0.06585568
138	0xbde6dd17	-0.11272638
139	0xbdbecb21	-0.093160875
140	0xbe0f4a72	-0.13993242
141	0xbd0191a4	-0.031633034
142	0x3dfcfb52	0.12352623
143	0x3dc91205	0.0981789
144	0x3d4f28b9	0.050575946
145	0x3e804430	0.25052023
146	0xbe080093	-0.13281469
147	0xbe61cf32	-0.22051695
148	0xbe860182	-0.26173025
149	0xbda172e0	-0.07883239
150	0x3d89dd8a	0.06731708
151	0xbce33226	-0.027733874
152	0xbdcc1586	-0.09965043
153	0xbd0eac86	-0.0348325
154	0xbd3e2420	-0.04642117
155	0x3e87e9b8	0.265455
156	0x3e30680c	0.1722719
157	0x3da639ea	0.08116515
158	0x3e29aefb	0.16570656
159	0x3ce442b5	0.02786384
160	0xbe82c014	-0.2553717
161	0x3d978a15	0.07399384
162	0x3bf7628b	0.007549589
163	0xbe3c0436	-0.18360981
164	0x3e89988a	0.2687419
165	0xbe172643	-0.1476069
166	0x3b97b1ef	0.0046293656
167	0x3e0e90bc	0.139224
168	0x3df68c9e	0.12038539
169	0xbdbb0666	-0.0913208
170	0x3c296bb2	0.010340618
171	0xbe859908	-0.26093316
172	0x3e669ddf	0.2252116
173	0xbdf9d7fc	-0.12199399
174	0x3cc9a95f	0.024616895
175	0x3dd31b28	0.10307914
176	0x3e84aa56	0.25911206
177	0x3e5ac873	0.21365528
178	0x3e448645	0.19191845
179	0xbcfc3f0a	-0.030791778
180	0x3e3f700b	0.18695085
181	0x3d889e3c	0.06670806
182	0xbe8c7e74	-0.27440226
183	0xbe783237	-0.24237905
184	0xbddd8b63	-0.108176015
185	0x3e72dd47	0.23717223
186	0x3e8e4a20	0.27790928
187	0x3d518072	0.051147886
188	0xbe849a23	-0.25898847
189	0xbd3ae320	-0.04562676
190	0x3ddcca02	0.107807174
191	0xbe08f25c	-0.13373703
192	0x3e48373e	0.19552323
193	0x3e56d5e6	0.20980033
194	0xbdf9dd0b	-0.12200364
195	0x3e0ad01e	0.13555953
196	0xbc6a9f1b	-0.01432016
197	0x3c8b6fa9	0.017021017
198	0x3d9c194e	0.07622014
199	0xbe50fde1	-0.20409347
200	0xbd5617f7	-0.05226895
201	0xbe6c1392	-0.2305434
202	0xbe07318b	-0.13202493
203	0x3e3e7367	0.1859871
204	0x3e7a8617	0.24465214
205	0xbdc642be	-0.09680699
206	0x3e073e94	0.13207465
207	0x3e6abb8d	0.22923107
208	0xbdd8ab0d	-0.105795
209	0xbd9f8206	-0.07788472
210	0x3d3250e5	0.04353418
211	0x3d59dabd	0.05318712
212	0xbc50bb5e	-0.012739984
213	0xbbb8ef5a	-0.0056437673
214	0x3e06e37a	0.13172713
215	0x3cd8a8a0	0.026447594
216	0xbd8ed61a	-0.069744304
217	0xbd993b3c	-0.07482001
218	0x3c20e3ec	0.009819966
219	0xbd0e6e26	-0.034773014
220	0xbde38899	-0.11110038
221	0x3b979541	0.0046259467
222	0xbe2f812d	-0.1713912
223	0x3d9345f9	0.071910806
224	0xbe3f36a4	-0.18673187
225	0xbcb760b3	-0.022384977
226	0x3ce09b90	0.027417928
227	0x3d4c928e	0.049944453
228	0xbb93620d	-0.0044977725
229	0xbe54c567	-0.20778428
230	0xbdb53ee1	-0.08849884
231	0x3dc070df	0.093965285
232	0x3e173a96	0.14768443
233	0xbd70a5ff	-0.058752056
234	0x3ccba89e	0.024860676
235	0x3d2a56ac	0.041586563
236	0x3dbc0e68	0.09182435
237	0x3d475614	0.048666075
238	0xbc5283ec	-0.012848835
239	0x3d772fe0	0.06034839
240	0xbe306a22	-0.17227986
241	0xbceee8a2	-0.029163662
242	0xbe4fe0ea	-0.20300642
243	0x3c802008	0.015640274
244	0x3c9a51ed	0.018837893
245	0xbde20973	-0.110369585
246	0xbd8749e5	-0.06605891
247	0x3e7843e2	0.24244645
248	0xbe4d2008	-0.2003175
249	0xbe305f09	-0.17223753
250	0xbd81e530	-0.06342542
251	0xbd28aa19	-0.041177843
252	0x3dbf3fac	0.09338316
253	0xbe4a5e8e	-0.19762632
254	0xbe7a58f3	-0.24447994
255	0xbe049bbc	-0.12950033

decoder.0.bias f4 [64]
0	0x3e40efcc	0.18841475
1	0xbdf158d3	-0.1178452
2	0x3e981d38	0.29709792
3	0xbcfbda3d	-0.030743713
4	0x3ec2a2f0	0.38014936
5	0x3eda91c3	0.42689332
6	0xbd9b8d80	-0.07595348
7	0xbe0fc4e7	-0.14039956
8	0x3ef399fd	0.4757842
9	0x3e0b90f5	0.13629515
10	0x3d32ad5b	0.043622356
11	0xbcaed5a0	-0.021342099
12	0x3e9f121e	0.3106851
13	0x3f1a4efb	0.60276765
14	0x3ecdf1a9	0.40223435
15	0xbd465959	-0.048425052
16	0x3e2b05c0	0.16701412
17	0x3c1afcc9	0.009459683
18	0xbccab9ed	-0.02474686
19	0xbe18756f	-0.14888547
20	0x3d3dce0a	0.046339072
21	0x3e53daaf	0.2068889
22	0x3eaafe4f	0.33397147
23	0x3ea2649f	0.31717393
24	0x3e31df0d	0.17370243
25	0xbc441965	-0.011968945
26	0x3e64677a	0.22305098
27	0x3e28c654	0.16481906
28	0x3d3da143	0.04629637
29	0x3e9bc487	0.30423376
30	0xbdcf7b29	-0.10130913
31	0xbccc95d7	-0.024973793
32	0x3e254a1d	0.16141553
33	0x3e51a25d	0.20472093
34	0x3e1b35c0	0.15157223
35	0xbd82bf97	-0.06384199
36	0xbe208be4	-0.15678364
37	0x3db5cec1	0.08877326
38	0x3db97815	0.09056107
39	0x3e70a1e3	0.23499255
40	0x3de109be	0.10988186
41	0x3d4c89f5	0.049936254
42	0xbe0374ac	-0.12837476
43	0xbd54b9c5	-0.051934976
44	0x3c7c3e66	0.015395736
45	0x3ea24cf2	0.3169933
46	0x3e2c9390	0.16853166
47	0x3e002d8a	0.12517372
48	0x3daf8ae0	0.0857141
49	0x3dddc868	0.1082924
50	0x3e4f6ab7	0.20255552
51	0x3ed044e9	0.40677574
52	0xbe0f0c04	-0.13969427
53	0xbde2ec59	-0.11080236
54	0x3e881aa1	0.26582816
55	0x3da4433c	0.080206364
56	0x3e1c5ae9	0.15269054
57	0xbd2a37ed	-0.04155724
58	0x3eb7a5bf	0.35868642
59	0xbe2dd2ea	-0.16974989
60	0xbd131bf5	-0.035915334
61	0x3ea65c8f	0.32492492
62	0xbdcb5ae5	-0.09929446
63	0xbd6704be	-0.056401007

decoder.2.weight f4 [128, 64]
0	0xbd2f2b19	-0.04276571
1	0xbda124fc	-0.07868382
2	0xbc162d3f	-0.009166061
3	0xbba53439	-0.005041626
4	0xbd44c4ea	-0.048039354
5	0x3e25bb52	0.16184738
6	0x3e0aea37	0.13565908
7	0xbd727f5b	-0.059203487
8	0x3c9d5cb5	0.019209245
9	0x3dc42999	0.095782466
10	0x3db1b6f2	0.08677472
11	0x3d91d1f6	0.07120125
12	0x3d3ebf6b	0.04656927
13	0x3dc3642b	0.0954059
14	0x3de82950	0.11336005
15	0x3e1dfedc	0.15429252
16	0x3c146fa3	0.009059819
17	0x3d97f7bb	0.07420298
18	0x3d86baf7	0.065786295
19	0x3dd52c64	0.104088575
20	0xbc8efec4	-0.017455466
21	0x3ddce2f2	0.10785474
22	0x3e27ced1	0.16387488
23	0x3e29dbc2	0.16587737
24	0x3ce2b1f1	0.02767274
25	0xbd2eb507	-0.04265311
26	0x3c2dc3ac	0.010605734
27	0x3cdf8154	0.027283348
28	0xbd67f721	-0.056632165
29	0x3e28a151	0.16467787
30	0x3e1147ad	0.14187498
31	0x3cbe8b75	0.023259858
32	0xbd1d4f22	-0.038405545
33	0x3c96791c	0.018368296
34	0x3d7ec72d	0.062201668
35	0xbd33cf21	-0.043898705
36	0xbc2e601a	-0.01064303
37	0xbd9bf03c	-0.076141804
38	0x3d052524	0.032506123
39	0x3d15b6ff	0.03655147
40	0xbd28a3c7	-0.041171815
41	0x3d819b96	0.06328504
42	0x3db870cf	0.090058915
43	0x3e2d2963	0.16910319
44	0x3df1ba63	0.118031286
45	0x3e2f3617	0.17110477
46	0x3dc6bf2e	0.097044334
47	0x3d32a1ec	0.043611452
48	0xbda348c2	-0.07972862
49	0x3dc8828e	0.09790526
50	0x3dd20592	0.10254969
51	0x3dd68fd9	0.104766555
52	0xbd6d4a67	-0.057932284
53	0x3e153672	0.1457155
54	0xbd5474d7	-0.05186924
55	0x3d35f25b	0.04442058
56	0x3d74f291	0.05980164
57	0x3dd56e7d	0.104214646
58	0xbd4b7162	-0.049668677
59	0xbcd91af3	-0.026502108
60	0x3d293b55	0.04131635
61	0x3dc5b5a2	0.09653784
62	0x3ddee1ec	0.10882935
63	0xbce2bfd7	-0.027679367
64	0xbd7b9634	-0.06142254
65	0x3dab1a49	0.08354623
66	0x3dd64935	0.10463182
67	0x3d9df7ee	0.077133045
68	0xbd81ed73	-0.06344118
69	0x3e22feaf	0.15917467
70	0x3c2bba66	0.010481453
71	0x3e0aedc0	0.13567257
72	0x3b9bf4ad	0.0047593922
73	0xbc74e697	-0.014947555
74	0xbc2bc646	-0.010484284
75	0xbd51168b	-0.05104689
76	0xbc5a2fa7	-0.013317025
77	0x3d69b7f6	0.057060204
78	0x3e26045d	0.16212602
79	0x3d96eb62	0.073691145
80	0x3e1299f0	0.14316535
81	0xbd1f31bc	-0.03886579
82	0x3e00843f	0.12550448
83	0xbc8e9291	-0.017403873
84	0xbda097f6	-0.07841484
85	0x3e0a8788	0.13528264
86	0x3d3845be	0.044988386
87	0x3e13a328	0.14417708
88	0x3df5ebcd	0.12007866
89	0xbda7d553	-0.08194985
90	0x3e23d43f	0.15998934
91	0x3ddadb00	0.10686302
92	0xbd6f18d3	-0.058373284
93	0x3d97ca51	0.07411636
94	0x3d1f47af	0.038886722
95	0x3e024a03	0.12723546
96	0x3d351381	0.044208053
97	0x3dc07c2f	0.09398686
98	0x3df51fdf	0.119689696
99	0x3d19f378	0.037585706
100	0x3d5cfa61	0.053949717
101	0x3d0f758d	0.035024215
102	0xbd6af707	-0.05736449
103	0xbd4f98c9	-0.050682817
104	0xbd73b2b5	-0.0594966
105	0x3e107aca	0.1410934
106	0xbd816a1c	-0.06319067
107	0x3c82fad9	0.015988754
108	0xbd83f4e8	-0.064431965
109	0x3bebad90	0.007192321
110	0xbd1263a6	-0.035739563
111	0x3c8cfd29	0.01721056
112	0x3d8eda28	0.06975204
113	0x3c87d933	0.01658306
114	0x3de74608	0.11292654
115	0x3ddf5aea	0.10906012
116	0x3dd130f0	0.10214412
117	0xbbe867f3	-0.00709247
118	0xbd0d602c	-0.034515545
119	0x3cc2255e	0.023699459
120	0xbd1ccee0	-0.03828323
121	0x3e219eae	0.15783188
122	0x3db06dba	0.08614679
123	0x3d4a4278	0.049379796
124	0x3df512f3	0.11966505
125	0x3e0f0f2f	0.13970636
126	0x3d8e7e84	0.06957725
127	0xbd73a69c	-0.059485063
128	0x3b619721	0.0034422355
129	0xbdded6e5	-0.10880832
130	0x3ccd32cd	0.025048638
131	0x3cdd86ba	0.027041782
132	0x3d7410da	0.059586383
133	0x3d6915f5	0.056905705
134	0x3d36a359	0.044589374
135	0x3d8659bb	0.065600835
136	0x3e13b920	0.14426088
137	0xbcb7d9b5	-0.022442678
138	0xbc97139b	-0.018441966
139	0x3c9e2c92	0.019308362
140	0x3dc5d9ed	0.09660707
141	0x3ddb71a7	0.10715037
142	0x3da9028e	0.082524404
143	0xbd2952c9	-0.041338716
144	0x3e267678	0.1625613
145	0xbcb1929a	-0.02167635
146	0xbd7ed3d2	-0.062213726
147	0xbd28186d	-0.04103892
148	0xbbd5e593	-0.0065276115
149	0x3d8bfd12	0.06835379
150	0x3ddcc6e8	0.10780126
151	0x3d480d1d	0.04884063
152	0x3e0b3963	0.1359611
153	0x3df8166e	0.12113653
154	0x3e02837d	0.12745471
155	0x3dd5f2a7	0.10446673
156	0x3d5bad9a	0.053632356
157	0xbd653762	-0.05596102
158	0xbceff35b	-0.029290846
159	0x3e0b4426	0.13600215
160	0xbc9ac689	-0.018893497
161	0x3d05c573	0.032659005
162	0x3d68472c	0.0567085
163	0xbd17512e	-0.036942653
164	0x3dcb4fef	0.099273555
165	0x3e0725b3	0.13197975
166	0x3d9d2e4e	0.076748475
167	0x3d0a9385	0.03383209
168	0xbdb3e3b1	-0.08783663
169	0xbd947f6c	-0.07250866
170	0x3e08d45b	0.13362257
171	0x3a5d2674	0.0008436211
172	0x3cbd010a	0.023071785
173	0xbd1d6a52	-0.038431473
174	0xbca57dd5	-0.020201603
175	0x3d3df5d1	0.046377007
176	0xbcf1a7f1	-0.029499026
177	0x3cb612f3	0.022225833
178	0xbc663189	-0.014049896
179	0x3e2a2adf	0.16617917
180	0x3de49aac	0.11162314
181	0xbd80ed23	-0.0629523
182	0xbd931041	-0.071808346
183	0x3d560988	0.052255183
184	0x3e0903b3	0.13380317
185	0x3e02a397	0.12757717
186	0x3d770187	0.06030419
187	0x3dec1ce5	0.11528949
188	0xbdc1ce31	-0.09463156
189	0x3df9a2a5	0.12189225
190	0xbdae5d69	-0.0851391
191	0x3d811e62	0.06304623
192	0x3d25bd83	0.040463936
193	0xbd84d30a	-0.06485565
194	0x3cecd17f	0.02890849
195	0xbd894dc1	-0.067042835
196	0x3e19087b	0.14944641
197	0x3d3c4351	0.045962635
198	0x3df6473e	0.12025307
199	0xbc998796	-0.01874141
200	0x3d33aeb0	0.043867767
201	0x3d7a41e4	0.061097994
202	0x3d0c9c79	0.03432891
203	0x3d4745b9	0.048650477
204	0x3db91528	0.09037238
205	0x3c1beb23	0.00951651
206	0x3e17412c	0.14770955
207	0xbb60d588	-0.0034306962
208	0xbc0b16bf	-0.00848931
209	0x3dba1e92	0.09087862
210	0x3d549037	0.051895346
211	0x3d941e1c	0.072323054
212	0x3e1d355b	0.15352385
213	0x3dc7e4b0	0.097604156
214	0xbd7652be	-0.060137503
215	0x3dbef2ac	0.0932363
216	0x3e2ca4ae	0.16859695
217	0x3b250aa7	0.0025183351
218	0x3d47b883	0.04875995
219	0x3d836a38	0.06416744
220	0x3ce7c75c	0.028293304
221	0xbd69e1ef	-0.057100233
222	0x3dc8daf8	0.0980739
223	0x3e00d44f	0.1258099
224	0x3d9a3d66	0.07531242
225	0x3d2aee52	0.041731186
226	0x3d8fc85f	0.0702064
227	0x3dc98d92	0.098414555
228	0x3d18952f	0.037251648
229	0x3d001edd	0.031279434
230	0xbd0fa60d	-0.035070468
231	0xbd3ebc49	-0.04656628
232	0x3b060b46	0.0020453497
233	0xbc518e25	-0.012790238
234	0x3df16b89	0.11788089
235	0x3be87165	0.007093596
236	0x3c60c2e3	0.01371834
237	0x3d0e4754	0.034735993
238	0x3d2895bc	0.041158423
239	0xbc01bbdc	-0.007918324
240	0x3e1c2c8a	0.15251365
241	0x3da6efa3	0.08151176
242	0xbd484271	-0.04889149
243	0xbd56aafe	-0.052409165
244	0x3e25baa8	0.16184485
245	0x3dc1bcfa	0.094598725
246	0xbd1e1f33	-0.038603973
247	0xbd797163	-0.06089915
248	0x3c99c13d	0.018768901
249	0xbda35ef7	-0.079770975
250	0x3c437a1e	0.0119309705
251	0x3d2ea990	0.042642176
252	0x3e049b4d	0.12949868
253	0xbd6f1d72	-0.05837769
254	0x3de73815	0.11289994
255	0x3d8b232e	0.06793819

decoder.2.bias f4 [128]
0	0xbd377dd3	-0.04479773
1	0x3d40b5c9	0.047048364
2	0xbc99ca6a	-0.018773276
3	0x3db28883	0.08717444
4	0x3bc5c297	0.00603516
5	0x3e246abc	0.16056341
6	0x3d280fff	0.04103088
7	0x3d2545ae	0.040349655
8	0xbdaacdc7	-0.0834003
9	0xbc2841b2	-0.010269569
10	0x3e2bf651	0.16793181
11	0x3e185669	0.14876713
12	0x3cbbd301	0.022927763
13	0xbf196527	-0.5991997
14	0x3e67cf99	0.22637786
15	0x3dedb307	0.116064124
16	0xbc925c70	-0.017866343
17	0x3e16acb8	0.14714324
18	0x3d8c7f79	0.06860251
19	0x3dce4b2a	0.1007293
20	0x3e0c83ea	0.13722196
21	0x3e171ce1	0.1475711
22	0x3d619a5a	0.05507884
23	0x3e4069ae	0.18790314
24	0x3e3cae4d	0.18425865
25	0x3b7fc315	0.003902619
26	0x3dfdb23e	0.123875126
27	0x3df17db0	0.11791551
28	0x3dd0cdd8	0.101955116
29	0x3d47e8a5	0.04880585
30	0x3d31c5fa	0.043401696
31	0x3e410362	0.18848947
32	0x3da812ce	0.08206712
33	0x3e2e24c4	0.17006212
34	0xbbe80e34	-0.0070817713
35	0xbd18033c	-0.03711246
36	0x3d914d3a	0.07094808
37	0xbc65702a	-0.014003793
38	0x3cfcaefe	0.030845162
39	0x3e1ed2d7	0.15510117
40	0x3d616eb2	0.055037208
41	0x3de6f640	0.11277437
42	0x379a5f5a	1.8402632e-05
43	0x3dbc6211	0.09198392
44	0x3de32084	0.11090186
45	0x3e2bb38a	0.16767707
46	0xbbe2af43	-0.0069178655
47	0xbe039191	-0.12848498
48	0x3d4d6485	0.05014469
49	0xbd37da2e	-0.044885807
50	0x3dff9a31	0.124805816
51	0x3e066baa	0.13127008
52	0x3d89efc5	0.067351855
53	0x3e0fa3c7	0.1402732
54	0x3dd5bd37	0.104364805
55	0x3dec62e9	0.11542303
56	0x3e25a2f4	0.16175443
57	0x3d363bbc	0.04449056
58	0x3dd0a99a	0.10188599
59	0x3d26c30e	0.040713362
60	0x3bada8ad	0.0052996487
61	0x3d5968bb	0.053078394
62	0x3e8a819e	0.27052015
63	0xbc44a9d2	-0.012003379
64	0x3d115310	0.035479605
65	0x3e86008a	0.26172286
66	0x3d522c96	0.05131205
67	0xbd145a61	-0.036219005
68	0x3bc114b5	0.005892361
69	0x3e010e75	0.12603171
70	0x3e3cd3d9	0.18440188
71	0x3d588501	0.052861217
72	0x3c088fb7	0.008335046
73	0x3e4b8e0a	0.19878402
74	0x3d614698	0.054998964
75	0xbd006ab4	-0.03135176
76	0x3da90726	0.082533166
77	0x3d8c343e	0.06845902
78	0xbc739961	-0.014868111
79	0xbd1d05dd	-0.03833567
80	0x3e003123	0.12518744
81	0x3e51dea3	0.20495085
82	0x3e2a8315	0.16651566
83	0xbc33e0ce	-0.010978891
84	0x3e3683c9	0.1782371
85	0x3e01626c	0.12635201
86	0x3de6d220	0.11270547
87	0x3e447e3b	0.19188778
88	0xbd245df3	-0.04012866
89	0x3cb1e39a	0.021714974
90	0x3d12f1f2	0.03587527
91	0x3cc4d3cc	0.024026774
92	0x3e235674	0.15950948
93	0x3e1fc00e	0.15600607
94	0x3dcdb14f	0.100435846
95	0xbd333573	-0.043752145
96	0x3dcd6f1d	0.10030959
97	0x3de9adc3	0.114100955
98	0xbd14e81e	-0.036354177
99	0x3ddfaf58	0.10922116
100	0xbd975b20	-0.073904276
101	0x3d6f201f	0.058380242
102	0x3c7f5c74	0.015586007
103	0xbfe9ed08	-1.8275461
104	0xbc8d7720	-0.017268717
105	0x3e30bfaa	0.17260614
106	0xbc779a47	-0.015112466
107	0x3bb78f4a	0.005601798
108	0x3e1368ae	0.14395401
109	0x3dc62bac	0.096762985
110	0xbd2d213f	-0.042268034
111	0x3e710021	0.23535205
112	0xbd09eae3	-0.03367127
113	0x3e3bee42	0.18352607
114	0xbd34b075	-0.044113595
115	0xbc8aa7fb	-0.016925802
116	0x3d1654c5	0.036701936
117	0x3e7d4086	0.24731645
118	0x3dd12dbe	0.10213803
119	0x3d8ac731	0.06776274
120	0x3e0a8aed	0.13529558
121	0xbccbc7e2	-0.024875585
122	0x3e426718	0.1898464
123	0xbd65e492	-0.056126185
124	0x3e3b2764	0.18276745
125	0x3d3c4b75	0.0459704
126	0x3df83899	0.1212017
127	0x3e298313	0.16553907
