vae_model2.pth (torch, 209634 bytes, 14 tensors)

fc1.weight f4 [128, 122]
00000000: 0739 a33d e932 773d 28fe 5d3d 8168 87bd
00000010: cca0 50bd 0b39 3fbd 7300 b4bd c83e b0bd
00000020: 7fcc 4abd 8198 113d 8901 9b3d 83c2 073d
00000030: 75a7 e03c d4cc b6bd 96a8 8b3d 2e61 cbbc
00000040: 38ba 71bd 0b1e 653c 372f 81bd 9c02 d63a
00000050: 9b6b 58bd f612 afbb 8a00 893c 6f5e bc3d
00000060: 246c 32bd ffab 90bd 60a2 f23b 7ce1 71bd
00000070: 41ff 863d b23e 44bd 6140 8a3d 0756 7bbd
00000080: 4f8a 6d3c 896c c2bc 6579 fc3c 3ce5 873d
00000090: 12b8 cabd bc51 1c3c 7980 91bd aac7 abbd
000000a0: be3d 863d bada 6dbd 06c8 383c 6f5b ff3b
000000b0: 839f 473d 7d65 88bd e750 31bd 1c8e 163c
000000c0: 0f17 533d 6b94 943d 6910 99bd 6f80 9d3d
000000d0: f468 7c3c c232 7b3d ef59 91bd 0b0e 98bd
000000e0: 6744 a7bd 2dbc 8ebc da0f aa3d 3311 19bc
000000f0: fb79 fe3c 86a5 da3c fc5d d93c 2dba f7bc
00000100: f3a7 a6bd 6c71 9cbd f321 c43b 4321 78bd
00000110: 05b1 853d 7bba 043d c990 843d 1c0b 8f3d
00000120: fad7 3f3d 1866 2a3c 6d30 ba3d 696a 2b3b
00000130: 43a5 42bd ccea 6bbd f670 a83c 71b8 e53c
00000140: f85b 91bb b773 873d 3bdf 2a3c a3c3 973d
00000150: c4fb afbc e058 8c3c 75bf 3a3d e79f 423d
00000160: b0d9 01bd 6703 eabc 0188 35bc 249c 1ebd
00000170: 8bfa acbd ff5b a03d 3dd6 693c 73ba 933d
00000180: 0b9e 85bd e2aa 73bd d01d 863d 98ed 56bd
00000190: 8cce 193d 8230 9abd da45 563c 7816 32bd
000001a0: d943 8d3d de09 9cbc 9cc2 a2bd d7ff f13c
000001b0: 72fa 1cbd 01ca 663d ea02 7bbd f214 183d
000001c0: 7aa5 99bc 0f96 eabc 9ab1 a6bd 8981 77bd
000001d0: 7627 9b3c 45fa b13b e242 80bd 33e3 0abd
000001e0: c438 bbbd 845d 89bd 32a2 8cbd 039d 8c3c
000001f0: 9ff1 fcbc fc6e 12bd 9643 c4bd b797 57bd
00000200: d0d8 5cbd 0ade 0f3c b326 9cbd 6b43 afbd
00000210: 899e 6fbd e818 7c3c 229e 1c3d f70e 883d
00000220: 1dba e73b 32a2 443d 67a9 8fbd 4c9c 3cbd
00000230: 1444 223d 0b91 64bd 1273 0dbd 4807 9c3b
00000240: 5947 c0bd 5a62 98bd 4ae1 62bc 32de febc
00000250: ef19 e5bc 936f f3bc 7bfa 1fbd e36d c0bc
00000260: 4fa7 42bc 850e 413d ffe6 b93c 9eee 993d
00000270: 03d1 243d 430b 89bd aa94 c7bd 520f 0e3d
00000280: 4e37 8b3d b8c6 c63c 485b f33c 7ce6 babd
00000290: b607 043d 6781 9cbd 72da b8bb acb4 c3bc
000002a0: 681e 4dbd ba34 953d 55a5 0fbc 7a95 023d
000002b0: c3c2 2dbc 93a0 18bd e8e7 533d 2b73 eebc
000002c0: a14b d1bc 3e8d 403d 93f3 9cbd ade6 4c3d
000002d0: 48ba 953c 7d92 88bd 5766 993c 4296 1b3d
000002e0: f085 8abb 565d 61bd 6c81 143d f4d1 e7bc
000002f0: 91ce aebd 328b c2bd 000b 1b3d 4d10 bcbd
00000300: 522c 17bb 4fc8 a23c 17d2 5abc a296 013d
00000310: 24ba a9ba cb13 a2bd f01c ae3c 37fd aebc
00000320: 6f38 9abd 7064 bc3c dc0c c1bd dd53 3c3d
00000330: 9300 153b 5a4d 88ba adb9 9bbc 7ebe df3c
00000340: 56c0 813d daf8 09bc 4e0b e73a 5f50 8b3c
00000350: babd 95bd f9ab 393d c08a 8a3d ba5a b1bb
00000360: f17c 5b3d 025f 11bd 9689 4a3d 8cc8 a33c
00000370: 8202 ff3a deff 983d 3bc6 7b3c 8916 5d3d
00000380: ec3f bdbd f918 c4bd cc8b 973c 52a8 833c
00000390: 2413 8c3d 93b2 a4bb 3c10 983d 5516 9b3d
000003a0: eb66 9a3d c7bb 973d 707d f0ba dd47 f4bc
000003b0: d629 b1bd edf7 76bc e5b5 9dbd 89c9 09bd
000003c0: 2b3b af3c c3e5 5cbd 4b6f 773d c86b 5d3d
000003d0: a3f6 99bd 2340 52bc f81a 5e3c afea e3bc
000003e0: bd60 d43c 5a46 5f3d a373 43bd 8243 d1bd
000003f0: 5c39 16bd fa5a 06bd 85d0 2bbd 0f64 bcbd
0.079698615 0.060351286 0.05419746 -0.066117294 -0.050934598 -0.04668526 -0.08789148 -0.086057246
-0.04951143 0.03554583 0.07568652 0.033144485 0.0274236 -0.089257866 0.068192646 -0.024826612
-0.059015483 0.013984214 -0.06307834 0.0016327682 -0.052836996 -0.0053428365 0.01672389 0.09197699
-0.043560162 -0.07064056 0.0074046105 -0.05905293 0.065916546 -0.047911353 0.067505606 -0.06136134
0.014498307 -0.023733394 0.030819604 0.0663552 -0.0989839 0.009540971 -0.07104582 -0.08387692
0.06554745 -0.058069922 0.011278158 0.007792882 0.048736107 -0.06659982 -0.043290045 0.009189155
0.051535662 0.07254871 -0.07473833 0.076905124 0.015405882 0.061327703 -0.070972316 -0.074245535
-0.081673436 -0.017423714 0.08303805 -0.0093424795 0.031064024 0.026690256 0.026534073 -0.030240143
-0.081375025 -0.07638821 0.0059854924 -0.060578596 0.065279044 0.032404404 0.06472928 0.06984541
0.04683683 0.010400318 0.09091268 0.0026155955 -0.047520887 -0.057596967 0.020561676 0.02804205
-0.0044360124 0.06613868 0.010429199 0.074103616 -0.021482356 0.017132223 0.045592744 0.047515776
-0.031701744 -0.028566075 -0.011079789 -0.038723126 -0.08446225 0.07830047 0.01427227 0.07213297
-0.06524285 -0.05948914 0.06548655 -0.05247268 0.037550494 -0.075287834 0.013078177 -0.04347846
0.068977065 -0.019047674 -0.07947275 0.02954094 -0.03832478 0.05634499 -0.061282076 0.03712935
-0.018755663 -0.028636007 -0.081393436 -0.06042627 0.018939715 0.005431446 -0.06262757 -0.03390808
-0.091416866 -0.0670729 -0.06866874 0.017164713 -0.030876933 -0.035750374 -0.095832035 -0.05263492
-0.053917706 0.008780966 -0.07624569 -0.08557781 -0.0585008 0.0153867975 0.038236745 0.06643479
0.007071747 0.048006244 -0.07014733 -0.046047494 0.039615706 -0.055802386 -0.034533568 0.00476161
-0.093886085 -0.07440634 -0.013847658 -0.03111181 -0.027966468 -0.029716289 -0.039057236 -0.023489898
-0.01188071 0.047132988 0.022693155 0.07516216 0.04023839 -0.06691601 -0.09745152 0.03468258
0.06797658 0.024264678 0.029706612 -0.09125993 0.032233916 -0.07641869 -0.005641275 -0.023889862
-0.050077826 0.072854474 -0.008767446 0.031880833 -0.010605517 -0.03726251 0.051734835 -0.02910765
-0.025548758 0.0470097 -0.076636456 0.050024677 0.018277302 -0.066685654 0.018725557 0.037985094
-0.0042273924 -0.055020653 0.03625624 -0.028298356 -0.08535493 -0.09499206 0.037852287 -0.091827966
-0.0023067188 0.019870905 -0.013355753 0.031637795 -0.0012949151 -0.079139315 0.021254033 -0.021360977
-0.07530295 0.022997111 -0.09426281 0.045978416 0.0022735938 -0.0010399029 -0.019009436 0.027312513
0.06335513 -0.008421147 0.001762727 0.017006097 -0.07311578 0.04533002 0.06764746 -0.005412427
0.05358595 -0.035490997 0.04944762 0.01999309 0.0019455703 0.07470678 0.015367086 0.05397657
-0.09240708 -0.09575076 0.018499278 0.016071472 0.06839588 -0.0050261705 0.074249715 0.07572619
0.07539161 0.074088626 -0.001834793 -0.029819423 -0.08650558 -0.015073759 -0.07700709 -0.033639465
0.021390518 -0.053930055 0.06040887 0.054057866 -0.07517745 -0.012832674 0.013556235 -0.027821867
0.025925035 0.05451045 -0.0477177 -0.10217954 -0.036675796 -0.032801606 -0.041946907 -0.09198772

fc1.bias f4 [128]
00000000: 0ff0 18bd d4da bfbb dd16 c23b 620b 88bd
00000010: 47ed 0b3d 4038 91bd a990 cc3c bf63 c43d
00000020: 9d60 743c 932d 9d3d 2dbd acbd f8ea b43d
00000030: 30cf 073d 9c83 fb3c 4aec af3d 06b9 7bbd
00000040: 04e9 26bc c653 013d 1875 a13d 2721 7bbd
00000050: 8c2e 00bd 883f bc3c 1edf 933d 7a2f acbd
00000060: 4d02 c93c 8caf cabd f836 d43b 9cf2 83bd
00000070: 0fb0 953d fb68 d03c 78a2 93bd 8210 273d
00000080: 16a6 8b3d ce46 46bd ccb3 683d 6304 bcbd
00000090: 4964 d9bc 676f 87bd 16d9 d93d 61fe 613d
000000a0: 2bd7 99bd 36a4 76bd 2926 eb3c b7b2 91bb
000000b0: 1dab af3d 8c97 c63c ff10 183d ffd9 bb3c
000000c0: 7f06 623c 60e0 98bd 1faf 3b3d 35f9 bebd
000000d0: b423 a6bd b856 4e3a de63 b9bd f932 693b
000000e0: 1d2d e43c 5bb6 c93c 4575 643d 7370 483d
000000f0: 1779 113d 9424 30bd 40df 96bd 3e28 733d
00000100: 08ce 8ebd 6902 ac3c 5399 c5bc 71cf 22bd
00000110: 1ea6 023d 6d33 afbd 60ae 9cbd 3838 2b3d
00000120: 012e 96bd 16bc b9bd 6f6b 40bd 7b6c a5bd
00000130: 58c9 25bc b612 b03d 5607 c73d 271f 92bd
00000140: 94f1 313b d28f c53d e278 b3bd 4926 79bd
00000150: bb39 a5bd 8555 7f3d a433 41bc 94ac 363d
00000160: e741 c93d 2741 57bd b1c3 523d 4a5c debd
00000170: c78a 9cbd 8870 2c3d 38b0 7abc 5eb0 9b3d
00000180: aceb df3d b466 383d e82a 803d 9146 873d
00000190: 39a6 99bd 5572 753d 2606 38bd 50b5 54bd
000001a0: 0bfe e83d 0b58 523d 99b9 803d 9af9 52bd
000001b0: 29ed 643c d087 37bd d8b5 ac3d a7cd 9fbd
000001c0: 38e6 14bd 577d ac3d 3c52 c83d ffa8 c53c
000001d0: 1d3a c73b 2e98 afbd 4f7a da3d dca4 a23d
000001e0: c247 a2bd 981f bebd d9e2 783d aa18 5a3b
000001f0: 6639 be3d 344c 95bd ec79 803d 0041 81bd
-0.037338313 -0.005854944 0.0059231357 -0.06642796 0.034161832 -0.07090807 0.024971323 0.095893376
0.0149156125 0.07674708 -0.0843452 0.08833879 0.033156574 0.030702405 0.085899904 -0.06145575
-0.010187391 0.031574033 0.07883662 -0.061310913 -0.03129439 0.022979513 0.072202906 -0.08407493
0.02453723 -0.09896764 0.0064762793 -0.064427584 0.07308971 0.025440684 -0.07208723 0.040787227
0.06818788 -0.04840737 0.056812093 -0.09180524 -0.026537078 -0.06613045 0.10637109 0.055174235
-0.07511743 -0.060215198 0.02870472 -0.0044463533 0.08577559 0.024242185 0.037125584 0.022931097
0.013795494 -0.07464671 0.045821305 -0.09324876 -0.081122786 0.00078711985 -0.09052251 0.003558336
0.027853543 0.024623087 0.0557759 0.048935365 0.03551587 -0.043003634 -0.073668 0.05936455
-0.06972891 0.020997243 -0.024120962 -0.039748613 0.031896703 -0.085547306 -0.07650447 0.04180166
-0.07332993 -0.09069078 -0.046977457 -0.08077332 -0.010118805 0.08597319 0.09718196 -0.07134848
0.0027152048 0.09646572 -0.08763291 -0.060827527 -0.08067652 0.062337417 -0.011792097 0.044598177
0.09827023 -0.05255237 0.051456157 -0.108574465 -0.07643657 0.042099506 -0.015300803 0.07601999
0.10933623 0.04501982 0.06258184 0.06605256 -0.075024076 0.05992349 -0.04492774 -0.051930726
0.1137658 0.051353496 0.062854 -0.05150757 0.013972559 -0.044807255 0.084331214 -0.07802897
-0.036352366 0.08422344 0.0978131 0.024128435 0.0060799257 -0.08573948 0.1066786 0.07941601
-0.07923843 -0.0928337 0.060763214 0.003327886 0.09288292 -0.07289925 0.06273255 -0.06311226

fc2.weight f4 [64, 128]
00000000: 6829 013d 0b16 84bd 5a74 ae3d 5de4 0f3d
00000010: 2e42 b3bd b104 803d ad7c a1bd 2238 abbd
00000020: 27fb 7bbd 7eb4 3d3c 3b12 823c bfdc 3abd
00000030: 204f a6bd 7d83 8fbd 0d46 3fbd d679 47bb
00000040: d3ee f0bc b553 b03d 8408 6a3d 920c adbd
00000050: 812b 5e3d 71dd 923c 474e dd3c c336 b13d
00000060: d63a 95bc 8ee7 333d 38de 8ebd 8ab9 5d3c
00000070: bd57 9cbd 5575 923d a815 3dbd 5a78 4a3d
00000080: 273b 0f3d 8b30 adbd abc6 9cbd dbff 863d
00000090: ca71 61bd 9958 ff3c 4820 db3b 5b08 893d
000000a0: cf10 c7bc 22ba aa3d e5ec aebc 1d07 ac3d
000000b0: fc76 43bc 5a34 97bd d2e2 433c 2a41 4c3d
000000c0: eba7 04bd dea3 903c 9311 42bd 6c77 1cbd
000000d0: 0621 5d3b 2370 9b3d 4c40 0e3d 2fca 103d
000000e0: 34f5 893d 9042 623d 8cf5 7c3c fa0e 34bd
000000f0: 2b39 673d 747c ab3d 2c42 863d 7b4e 58bd
00000100: a1ef 97bd 638b 463d 8f2c 44bd 5998 c4bc
00000110: 8c96 70bd 9895 ecbc ea70 55bd a6f1 81bd
00000120: c57b 30bd b4d4 9bbd 4b68 a4bd a977 5ebc
00000130: 167c 743d eab1 8d3d 472d 7abd f997 76bc
00000140: c6f4 823c 495f 13bd 97d3 b0bd 8508 99bd
00000150: 8ec0 693d d2c9 273d fcc0 f6bc 8c27 3fbd
00000160: 4350 903d bf66 3ebd e810 41bd 1e89 c9bc
00000170: 4689 953d 4a47 a3bc 6313 27bd 822a ed3c
00000180: 5e61 a6bd ca1e 6ebd 1ace 56bb 1c0f e4bc
00000190: e59d 763c 98b5 f43b 425f 31bc 4429 0d3d
000001a0: cceb 243c afea aabd 8b59 51bd 03d3 f33c
000001b0: 30d1 e03a 155d 883d 81f7 a13b 1012 03bd
000001c0: 4101 5abd 4fe0 ac3b f860 3c3d dad0 13bd
000001d0: 96a9 263d 562b 6bbd 5501 2bbc 2a1d 79bc
000001e0: 8e01 05bd 35a4 b03d 7f50 d73c 7093 a3bd
000001f0: 1269 2f3d 9c63 fdbc fba2 54bd 00bb 34bd
00000200: 2a31 233d 1248 a4bd 2032 3dbd 0389 393d
00000210: 4663 b8bd fe8b d53c f579 7e3d 52fb 50bc
00000220: 94f4 863d 6f62 873d 8b83 ae3d 0103 bfbb
00000230: 05fc 5b3d b027 0a3d 1590 63bd 6018 8f3c
00000240: 3fdc 0bba 3fcc 413d 0b90 94bd 760c 5ebd
00000250: 3280 573d bdfb 88bd 48a9 2a3d ad5f 34bd
00000260: cfec 91bd 93ab a3bd 8379 bbbd 90b3 193d
00000270: 4078 9bbd 5137 82bc 31e0 4d3d ccc8 833c
00000280: 7dc1 42bd f6b1 7ebb 6901 843c addb 9abc
00000290: 628e 82bd 1f58 e8bc e6c0 2fbd 7622 61bd
000002a0: 0386 383d 1f00 bbbd f31b 0dbd 803a bebc
000002b0: 1e47 2a3d 6339 903d fc33 1ebd 2d05 23bc
000002c0: 71d0 a4bd e8a5 d23b ea21 44bd 27fc 2c3b
000002d0: 4261 c0bc 9f97 56bc e4c4 9d3d b8aa 253c
000002e0: 0fb3 63bd 9ff2 cdbc aec8 a8bc 024a a13c
000002f0: c969 41bd 15c6 15bd c8d1 e5bc a26f b6bd
00000300: c80d a0bd 85e2 803d c800 1ebd d4ab a8ba
00000310: 401e a3ba 9d95 9c3d 2b93 393d dbb3 b4bd
00000320: ac62 27ba 2c10 463d a19b cebc 87ba 913d
00000330: 974f 40bb 5383 533d 7289 fd3c 1d45 88bd
00000340: 6d27 9cbd ea41 5cbd b5bd 043d 2812 71ba
00000350: a0e9 003d 0277 72bd ecf5 aabd 1873 c63a
00000360: 539a cfbd c566 0d3c 8d9c 93bb 76d4 48bd
00000370: bf41 853d 619a fe3c 6311 533c 38e8 c9bd
00000380: 48b9 4c3c e4ae 7c3d 9718 09bd 702e 05bd
00000390: 3b38 cb3c 3855 1ebd 2850 393c c7e5 cb3c
000003a0: 7b96 b9bc 680c 0c3c 077d 653d 517d 9b3c
000003b0: 6dc8 3bbd d04d 03bd 157e 37bc beef f2bc
000003c0: 3d73 56bb 1965 c0bc c751 403d fefd 133d
000003d0: 529c 2cbd 0f05 b1b9 2294 463d e6ad 923d
000003e0: 7017 1b3d 4b9c 4ebb cc00 94bd ef9d 7abd
000003f0: 9b5f 6abb 4710 d0bc 8399 bc3c c0d5 a2bd
0.03153363 -0.06449517 0.08518286 0.035129894 -0.08752857 0.06250895 -0.07885108 -0.08360316
-0.061518814 0.011578677 0.015877834 -0.045620676 -0.08120561 -0.07007501 -0.046697665 -0.003043761
-0.029410755 0.08609716 0.057137027 -0.08449663 0.054240707 0.017927857 0.027014865 0.08653023
-0.018216532 0.043922 -0.069759786 0.0135330055 -0.07633922 0.071512856 -0.04616323 0.049431182
0.03496852 -0.084565245 -0.076550804 0.06591769 -0.05504016 0.031170176 0.006687198 0.06691047
-0.024300007 0.08336283 -0.021353194 0.08399794 -0.011930224 -0.07383032 0.011955934 0.049866833
-0.0323867 0.017656263 -0.04738004 -0.038199827 0.0033741607 0.07589748 0.034729287 0.035349067
0.06736222 0.05523926 0.015439402 -0.043959595 0.056451004 0.08373347 0.0655559 -0.05280922
-0.074187525 0.048472773 -0.047894057 -0.023998426 -0.058737323 -0.028879926 -0.052109636 -0.06344919
-0.043086786 -0.07608929 -0.08027705 -0.013578334 0.05968865 0.069187 -0.061078336 -0.015050882
0.015985858 -0.035979543 -0.086341076 -0.07472328 0.0570684 0.040963955 -0.030121319 -0.046668574
0.07046559 -0.046484705 -0.047135264 -0.024601515 0.073015735 -0.019931454 -0.040789973 0.028950933
-0.0812404 -0.05813483 -0.0032776655 -0.027839236 0.015052293 0.0074679367 -0.010825934 0.034463182
0.010065984 -0.083455436 -0.051110785 0.029763704 0.0017152186 0.06658379 0.004942835 -0.031999648
-0.053223852 0.005275763 0.045990914 -0.03608785 0.040689074 -0.057414375 -0.010437329 -0.015204707
-0.032472186 0.0862507 0.0262835 -0.07987106 0.042824812 -0.030931287 -0.051913243 -0.04412365
0.03984181 -0.08021559 -0.04619038 0.04529668 -0.0900331 0.02606773 0.062128026 -0.012755232
0.06589618 0.066105716 0.085211836 -0.0058292155 0.05370714 0.033729255 -0.05555733 0.017467678
-0.00053352484 0.047313925 -0.072540365 -0.054211102 0.05261249 -0.0668864 0.041665345 -0.044036556
-0.07125246 -0.079917096 -0.09154036 0.03752476 -0.07591295 -0.015895518 0.050262634 0.016086958
-0.047547806 -0.0038863397 0.016113954 -0.018903578 -0.063748136 -0.028362332 -0.04290857 -0.054964505
0.04504968 -0.091308825 -0.034450483 -0.023221254 0.04157173 0.07042196 -0.038623795 -0.0099499645
-0.080475695 0.006428469 -0.047883905 0.0026395412 -0.023483876 -0.013097673 0.077035695 0.010111503
-0.055590685 -0.025140105 -0.020603504 0.01968861 -0.047220025 -0.03656586 -0.028054133 -0.08908011
-0.078151286 0.06293205 -0.038574964 -0.0012868592 -0.0012444928 0.07645724 0.045306366 -0.08823367
-0.00063852477 0.048355266 -0.025220694 0.071156554 -0.0029344314 0.051638912 0.030949328 -0.06653807
-0.07624707 -0.053773798 0.03240748 -0.0009196126 0.031472802 -0.059195526 -0.08347687 0.0015140502
-0.10136857 0.008630459 -0.0045047463 -0.049030744 0.06506681 0.031079473 0.012882563 -0.09858745
0.012495346 0.061690226 -0.033470716 -0.03251499 0.024807086 -0.03865549 0.011310615 0.02488984
-0.022654762 0.00854788 0.05602744 0.018980654 -0.045845438 -0.03205663 -0.011199494 -0.029655334
-0.0032722496 -0.023485707 0.04695299 0.036130898 -0.042141266 -0.0003376384 0.048481114 0.07162075
0.03786415 -0.0031526263 -0.072267145 -0.061185773 -0.0035762552 -0.025398387 0.023022419 -0.07950926

fc2.bias f4 [64]
00000000: 5d0b 08bd 8574 1a3c 6c5f 393d 16bc fd3c
00000010: e2e8 da3d ff08 63bc 0549 5f3d 40fe 083d
00000020: fe79 f33c ea8f ce3c f4fd 173d b8b7 87bd
00000030: c543 94bc 51c3 b0bc 619d 5dbd ff9a 89bc
00000040: 168e 8e3d 4038 a33d ca06 76bb 3cd6 9fbd
00000050: 30ef 4fbd 4f28 31bd 5d5d 623d cc2c 8c3c
00000060: a360 183d d2d8 7c3d bf29 b3bd 5226 853c
00000070: 648d 80bd 2f60 93bd 2ea9 123c 826b a0bd
00000080: a45f be3d 730c 843d 8785 a2bd 2b20 8a3d
00000090: 3d53 7f3d a50c 013d cf10 903d fd09 6a3d
000000a0: d1cc d93d a8c2 88bd 44ae 1cbd 6e9c 18bd
000000b0: f2d6 a9bb 0053 68bd 47ae 6fbd 37e6 893d
000000c0: e340 81bd ac2f e13d 298d 363d 1649 173d
000000d0: b38d 96bd c699 80bd 6f7e bc3c 92d4 bb3d
000000e0: 9b37 58bc 93b3 d63b cbec cd3b 3a4e 9bbc
000000f0: b6b0 223d 32d0 9d3b b96f a1bd 549f aa3d
-0.033213962 0.0094271945 0.045257017 0.030973475 0.1068895 -0.013857125 0.054512996 0.033445597
0.029721256 0.025215108 0.037107423 -0.066268384 -0.018098721 -0.02157751 -0.054105166 -0.01679754
0.069606945 0.07969713 -0.0037540668 -0.07804534 -0.050765216 -0.043251332 0.05526482 0.017111205
0.037201535 0.061730213 -0.08748197 0.016253624 -0.06276968 -0.0719608 0.008951468 -0.078330055
0.09295586 0.06447687 -0.079356246 0.06744417 0.06233524 0.0315062 0.07034456 0.05713843
0.10634769 -0.06677753 -0.03825213 -0.037258558 -0.005183094 -0.05671978 -0.058515813 0.06733363
-0.06311204 0.10995421 0.044568215 0.036934935 -0.07351246 -0.0627933 0.023009507 0.09171404
-0.013196851 0.0065521686 0.0062843314 -0.0189582 0.039719306 0.0048160786 -0.078826375 0.08331171

fc_mu.weight f4 [16, 64]
00000000: 1836 d63c 4526 973c 024f c23d b114 22bd
00000010: 018d e73b f4e7 f03d 51db 05be f8ad 113c
00000020: e808 0dbd f2fe 573c 4d99 b83d be2d e1bd
00000030: c508 5ebd aeb8 bb3d ec6f bdbd 5930 663d
00000040: 3571 caba 6834 633d 978e 51bd 95c6 70bd
00000050: e34b cbbd 0339 623c b66d a8bd f259 ccbd
00000060: cd71 803d ab88 bd3d 89e8 aa3c a471 09be
00000070: 8886 2d3c a08f 00bd 464a 6cbd c4a9 283d
00000080: e944 9cbc 75bb 633d ccaa b0bd 3db2 7fbd
00000090: 6c0d 8bbd ad38 9ebd 22c9 083b ebaf aabc
000000a0: 7177 05bd 4702 9d3a a667 82bd 92f1 29bd
000000b0: b339 abbd 89c3 fbbc aed5 ecbc 3bf3 89bd
000000c0: 5fb8 cbbc 3e50 02bd 771e cdbd 3700 9a3c
000000d0: 0e8b 6f3d f052 6bbc 865c 163d 0d04 923d
000000e0: 8034 b43d 531f 213c 61db c93d 04eb 28bd
000000f0: 1cc7 d9bd c7cc f4bd 9cbc 9dbd 67fe 6b3d
00000100: 002a 583d 2a18 c73c 6fab 3a3d fe61 95bc
00000110: 106b bdbd f4cf cf3d bf27 91bd 5f66 0ebd
00000120: 168c 023e cb51 babb 2d26 cfbd 1896 eb3c
00000130: 2f84 913d 3731 1dbd 3a8b 5e3b 9ef2 ce3c
00000140: a2d9 803c a037 e03d 6dfa b1bd 550e 88bd
00000150: 3467 dc3d 5664 9dbd 937f ae3c 9ff8 cc3d
00000160: c3a4 363c 94ae 953d 2a5b 99bd 54f6 d73c
00000170: f3fd babd 91e4 cf3d 9f78 bb3d 6f54 efbc
00000180: f087 6abd 94cf 7cbd 01f7 a53d b056 31bd
00000190: 6076 183e a472 dbbc f5d7 873d 7325 aa3c
000001a0: 2ddd c3bd 277c 36bc 0c83 76bc d63a 103d
000001b0: b1d9 bc3c 8244 cb3d 5ae0 8ebd 6ea9 603d
000001c0: 0003 e9bd 391d 953d d68a c1bd 3284 9d3c
000001d0: 4da0 503d 78b4 2e3d ac70 75bd 20b7 193d
000001e0: 18a9 89bd 1176 243c 70a4 b4bd b014 833d
000001f0: a9a4 863c b36e 323d 6e85 e33d d0c1 47bc
00000200: 1804 c73d 04ae a5bc 8fff 1b3d e9b7 a2bc
00000210: 8518 8d3d ceca b13d bc94 303c bdbb 3bbd
00000220: 06f5 25bd 1dd9 df3d 53e9 b7bd 9694 80bd
00000230: 6cfd bf3d 964a c8bd 8225 aa3c b472 54bd
00000240: 465c e53d 2f2b c53d 19ae adbd 353e 5a3d
00000250: ced0 90bd 3525 cc3c 0578 99bd ffda 5e3d
00000260: 2477 dcbd 36f0 c73d e6c9 d9bd 31c5 a83d
00000270: da6d 09be 0fa0 503d 3d8f aabc dff0 09bd
00000280: 43fe ebbc eab9 e83d 094d ac3d b976 613b
00000290: e327 a3bd 440e c73d 1d02 04bd dbb7 e4bc
000002a0: 57d4 2ebd 23f3 bfbd 3dcb 0dbd 4891 64bd
000002b0: d161 5bbd 57df 853d bfe0 d3bd 9a06 cb3c
000002c0: 5c8f 91bd 2cef f13d 0127 b9bd 5551 ff3d
000002d0: 96de 1cbd 3e3a b73d 7b29 d13d 764e 81bd
000002e0: 9f2e f0bd d8cf 23bb a060 17bd 7005 09bd
000002f0: 35ff aebd f656 a9bd 6cdf 583d ce0a b2bd
00000300: 72d0 f43d 3542 aabd 1a90 49bc cfd1 8f3d
00000310: 7777 9b3b 18e4 83bc 8980 ee3c 46c4 f93d
00000320: 5843 73bd 58b3 d93d 3528 e6bd 10f0 fabd
00000330: 6023 a6bd 31c7 843c 7368 fbbd d7b9 a1bb
00000340: 5a20 223d c970 13bd e566 a73d b723 84bb
00000350: e3e7 b7bd c2d3 d93d 2a58 debd b8f7 553b
00000360: 394f 3dbd 5787 9bbd 6b52 813c 7eac ecbd
00000370: 235e 3bbd 43cc 103d e90d 773d 5398 a1bc
00000380: 638c dd3d 73ed d2bd f09f d8bd 0938 ac3d
00000390: 9197 13bb cf5e 76bd c1e1 2d3d 4f0a fe3d
000003a0: d989 eb3d 4134 33bd e742 573c b1ed cb3d
000003b0: 03b2 3bbd 26c6 d5bd 3f40 393c f1e5 cd3d
000003c0: fa2c 9f3c 266d b0bd 1993 2d3d fbd8 0cbd
000003d0: a934 b33d f0ac 8a3c b705 bdbd 6107 983c
000003e0: 1edf c6bd 310a ef3d d7b8 a0bd 7b79 85bd
000003f0: cfe9 bf3d 7654 443d 407e 47bc acaa fb3d
0.02614884 0.018450866 0.09487726 -0.039570514 0.0070663695 0.117629915 -0.13071944 0.008891575
-0.03443232 0.013183342 0.09013615 -0.10995053 -0.054207582 0.09166084 -0.09249863 0.05619845
-0.0015445115 0.0554699 -0.051161375 -0.058783133 -0.099265836 0.013807538 -0.08224051 -0.09978093
0.06271706 0.09254583 0.020862835 -0.13422257 0.010591157 -0.03138697 -0.05768802 0.041177526
-0.019075828 0.055598695 -0.08626327 -0.06242584 -0.067896694 -0.07725654 0.0020871838 -0.020835837
-0.03258461 0.0011978828 -0.063674256 -0.041490145 -0.08360615 -0.030732887 -0.028910484 -0.06735846
-0.024868188 -0.031814806 -0.10015576 0.01879893 0.058482222 -0.014363036 0.03670933 0.07129679
0.08799076 0.009834128 0.09856296 -0.041239753 -0.1063368 -0.11953121 -0.0770199 0.057615664
0.05277443 0.024303515 0.045573648 -0.018235203 -0.09248936 0.10147086 -0.07087659 -0.034765597
0.12748751 -0.00568602 -0.10114703 0.028758094 0.0710529 -0.038377013 0.0033957497 0.025262173
0.015728775 0.109481096 -0.08690343 -0.066433586 0.10761872 -0.07685153 0.021301067 0.10008358
0.011147681 0.07308689 -0.07488091 0.026362576 -0.09130468 0.101510175 0.09153866 -0.029215066
-0.057258546 -0.0617214 0.08103753 -0.043295562 0.14888906 -0.026788063 0.066329874 0.02076981
-0.0956367 -0.011137999 -0.015045892 0.03521236 0.023053022 0.09925176 -0.069763854 0.05484908
-0.11377525 0.072809644 -0.09450309 0.019228075 0.050934125 0.042652577 -0.059921905 0.037528157
-0.06721705 0.010037915 -0.088204265 0.0640043 0.016435938 0.043562602 0.11109434 -0.012192205
0.09717578 -0.020224579 0.038085517 -0.019863086 0.06889442 0.0868126 0.010777649 -0.045833338
-0.040516876 0.10930083 -0.0898005 -0.062783405 0.09374508 -0.09779851 0.020769838 -0.051867202
0.111992404 0.09627377 -0.08480472 0.05328198 -0.07071076 0.024920085 -0.07493595 0.05440807
-0.10764912 0.097626135 -0.10634212 0.08240736 -0.13420811 0.050933894 -0.020820254 -0.03367698
-0.028807765 0.11363585 0.08413131 0.003440304 -0.07966592 0.09719518 -0.032228578 -0.0279197
-0.04268297 -0.093725465 -0.03461765 -0.055802613 -0.053560082 0.06536739 -0.10345601 0.024783421
-0.07107422 0.118131965 -0.090406425 0.12466685 -0.038298212 0.08946656 0.1021299 -0.06313793
-0.11727642 -0.002499571 -0.036957383 -0.03345245 -0.08544771 -0.082685396 0.052947447 -0.08693467
0.1195382 -0.08313409 -0.012302423 0.0702244 0.004744466 -0.016099975 0.029114025 0.12195639
-0.059390396 0.1062991 -0.11238138 -0.122528195 -0.08112216 0.016208263 -0.122757815 -0.004935484
0.039581634 -0.035996232 0.081739224 -0.004032578 -0.08979776 0.10636093 -0.1085666 0.0032648873
-0.04621813 -0.075941734 0.01578637 -0.11556338 -0.045744073 0.03535105 0.060316 -0.019725954
0.10817792 -0.10299196 -0.10577381 0.08409125 -0.002252076 -0.06014901 0.042451624 0.1240431
0.11500902 -0.043751005 0.013138509 0.099574454 -0.045824062 -0.104381844 0.011306821 0.100536235
0.019430626 -0.086145684 0.04237661 -0.034386616 0.087502785 0.016928166 -0.09229606 0.018558206
-0.09710525 0.11671866 -0.078477554 -0.06517311 0.09370767 0.04793211 -0.012176096 0.122884125

fc_mu.bias f4 [16]
00000000: 62ab bc3c 698a 95bc 17ac 75bc 6c54 6bbd
00000010: 8f3b 9abd 3b08 d2bd e8bc 78bd b8ca 313d
00000020: 16c0 623c 872f 99bd 922b b1bd e523 573d
00000030: 559b 853d ef59 c33d d13a 123d 32bd 8fbd
0.02303094 -0.018254476 -0.014994643 -0.057453558 -0.07530891 -0.10255476 -0.06072703 0.04340622
0.013839742 -0.07479768 -0.086508885 0.052524466 0.06523768 0.09538638 0.035700623 -0.07018508

fc_logvar.weight f4 [16, 64]
00000000: 40c0 57bc 4b1a d23d b15c ad3a e3f1 e53c
00000010: 482e c23d 2852 9d3d 71bb 3a3d 0995 12bd
00000020: 0188 b2bc cd51 143c fdf3 103d 3c02 3cbd
00000030: 2f63 a8bc 925a 8c3c 88e3 37bd 376e bfbd
00000040: adb3 e2bc f93b 8b3c 6f40 bebd 95f6 49bd
00000050: f5c4 a93d c6fe 8c3d 4d88 773d e8f1 b3bd
00000060: f85f d0bc 0192 873c 8504 933d 4268 7bbd
00000070: 270b 01bd f2c5 57bd ca50 0fbd 8d60 ce3d
00000080: beac ce3d 19be cf3d 2756 b3bd f314 a33d
00000090: a14e a83d 25d7 a3bd 8b7c a9bd 4e85 483c
000000a0: 1605 553b 0c8a 7b3d 6d76 1fbd 7ff3 cebc
000000b0: 83ba 703d 4bb3 16bd 3691 3cbd 2487 4dbc
000000c0: 895a 95bd f7c8 16bd 95c8 86bd e10c 353d
000000d0: 2ddc 53bd 5e38 8f3d 7655 adbd f378 6c3c
000000e0: 2d1c ad3c 78fa 58bd 405e 05bd ecd5 20bd
000000f0: 40b1 b4bd ce61 8bbd 96ba 9bbd eedc da3d
00000100: 58d8 a3bc 0ea0 24bd 87f3 853d 3a13 cbbd
00000110: a598 fa3d ec02 9c3d 6f01 3cbd 5eac 20bd
00000120: 49e9 923d 149d 073e cd2d 66bd f82b 9f3c
00000130: 4d9e 803d f1b9 e2bd 0dd5 d8bd c0f7 07bb
00000140: 700a 63bd 7b8f 023d 0830 173c 1ad0 123c
00000150: 251b e1bd 74ff f0bc d0a1 813d 9c31 a5bd
00000160: e99e 8abd 337e f83d 7ab9 823d 668e c3bc
00000170: 6deb 3cbc 2e78 c53d 15b4 f43d 39a2 083d
00000180: 723a dc3c 006f 49bd 2659 173d f970 893d
00000190: d742 213d c30a babd fae1 6c3b f72f d73d
000001a0: c35c d43b 7140 793d 0bb3 fbbb 2d02 373d
000001b0: 193e 153d 0afc 8bbd 638c 873d cca8 0b3e
000001c0: a933 833d ac93 ab3d 40fb 96bd 4be8 243d
000001d0: e335 57bd 7a96 ae3d 0f46 a93d 5c89 213e
000001e0: fec0 3d3d a7e9 9cbd 079d d4bd 3568 edbd
000001f0: f3ab 05bd 59e3 d73d 0a23 d2bd 0b59 2b3d
00000200: f493 7b3d 291f b33d d0f7 503d efe0 edbd
00000210: 13df e2bd d0a2 90bc 5dea d4bd 1537 2dbd
00000220: 52c8 23bc fd1b edbc d87b 9e3d d69f aabd
00000230: 32f0 e5bd e8f9 883d f0ae a53d c5d7 203d
00000240: 2833 3ebd 8675 f93b a31d 0d3e e5bc c9bc
00000250: c6ea 713d 13c0 24bd 103f d13c a9d5 7dbd
00000260: 439b 653d f7d1 b03d 1e15 b9bd 264a ee3d
00000270: e875 e6bd 8134 bbbd 5c46 c1bc 13a5 bf3c
00000280: 0616 0fbd 6959 173d 2012 9b3c 7b8f 86bc
00000290: f4e0 b53d da64 133c 6e32 8abd 9f69 e5bd
000002a0: 7424 dd3d 15c9 973d e78d 073e aa70 8fbd
000002b0: f7e5 60bc 166f 173c 5fa4 af3d 9703 003b
000002c0: e5a5 dd3c 5ea9 2d3c 6ce3 01bd 58fd 503d
000002d0: 1637 cd3d aebc 96bd 0e00 1dbb 2ef4 0ebd
000002e0: a7a9 4fbd 8b2b 113d 932f 963d 8621 7f3d
000002f0: 64a2 e53c 7d31 cb3c 742d d43d d400 b53d
00000300: f86a c43d 8f60 28bd 6811 c63d 11db 9fbc
00000310: 0ba0 7e3d e0c8 0bbd c3c7 d5bd 46ec b4bc
00000320: e005 59bc e08d 4dbc 3c02 873d 5ca8 d4bd
00000330: 93c7 cd3d f65a 2dbd 89ed 77bd 1e2c c53b
00000340: 8dcb 4f3c 41a1 9b3c e6d0 cfbc 5911 cf3d
00000350: a243 bc3d 7ba4 a4bd a7b3 d4bc 646f a1bd
00000360: 38c1 db3d 71fe 56bd 9f52 95bd d8e0 a2bd
00000370: 0091 843c 2a9f 973d 27dd 9bbb eee6 083e
00000380: 2e73 ce3d bcb9 eb3d f767 59bd 96af 08be
00000390: d7e5 22bd 2192 35bd cb00 a1bd 0b36 0ebd
000003a0: 5148 a33a dad8 21bd c283 7cbd a7dd 253c
000003b0: 33e6 603d 3481 4dbd 38d7 dcbc af97 d33d
000003c0: 31ef aa3d a730 cebd 717a c0bd 9681 78bd
000003d0: ded2 3fbd 10c7 903d 3521 dfbc 6f38 3ebd
000003e0: 1551 ab3d 5014 0f3c f784 923b 4bef 423d
000003f0: b800 9b3c 1b13 7b3d 5846 85bc 2f80 2cbc
-0.013168395 0.10258921 0.0013226477 0.028069442 0.09481484 0.07681686 0.045588914 -0.035786662
-0.021793367 0.009052706 0.035388935 -0.04590057 -0.020555107 0.017133031 -0.044894725 -0.09347194
-0.027673567 0.01699637 -0.092896335 -0.049307425 0.0828952 0.06884532 0.06043272 -0.08786374
-0.025436386 0.016549112 0.071785964 -0.061378725 -0.031504776 -0.05267901 -0.034989156 0.10077009
0.10091542 0.1014368 -0.08756667 0.0796298 0.08218122 -0.0800002 -0.08275708 0.012238814
0.0032504252 0.06141095 -0.0389313 -0.025262592 0.05877162 -0.03679208 -0.04603692 -0.012544427
-0.07292659 -0.03681275 -0.06581227 0.044201735 -0.051723648 0.06993173 -0.08463566 0.014433133
0.0211316 -0.05297324 -0.032560587 -0.03926651 -0.0882287 -0.06805764 -0.07603948 0.1068667
-0.020000622 -0.040191703 0.0654059 -0.099157766 0.12236146 0.07617745 -0.045899805 -0.039226882
0.07173402 0.13243514 -0.056196023 0.019430146 0.062801935 -0.11070622 -0.10587511 -0.0020747036
-0.055429876 0.031875115 0.00922776 0.008960748 -0.109915055 -0.029418685 0.063296914 -0.08066103
-0.06768591 0.121334456 0.06383033 -0.023871612 -0.011530739 0.09642063 0.119484104 0.033357833
0.026883338 -0.049178123 0.036950253 0.06711001 0.039370384 -0.09084084 0.0036145435 0.105071954
0.0064807846 0.06085247 -0.0076812557 0.04467981 0.036436174 -0.06835182 0.066185735 0.1363861
0.06406338 0.083777755 -0.07372141 0.040260594 -0.052541625 0.08524795 0.08265316 0.15775055
0.04632663 -0.07661753 -0.10381513 -0.115921415 -0.032634687 0.1054141 -0.102605894 0.041832965
0.061420396 0.08746178 0.051017582 -0.11615168 -0.11077704 -0.01765576 -0.10396264 -0.04228886
-0.009996491 -0.02894401 0.07738465 -0.083312675 -0.11227454 0.06688291 0.08090007 0.039268274
-0.046435505 0.007612887 0.13780837 -0.024626205 0.059061788 -0.04022224 0.025542766 -0.06197134
0.056056272 0.086337976 -0.09037231 0.116352364 -0.112529576 -0.09140874 -0.02359312 0.023394143
-0.034933113 0.036950503 0.018929541 -0.016425839 0.08880797 0.008996213 -0.067479 -0.11201786
0.107979685 0.074114 0.13237725 -0.07003911 -0.013726703 0.009242794 0.08576273 0.001953339
0.027056644 0.010599462 -0.031711027 0.051022857 0.100202724 -0.073602065 -0.0023956331 -0.034900837
-0.050698902 0.035441916 0.07333293 0.06228783 0.028031535 0.024803871 0.10360232 0.088380486
0.09590715 -0.04110771 0.09671289 -0.019513639 0.062164348 -0.034127116 -0.10438492 -0.02208532
-0.01324603 -0.012546033 0.06592223 -0.103836745 0.100478314 -0.042323075 -0.060529266 0.006017222
0.012682808 0.01899779 -0.025368165 0.10110731 0.091925874 -0.08039185 -0.025964571 -0.07882574
0.10730213 -0.052488748 -0.07291149 -0.07953042 0.016182423 0.07403405 -0.004756588 0.13369343
0.100805625 0.115100354 -0.053077664 -0.1334823 -0.039769974 -0.044328813 -0.07861479 -0.03471951
0.0012457465 -0.039513446 -0.06164909 0.010123647 0.054907035 -0.050172046 -0.026958093 0.10331666
0.083464034 -0.100678734 -0.09398354 -0.060670458 -0.046831958 0.07069218 -0.027237514 -0.046440538
0.083650745 0.00873287 0.004471417 0.04759149 0.018921241 0.061297517 -0.016268894 -0.010528608

fc_logvar.bias f4 [16]
00000000: 5d86 e7bc 7f3d a3bd 45bb 0c3c 9263 fd3c
00000010: dee2 0c3d 9e81 bb3d 0e47 5bbd 9c25 9a3d
00000020: de04 9abd ceb1 8ebc 4ac4 aabd 9e4a e4bb
00000030: c3e5 05bd 6aa6 88bd ce34 95bd e710 b5bd
-0.028262312 -0.07970714 0.00858957 0.030931268 0.034396045 0.09155582 -0.05353456 0.07526705
-0.075204596 -0.017418768 -0.083382204 -0.006966903 -0.03268982 -0.06672366 -0.07285462 -0.088411145

fc3.weight f4 [64, 16]
00000000: 4056 77be e7d5 1abd 8e56 1ebe 9f36 47be
00000010: 3948 49be 274f 913e 0752 8fbe 20ea 35be
00000020: 1bf9 c83a ce33 83be 5753 0c3c 5b99 e6bd
00000030: d55e dabd e346 803e 9caa 1fbe 8248 043e
00000040: 3e91 313e 0439 833e 5094 1f3e 512f 8b3e
00000050: 3ead 2c3e 0ba6 86be 5b88 2dbe 24d5 4abe
00000060: 8674 453e 3858 b4bd bb3d 4c3e 3d48 78be
00000070: 91d6 86be 3579 1bbe bb19 6cbe c995 823e
00000080: 5002 593c b661 613e aff0 963e f0b7 81be
00000090: 9c6f 433e 3bea 373e f97e 54bd c70b 56be
000000a0: 58a8 213e 2f41 5c3e d0a0 5d3d 6c8a b0bd
000000b0: 7d29 59be c714 86be 8615 65be 02e9 85be
000000c0: 0b40 f33d bc34 a53d 9b9c 813c 86eb 1f3e
000000d0: 975e 92be eaac aa3d 4628 063e d26b 9f3d
000000e0: 9be8 a83d fd55 4ebe 1caf 83be 5f12 70bd
000000f0: 934d 94be 4a47 dd3d cd0e 84be de1e 4dbd
00000100: 5249 81be 0a37 90be 5273 a8bc 4803 29be
00000110: afc0 c4bb 079a f53c 74be d5b8 6b89 0cbd
00000120: 4c91 793e 6bd6 32be 0402 e23d 86ad 05be
00000130: 194e 6fbd ffa6 4abe 1860 303e 924b 273e
00000140: 9088 bc3c 9a6b acbd 974e a43d f375 893e
00000150: f612 6f3e 9020 903e 6946 04be ff40 cfbc
00000160: 8c60 70bd 0b74 11be 8d3c 213e 400c d43d
00000170: 3bd7 773e b5c8 6dbe 2591 80be 923e 8f3e
00000180: 3362 d3bc f143 7abe 64e6 39be 7b5b 92be
00000190: 788e 30be 80ba 6c3e 9fb7 053e e0e9 aabd
000001a0: 7402 cc3d c847 81be 0989 28bd 5d6b 293e
000001b0: 9026 b4bd 68df 783e 972b 723e 868d de3d
000001c0: 3b7f 15be 081d 88be 962a a43d fa2b d23d
000001d0: c2af 90be 4c0f 86bd d8dd 123d 3d6f 51be
000001e0: 2543 16be 3b10 9b3e 4701 41be 115e 0f3e
000001f0: df18 1e3e a7a0 373e b42f 613e ee5b 35bd
00000200: e749 86be bdaa 613e 9f91 63ba c17f 24be
00000210: b26f 18be 6492 333c f920 d4bd 8c92 5cbb
00000220: 1696 023e f101 2bbe 1e47 4dbe f128 0b3e
00000230: 6e03 493e 40ca 29be 1551 b53c a2f1 8abe
00000240: ea86 543d 62a3 083e 4492 57be 20aa d3bd
00000250: 6376 12be bb87 3c3e c493 203e 6bd7 d83d
00000260: 68cb cebd 21f3 5d3d e855 68be eb0a 50be
00000270: 320e 233e 9c97 2ebe a31c 983d 76c3 3cbe
00000280: 3de1 31be 25b7 93be 389a a0bd dfda 843d
00000290: 8129 10be b133 d83d fff3 97be a96d 92be
000002a0: 7ac7 dcbd 1f40 e13b c950 bebd 9152 f6bc
000002b0: 6812 14bd 3e76 003e e58a 7c3e 8603 df3d
000002c0: 459b 22bd 13f3 443e 53cb 033e 2c3f 4dbe
000002d0: 7338 483d 0136 66be 32d7 3cbe 7800 90be
000002e0: 442f c8bd 051e 8f3c 580c 853e e81c c5bd
000002f0: 6d6b 29be 174e 76be 0caf 1ebe 8649 ffbc
00000300: 1c0e e43d 2754 863d 2659 40be 020f 8c3e
00000310: 0bee 283e 3e62 eebd 10df 0c3e 6f59 6fbe
00000320: 0a2a 043d eba7 2dbc 1534 6f3d ff0e 303e
00000330: 3e17 d2bd 92f5 7c3e 894b 95be dea6 89be
00000340: f087 89be 5d44 90bc fa08 743d 2659 773e
00000350: 9ad1 9b3b d1ce 313e f7e6 233e 29d2 013e
00000360: d3f7 14be c2b1 e8bb 92ad 49be 5c37 23be
00000370: 3fc3 003e 65e9 0fbd 94aa 2fbd 9371 bdbd
00000380: 5398 8e3c e3e6 3f3d b01f 063e a230 51be
00000390: 4d72 cc39 ae58 72be dbff 63be 60ad 013d
000003a0: f2ed 6e3e 6939 5ebd aeaf edbd bc2e 18be
000003b0: 3b36 e6bd 70cb 82bd 28dd 11bd 75f2 623e
000003c0: b13a 81be e0e9 9d3d 9045 2b3e 01a6 223e
000003d0: da6a 803d 3aec 72be 56c6 e8bd a435 3c3e
000003e0: 80b0 adbc 00f7 d53c fedf 60bd 7f10 ab3d
000003f0: 9675 57be c446 023c 5e82 29bb 862e aebd
-0.24153996 -0.03780165 -0.15462705 -0.1945443 -0.19656457 0.283807 -0.2799227 -0.17765093
0.0015333028 -0.2562546 0.008564792 -0.11259719 -0.10662619 0.25054082 -0.15592426 0.12918285
0.17340562 0.25629437 0.1558392 0.27184537 0.16862962 -0.26298556 -0.16946547 -0.19807869
0.19282731 -0.08805889 0.19945423 -0.24246307 -0.26335576 -0.15182956 -0.2305669 0.25504902
0.01324518 0.2200993 0.29480502 -0.25335646 0.19085544 0.17960446 -0.051878903 -0.2090293
0.15786874 0.2150924 0.05410844 -0.08620152 -0.21207233 -0.26187727 -0.22371492 -0.26154333
0.118774496 0.08066699 0.015821746 0.15617189 -0.2858779 0.08333762 0.131013 0.07784237
0.08247491 -0.2014999 -0.25719535 -0.05861127 -0.28965434 0.10804613 -0.25792542 -0.050078265
-0.2525125 -0.2816699 -0.020562802 -0.16505158 -0.006004415 0.029980673 -0.00010192106 -0.03431074
0.24371833 -0.17464606 0.11035541 -0.13054475 -0.05842409 -0.19790266 0.17224157 0.16337422
0.023014337 -0.08418961 0.08022802 0.268478 0.23347077 0.28149843 -0.12917484 -0.025299547
-0.058685824 -0.14204423 0.15745755 0.10353899 0.24203198 -0.23221095 -0.25110736 0.27977425
-0.025803661 -0.2443998 -0.18154293 -0.2858542 -0.17241848 0.23118019 0.13058327 -0.08345389
0.099614054 -0.25250077 -0.041146312 0.16544862 -0.08796418 0.24303973 0.2364944 0.10866837
-0.14599316 -0.2658465 0.08015935 0.10262294 -0.28259093 -0.065458864 0.035856098 -0.2045259
-0.14674051 0.3028582 -0.18848144 0.14000727 0.15439175 0.17932378 0.21990854 -0.044277124
-0.26228258 0.22037788 -0.0008681062 -0.16064359 -0.14886358 0.010960195 -0.103578515 -0.0033656685
0.12752566 -0.1669996 -0.2004666 0.13589837 0.19630215 -0.16581059 0.02213339 -0.27137476
0.051886477 0.13343576 -0.2105189 -0.10335183 -0.14302973 0.18411152 0.15681368 0.10587963
-0.100973904 0.054186944 -0.2268902 -0.20316665 0.15923384 -0.17050022 0.07427337 -0.18433937
-0.17371078 -0.28850666 -0.07841915 0.06487059 -0.14078332 0.10556734 -0.29678342 -0.2859929
-0.10780235 0.006874099 -0.09292752 -0.030068668 -0.036150366 0.12545106 0.24662359 0.10889344
-0.039698858 0.1923335 0.12870531 -0.2004363 0.04888196 -0.22481538 -0.18441465 -0.28125358
-0.0977464 0.01747037 0.2598598 -0.09624654 -0.16544886 -0.24053226 -0.15496463 -0.031162988
0.11135504 0.065590195 -0.18784007 0.273552 0.16497056 -0.11639832 0.13756967 -0.2337396
0.032266654 -0.010599117 0.05839928 0.1719322 -0.10258339 0.24703053 -0.2915919 -0.26885122
-0.26861525 -0.017610723 0.059578873 0.24155101 0.004755211 0.1736405 0.16006075 0.12677826
-0.14547662 -0.0071012685 -0.19695118 -0.15939087 0.1257448 -0.03513469 -0.042887285 -0.09250178
0.017406618 0.04685105 0.13098025 -0.20428708 0.00038995073 -0.23666641 -0.2226557 0.031659484
0.23332956 -0.05425397 -0.11605774 -0.14861578 -0.112408124 -0.06386459 -0.0356113 0.22162803
-0.2524009 0.07710624 0.16725755 0.15883638 0.0627038 -0.23722926 -0.113659546 0.18379837
-0.021202326 0.026118755 -0.054901116 0.08352756 -0.21040949 0.007951442 -0.0025865058 -0.085049674

fc3.bias f4 [64]
00000000: 0e71 3cbe 0f8b 663d 2c6e 873e 0d78 6ebd
00000010: ad47 823e 90ae 9c3a 2d86 953d 4987 c8bd
00000020: 0187 643e f2eb a4ba e13a 373e 8624 6d3e
00000030: 5414 e93d d12d 603e 1a69 5f3d 0547 543e
00000040: 754c 5a3e eba6 45bd b81a 183e 94ca c93d
00000050: e266 2cbc 100b 283e 52b7 933d 39a4 01bd
00000060: 2a6b 2f3e d338 85bd 7586 bebd 20b9 71bd
00000070: f314 2e3e 0b19 44be 10bd 403e 959f e43d
00000080: e74c 1ebd 0973 d63d 2b5a 583c 6155 a13e
00000090: 4153 833e f9e1 f93c d8b5 a73e 7722 35bc
000000a0: 4d73 383e 97f0 c5bb c174 493e aaa1 a43e
000000b0: 916e 7d3d d056 9a3e 131d 953e 8188 87bc
000000c0: 66eb 3b3d 0143 f83c b1cc 52bd cc3a 023e
000000d0: b9cc ddbd a910 d5bd fa81 203e 6800 3abd
000000e0: 5aad b93d d97e 95bd 3694 a53d f4b9 183e
000000f0: 1e1e 5c3e f9ab 2dbe 2dad d9bd c28d 163e
-0.18402502 0.05628496 0.26451242 -0.058219958 0.2544531 0.0011953879 0.073009826 -0.097914286
0.22317125 -0.0012582524 0.17893554 0.23158464 0.113808304 0.21892478 0.054543592 0.20730217
0.21318229 -0.04825489 0.14853942 0.09853092 -0.010522576 0.1641047 0.072127 -0.031650756
0.17130724 -0.06504979 -0.093029894 -0.05901444 0.17000179 -0.19150178 0.18822122 0.1116325
-0.03864756 0.1047116 0.0132050915 0.3151045 0.25649455 0.03050326 0.32755923 -0.01105558
0.18012734 -0.0060406434 0.19673444 0.3215459 0.061873022 0.30144358 0.29123744 -0.016544582
0.04587879 0.030305387 -0.05146474 0.12717742 -0.108300634 -0.10403568 0.15674582 -0.045410544
0.09066267 -0.07299585 0.080849096 0.14914685 0.21495864 -0.16960134 -0.10628734 0.14702514

fc4.weight f4 [128, 64]
00000000: f572 e0bc efd6 a03d 5caa b13d 0aff 12bd
00000010: 76bc 83bd 5040 47bd 1b38 ddbc 003b 8abc
00000020: 3027 a33d 1e65 29bd e8f9 5a3d dd21 c53c
00000030: 86da 8d3d f95a 2c3e 2b4c f13d fa39 4abb
00000040: 3160 923d ee45 98bc efbc ca3d b7b7 9cbd
00000050: ec51 c6bc 070f 433b be85 49bc 78b6 a7bd
00000060: 0121 223e 4666 0c3e eced 053e 4238 d03d
00000070: 25b5 5cbd 2642 5bbd b8bf 833c 9767 653d
00000080: 8555 b33d 6806 c43c dd04 d23d 3772 b939
00000090: cd54 e53d 271e da3d ace4 e6ba 9fcd 8dbd
000000a0: c46f 583d adb9 413d 7deb f43d 2330 ccbb
000000b0: b664 02bd 354e e73d 2454 f93d c180 ec3d
000000c0: 1ca2 69bd 12ca 13bd 5d39 adbc 952c 083e
000000d0: 2ea1 153d e675 51bd 68bb 9d3d 4af2 d83b
000000e0: e5e3 fd3d b70d 3bbd 58eb 8ebd b2ef 8fbd
000000f0: c21a 263e 2fa3 fcbc 8594 9d3d 6069 36bd
00000100: d995 193e bec2 033d b792 90bd 8d02 d73d
00000110: 0b1a d53c 8556 c3bb 258e d2ba 5a26 47bd
00000120: ffb4 163e 85aa 6dbd 8e8a c83d 83f6 c53c
00000130: 4072 0e3d 7dd1 e93d a3a1 1d3e 6f9d 34bb
00000140: 28c0 8bbd 4f34 e03c fd91 083e 6f0f 1e3d
00000150: bdd8 13bd e6d0 55bd 24c7 1a3e 3a99 673d
00000160: a307 c93d 1765 c23d dcee 063e 2582 06bd
00000170: 71f6 823d 5441 20bd bc70 55bc 01fc 0a3e
00000180: a6b6 1e3e a430 663c c95f b83b 36d6 14bd
00000190: d47f 213e 0719 3d3d ac0c ca3d af55 713d
000001a0: d7c9 c33c a1cf d23d f27a 273e d5f6 173d
000001b0: a21d ef3d d9ff 32bc 48e1 3fbc a119 6b3d
000001c0: 647a 97bd 3506 293e b9d2 033e ef81 32bd
000001d0: 32b3 81bd f241 153d c65d 55bd 6f5f a6bd
000001e0: 821e bf3d 4853 75bd bc28 58bb 6673 053e
000001f0: 819e f63d f87b 04bd 1a60 0b3e 4788 203e
00000200: 18ae d93d 5cb1 9a3d cef8 053e 00f6 0bbd
00000210: 46da 92bb 5537 203a bae7 a6bd 3e85 e43d
00000220: 460e 1e3e 1343 163e fc53 373d 761c 013d
00000230: 5cf4 cf3d 8f52 083e c391 6dbd 2595 b93d
00000240: ca39 993d 8df9 203e 253d b53d 05e1 a6bc
00000250: e510 fc3d 34f0 cc3d 54d9 4b3c 892c 45bc
00000260: ffce 3ebd f89b 7d3b b7da dbbc 17e5 47bd
00000270: 10a4 c93c 10b6 a43d 75e3 08bc 2473 563d
00000280: 2eb2 8a3d 9352 753d 8b34 943d bd04 20bd
00000290: 5aed 52bc 873f 8a3d f0a6 153e 1bd3 0e3c
000002a0: c4e2 b73c 310c 4d3d 64f8 573d 6102 1a3e
000002b0: 370d cd3d c243 3f3c 30a7 1d3e 6f13 9d3d
000002c0: 695e 663a 38af a2bd 1d9a bf3d be53 8cbd
000002d0: 1ba5 4cbc a88d 943d e9c7 64bd c133 97bd
000002e0: e91f e1bc 8f43 50bc 164a 25bd ec73 8dbd
000002f0: 2319 a73d af7b 9e3d 8841 093e a20a 52bd
00000300: e0b9 cf3d 4fac b53c 4c1a 603d 7d16 af3d
00000310: 8dd1 fdbc 8713 1f3e 7578 1c3e 579a 4fbd
00000320: 5c63 983d c02a 30bb 6b81 1cbc 92da 593d
00000330: 06be ec3d 0d26 e2bc 72b7 81bd c056 c03d
00000340: da78 c03d c879 203e 5d8a eb3d 4155 55bd
00000350: b184 7f3a d98a 95bc 674c bc3d bbac c33d
00000360: c5ca b23c 872e cb3c 29b7 0d3e edf2 15bd
00000370: 2a9b 0b3e 0e56 893d 5576 e43d 5589 c43c
00000380: 3c67 983d 9714 1b3e b2ba 0f3d 0927 743c
00000390: 5ad4 003e b9e1 863d f1a1 8cbc af8d 953d
000003a0: 8a01 0c3e 8fdf 0ebd f1af 203b 5d52 203e
000003b0: 347b 7fbb 6bd3 b93d 6e15 c33d bb8d c53d
000003c0: 9427 f73c 5f1d 2b3d 94cc 073e fa27 033e
000003d0: 03e1 acbd 7852 3c3d 0aca 21bd 5dc6 fa3c
000003e0: 79fa 71bd dc5d 223e 47b7 29bd 142b a5ba
000003f0: a1cf d6bc 064a f8bb 519f 573c 6034 99bd
-0.027398566 0.07853495 0.086750716 -0.035887755 -0.064324304 -0.048645318 -0.027004292 -0.016873837
0.07966459 -0.0413562 0.053460985 0.024063999 0.06926446 0.16831578 0.11782106 -0.003085731
0.07147253 -0.018588033 0.098993175 -0.07652228 -0.024208985 0.0029763596 -0.012299953 -0.081891
0.15832902 0.13710889 0.13079041 0.1016698 -0.05388369 -0.05352988 0.01608263 0.056006994
0.08756546 0.023928836 0.10254834 0.00035371046 0.11197815 0.10650282 -0.0017615757 -0.06923985
0.052840963 0.047296215 0.11958978 -0.0062313243 -0.031834327 0.11294214 0.12174252 0.11547995
-0.057039365 -0.03608138 -0.021145517 0.13298257 0.036530666 -0.051137827 0.077017605 0.00662068
0.12396983 -0.045667376 -0.06978482 -0.0702814 0.16221145 -0.03083953 0.076943435 -0.044534087
0.14998569 0.032168142 -0.07059234 0.104985334 0.026013395 -0.0059612417 -0.0016064091 -0.04862056
0.14717482 -0.05802395 0.09792052 0.024165398 0.034776926 0.1141691 0.15393691 -0.0027559658
-0.0682376 0.027368693 0.1333694 0.038588937 -0.03609537 -0.052201174 0.15115029 0.056542613
0.0981591 0.094919376 0.13177055 -0.03283896 0.06394661 -0.0391248 -0.013027366 0.13572694
0.15499362 0.014049683 0.005626653 -0.0363371 0.15771419 0.046166446 0.09865698 0.058919605
0.023899956 0.10293508 0.16355494 0.03710063 0.11675574 -0.010925257 -0.011711426 0.05739749
-0.07396391 0.16506274 0.12873353 -0.043580946 -0.06333007 0.036439843 -0.052091382 -0.08123671
0.09331991 -0.059893876 -0.0032983264 0.13032302 0.12041951 -0.03234479 0.13610879 0.15676986
0.10628909 0.0755336 0.13083193 -0.03417015 -0.0044815866 0.0006111761 -0.08149667 0.111582264
0.15435132 0.14674024 0.044757828 0.031521283 0.1015403 0.13312744 -0.058000337 0.0906165
0.074817255 0.15720196 0.08849553 -0.02037097 0.1230791 0.100067526 0.012441952 -0.012034544
-0.046584126 0.00386977 -0.02683769 -0.04880246 0.024614364 0.08042538 -0.008355011 0.0523559
0.06772266 0.059893202 0.07236584 -0.03906702 -0.012873972 0.06750398 0.14614463 0.008717324
0.022446997 0.050060455 0.052727118 0.1503997 0.10012286 0.01167387 0.15395808 0.07669722
0.0008787872 -0.079435766 0.09355567 -0.0685191 -0.012490536 0.07253581 -0.05585471 -0.07382918
-0.027481036 -0.01271142 -0.040353857 -0.06906876 0.08159091 0.077384345 0.13403904 -0.05127967
0.10142875 0.02217689 0.05471258 0.08549211 -0.03098371 0.15534793 0.15280326 -0.0506843
0.07440826 -0.002688095 -0.00955234 0.05318696 0.115596816 -0.027606035 -0.063338175 0.09391546
0.093980506 0.15671456 0.11501 -0.052083258 0.00097472506 -0.018254684 0.0919426 0.0955443
0.021825204 0.02480246 0.13839401 -0.036608625 0.13633409 0.06705867 0.111553825 0.023991266
0.074415654 0.15144573 0.035090156 0.014901885 0.12581006 0.06586022 -0.017167063 0.073024146
0.13672462 -0.03488117 0.0024518932 0.15656419 -0.0038983347 0.09073528 0.09525572 0.096461736
0.03017024 0.041776057 0.13261634 0.12808219 -0.08441355 0.045977086 -0.03949932 0.030612165
-0.05907676 0.15856117 -0.041434553 -0.0012601339 -0.026222052 -0.0075771837 0.013160543 -0.07480693

fc4.bias f4 [128]
00000000: 4fd3 043e d1bd 013e ac02 7b3d 7453 fd3d
00000010: c40b 25bd 8f2b 283e 783d c53d 4641 c0bd
00000020: 1390 963d 09ae 1f3e 4931 ffbc 50f0 003e
00000030: 9549 e5bd 3c43 133e f52f 03bd 2fb3 fa3d
00000040: dd03 5b3d 26be fa3b 5729 6b3d 42ca 253e
00000050: 3a67 71bc b152 723d f1e8 bdbc 6a10 cf3d
00000060: d426 973d 7270 ca3d 6987 993d 2e18 273e
00000070: 7bdf 00bd 1f2e 68bd fc55 a93c c5ec d73d
00000080: d2e4 c73c 2b78 9b3d 0622 08bd b0a5 1c3b
00000090: 91f6 d13d 175a 80bd 568b 543d 960c e33c
000000a0: 779a 103d 873c 293e 2db0 3a3d 8fa3 3fbb
000000b0: 590c 4dbc 0261 a03d d3f0 70bc 4ca8 c239
000000c0: 2b7f 8f3d 3af6 b13d 79ce f0bd cbf1 043e
000000d0: 477a 24bb 170f 9fbc 027f b2bc f2c4 003e
000000e0: eee7 113c 9cd2 be3d 5dfc 243c 8795 35bd
000000f0: 9c24 a83d 885e 343e 0257 d03d 08ea 183d
00000100: d477 023e 7074 e03c df2c c43c 8af1 283e
00000110: 65d7 e43d 3aac 02bd 8cce 073e e5c1 1d3e
00000120: 206b e3bb 6bb3 b23d 73ef 94bc dfb1 073e
00000130: e0ac 223e 8481 a73d 91e1 e9bd ca58 243e
00000140: 6fbe 153e 396a 4c3d 750f 133e 5e5c ab3d
00000150: b680 813d b34f 353e d0b6 2abc d0b1 033d
00000160: f8fc 173d b142 243e cca6 643d 3bc4 863d
00000170: c841 b83c 36bb 6ebc 1219 35bd a7d9 e23c
00000180: 9acf a43d 2315 963d 97d0 71bd e19a d73d
00000190: df13 013e b63e 38bc 099b 383e ab81 14bd
000001a0: d955 ac3d ba12 a2bd 6ff7 ad3d 4662 da3d
000001b0: ef36 853d e718 923d 3f34 1d3e 6712 a23c
000001c0: 5d25 a13c 2659 33bc a700 69bc 7915 0a3d
000001d0: 2ecc 733d 735c 4ebc 4f80 0abc 07a6 1f3e
000001e0: f133 9d3d 2fe9 57bd 4aae 8cbd cbb1 923d
000001f0: d660 80bc b002 e93d 15de 09bd cdd7 a43b
0.12971233 0.12670065 0.061281845 0.12369433 -0.040294424 0.16422866 0.09630865 -0.0938745
0.07351699 0.15593733 -0.03115143 0.12591672 -0.11195675 0.14381117 -0.032028157 0.12241208
0.05347048 0.007652062 0.05741247 0.16190436 -0.014734084 0.059160892 -0.023182364 0.101105526
0.07380453 0.098847285 0.074965306 0.16317818 -0.031463128 -0.05668461 0.020670883 0.10543207
0.024401102 0.075912796 -0.033235572 0.0023902468 0.10252107 -0.06267183 0.051890694 0.027715962
0.03530356 0.16526996 0.04557817 -0.0029241776 -0.012515151 0.07831003 -0.0147058545 0.00037127954
0.07006677 0.08689542 -0.117581315 0.12982862 -0.0025097297 -0.019416375 -0.021789078 0.12575129
0.008905394 0.09317514 0.010069934 -0.044332054 0.08210108 0.17614186 0.101728454 0.037332565
0.12741023 0.027399272 0.023947177 0.1649839 0.11173896 -0.03190253 0.13262385 0.15405996
-0.0069402605 0.087256275 -0.018180585 0.13251446 0.15886259 0.08179 -0.114199765 0.16049495
0.14623426 0.04990599 0.14361365 0.08367227 0.06323378 0.17706184 -0.010419562 0.032151997
0.037106484 0.16041066 0.055823132 0.06580397 0.022492304 -0.014571002 -0.044213362 0.027691675
0.08047409 0.0732825 -0.059036817 0.10527588 0.12605236 -0.01124542 0.18027891 -0.036256474
0.08414812 -0.07913728 0.0849446 0.106632754 0.065046184 0.07133656 0.15351962 0.019784166
0.019671137 -0.010946548 -0.014221347 0.033711884 0.059520893 -0.012595284 -0.008453443 0.15590678
0.07675923 -0.052712616 -0.068691805 0.071628176 -0.015671175 0.11377466 -0.03365906 0.0050306083
