vae_model4.pth (torch, 156962 bytes, 12 tensors)

encoder.0.weight f4 [128, 71]
0	0x3d31938e	0.04335361
1	0xbdb9aa97	-0.090657406
2	0xbd85ae44	-0.06527379
3	0xbcd1f667	-0.02563019
4	0xbdd53e0d	-0.10412226
5	0x3de36fed	0.111053325
6	0xbde11d8f	-0.10991966
7	0xbd41bb0e	-0.04729753
8	0x3c2d5b3b	0.010580833
9	0x3dce1d32	0.10064162
10	0xbb2f71fd	-0.0026770823
11	0x3d9a7736	0.07542269
12	0xbdd623a2	-0.10456015
13	0x3da74e42	0.08169223
14	0xbda688ac	-0.08131537
15	0xbdbb3cd1	-0.09142459
16	0xbdaad8f3	-0.08342161
17	0xbdc95390	-0.098303914
18	0x3cb6e5c5	0.02232636
19	0x3de01091	0.1094066
20	0xbdf26137	-0.118349485
21	0xbd530c33	-0.051525306
22	0x3dc171b1	0.09445513
23	0xbcad71f6	-0.021172505
24	0xbd15af32	-0.036544032
25	0xbdc469a6	-0.09590463
26	0x3cf78d4a	0.030218739
27	0x3da687bd	0.08131359
28	0xbdb2fbf0	-0.087394595
29	0xbd0d1ad9	-0.034449432
30	0xbdd8d2db	-0.105870925
31	0xbd790b6f	-0.06080192
32	0x3cd7bfe6	0.026336621
33	0xbdafcc3a	-0.08583875
34	0xbdad4195	-0.084597744
35	0x3d34dbb3	0.044154834
36	0xbd8f6b7a	-0.070029214
37	0x3cabe89e	0.020984944
38	0xbcba52ad	-0.022744501
39	0xbdbc76b8	-0.09202331
40	0x3d017a46	0.03161075
41	0x3dbf5aff	0.09343528
42	0x3d5c03a8	0.053714424
43	0xbd7ecbe9	-0.062206183
44	0x3db2bf4a	0.08727892
45	0x3c6f5f17	0.0146100735
46	0xbdd741ed	-0.10510621
47	0x3dbb17d3	0.091354035
48	0x3df42f56	0.11923091
49	0xbbaff8a6	-0.0053702174
50	0x3d3ec26c	0.046572134
51	0x3d04bbed	0.032405782
52	0x3b9d57fa	0.0048017474
53	0x3d7078e9	0.05870906
54	0xbda35ee6	-0.07977085
55	0x3dabacb9	0.083825536
56	0xbcbefa66	-0.023312759
57	0xbda7df75	-0.08196918
58	0x3ca23e6f	0.019805161
59	0x3db89eb6	0.09014647
60	0x3c062c63	0.008189294
61	0xbd30d77d	-0.043174256
62	0x3d5492dd	0.051897872
63	0x394e85cd	0.00019695536
64	0xbd67e16e	-0.05661147
65	0x3d4448e7	0.047921088
66	0xbd84de3a	-0.06487699
67	0x3d608b4a	0.054820336
68	0xbd9a756a	-0.07541926
69	0xbd5228cf	-0.05130845
70	0x3dc5e621	0.09663034
71	0x3de2bfab	0.11071714
72	0x3ded9b55	0.11601893
73	0x3c3bc5a6	0.011460697
74	0x3dd53056	0.1040961
75	0xbb4c0010	-0.0031127967
76	0xbc7c812e	-0.015411658
77	0xbdca37bc	-0.09873912
78	0x3d04f18d	0.032456923
79	0xbc70c753	-0.01469596
80	0x3d76a862	0.060219176
81	0x3d74d55a	0.05977378
82	0xbd8975d0	-0.06711924
83	0x3c87b3de	0.01656526
84	0xbd0ee97c	-0.034890637
85	0x3d49c2a7	0.0492579
86	0xbd8247d5	-0.06361357
87	0xbd549e98	-0.05190906
88	0x3c377fe2	0.011199923
89	0xbafa67b8	-0.0019104397
90	0x3a768abb	0.0009404828
91	0x3c38c3b2	0.011277126
92	0x3df1c16e	0.11804472
93	0xbd88170b	-0.0664502
94	0x3dbdc496	0.092660114
95	0xbd58e720	-0.052954793
96	0xbde09bdb	-0.10967227
97	0xbdc87f32	-0.097898856
98	0x3c134540	0.008988678
99	0xbd8f057e	-0.069834694
100	0x3d02407a	0.03179977
101	0xbd865c56	-0.065605804
102	0xbd3ff436	-0.046863757
103	0xbdefde6a	-0.11712344
104	0x3db53e21	0.08849741
105	0xbc545b7a	-0.012961263
106	0xbad14440	-0.0015965775
107	0x3cb5e99b	0.022206118
108	0xbdb1a922	-0.08674838
109	0x3dd8e15c	0.10589859
110	0xbc03802d	-0.008026165
111	0xbcf477da	-0.029842306
112	0xbd4613b7	-0.048358645
113	0x3d38b7d9	0.045097206
114	0x3d8def2c	0.06930384
115	0xbc5b88cf	-0.013399317
116	0xbd5307f0	-0.05152124
117	0x3ddadae3	0.106862806
118	0x3dfe95a6	0.12430887
119	0x3db1de06	0.08684926
120	0x3da26c83	0.07930853
121	0xbdb99986	-0.090624854
122	0x3deae534	0.11469498
123	0x3dc3a54f	0.095530145
124	0xbaeb5439	-0.0017954177
125	0x3cb8e9c3	0.022572404
126	0xbd95569c	-0.0729191
127	0xbde19c77	-0.110161714
128	0x3d4cf005	0.050033588
129	0xbd7049c9	-0.058664117
130	0x3d7be468	0.061497122
131	0x3d5ce274	0.0539269
132	0xbb650aa8	-0.0034948979
133	0x3d14f46a	0.036365904
134	0xbdb63f60	-0.088988066
135	0xbd5b000d	-0.053466845
136	0x3d723015	0.059127886
137	0x3dbbb787	0.091658644
138	0xbdd9dfdc	-0.10638401
139	0x3db2b1e1	0.08725334
140	0xbd67dec1	-0.05660892
141	0xbcb6e2eb	-0.022325
142	0xbda63052	-0.08114685
143	0x3df23b78	0.11827749
144	0xbdc54182	-0.09631635
145	0xbd822025	-0.06353787
146	0x3d083a60	0.033258796
147	0xbde918d3	-0.11381688
148	0xbdc3c5a5	-0.09559182
149	0xbc1b746e	-0.009488208
150	0xbddce90c	-0.10786638
151	0x3d6ff6c8	0.05858496
152	0xbdd8dc0c	-0.105888456
153	0x3d83e424	0.06439999
154	0x3d423231	0.047411148
155	0xbd29cae1	-0.041453246
156	0xbda78b7e	-0.08180903
157	0x3c930602	0.0179472
158	0xbd679062	-0.05653418
159	0x3ca3a652	0.019976769
160	0x3d82bd5b	0.06383773
161	0xbc864261	-0.016389074
162	0xbdb2c6ec	-0.087293476
163	0xbddeacee	-0.108728275
164	0xbd19dd17	-0.037564363
165	0x3cc1cb46	0.023656499
166	0x3d31a9a4	0.043374673
167	0x3d0092f5	0.03139015
168	0xbcd3516d	-0.025795663
169	0x3dec6d68	0.11544305
170	0xbdba1b9a	-0.09087296
171	0x3c43b6a0	0.011945397
172	0x3d8ead0a	0.06966598
173	0x3ddadb67	0.10686379
174	0xbd0dcafa	-0.0346174
175	0x3ca3d02e	0.019996729
176	0x3d95b2bc	0.073094815
177	0x3dbc4cd6	0.09194343
178	0xbce0eb0b	-0.027455827
179	0x3dcbff15	0.099607624
180	0xbd23e673	-0.040014695
181	0x3d6e7ccb	0.05822448
182	0x3d60ead0	0.054911435
183	0xbd88fa70	-0.06688392
184	0xbd1b1ea9	-0.037871037
185	0x3d566e31	0.05235118
186	0xbda778ba	-0.08177324
187	0x3dec8ed9	0.115506835
188	0x3ddb7461	0.10715557
189	0xbd4d868c	-0.050177142
190	0xbd070be3	-0.03297032
191	0x3ce149a5	0.027500937
192	0x3d848dcb	0.06472357
193	0xbb33063f	-0.0027316955
194	0xbdd1e881	-0.10249425
195	0x3de61501	0.11234475
196	0xbde4204c	-0.11138973
197	0x3c13648d	0.008996141
198	0xbdbcc62e	-0.09217487
199	0xbdaa171b	-0.08305188
200	0xbdd46624	-0.10371044
201	0xbd2657ca	-0.040611066
202	0xbdfac5a8	-0.12244731
203	0xbc463d2f	-0.012099548
204	0xbca87f8c	-0.020568632
205	0x3dccf8a4	0.10008362
206	0x3d98455d	0.07435105
207	0x3d1b6c92	0.037945338
208	0x3d8ccfda	0.06875582
209	0x3dba4ee1	0.09097076
210	0x3b88dc05	0.004176619
211	0x3caf8a18	0.021428153
212	0xbd5b1ae8	-0.053492457
213	0x3d389242	0.045061357
214	0xbd650e34	-0.05592175
215	0xbd8ade48	-0.06780678
216	0x3cd30602	0.0257597
217	0x3d306ffc	0.043075547
218	0xbdd98701	-0.10621453
219	0xbce95871	-0.028484555
220	0x3da6965e	0.08134149
221	0xbce75207	-0.028237356
222	0xbd031810	-0.03200537
223	0x3d167d65	0.03674068
224	0xbd88154c	-0.06644687
225	0x3dba7099	0.091035075
226	0xbcaf6c34	-0.0214139
227	0x3db64575	0.088999666
228	0xbc0a5464	-0.008442972
229	0x3ce42c60	0.02785319
230	0xbdd07bc6	-0.10179858
231	0xbcbfc56d	-0.02340957
232	0xbcf2c718	-0.02963595
233	0xbb6ddf10	-0.0036296286
234	0x3db8822f	0.090092055
235	0xbdf3e4b0	-0.11908853
236	0xbbfa7065	-0.007642793
237	0xbcbcc89b	-0.023044875
238	0xbbf68f78	-0.007524427
239	0xbcb7a29b	-0.022416404
240	0x3db91360	0.090368986
241	0x3da5c988	0.0809508
242	0x3d8bd188	0.06827074
243	0xbdfc921f	-0.12332558
244	0xbdfcd895	-0.12345997
245	0x3da307a4	0.07960442
246	0x3c795b4b	0.01521952
247	0xbd150f14	-0.036391333
248	0x3d8a0edd	0.06741116
249	0xbddb7a80	-0.107167244
250	0xbd8d11fa	-0.068881944
251	0xbccbc2e8	-0.024873212
252	0xbd947c92	-0.072503224
253	0xbda158a9	-0.07878239
254	0x3d8b3cb4	0.067986876
255	0x3db548d8	0.088517845

encoder.0.bias f4 [128]
0	0x3d5ac1b9	0.053407405
1	0xbdd91d32	-0.10601272
2	0x3d839083	0.06424048
3	0xbc9996f7	-0.018748743
4	0x3dc5c1b3	0.09656086
5	0xbdea2db4	-0.114344984
6	0xbd194471	-0.037418786
7	0xbdf3ca54	-0.119038254
8	0x3b4f087b	0.0031590748
9	0xbdf9c477	-0.12195676
10	0xbdd333d7	-0.10312622
11	0x3d951b9d	0.072806574
12	0xbc265c23	-0.010153803
13	0x3d69d115	0.05708416
14	0x3d995029	0.074859925
15	0x3d19c665	0.03754272
16	0x3ddfc0c6	0.109254405
17	0xbda57f2b	-0.08080896
18	0xbe031871	-0.12802292
19	0x39975129	0.00028861433
20	0xbd65dbdf	-0.05611789
21	0xbdadd80e	-0.08488475
22	0x3c81f65b	0.015864542
23	0xbdbf2ff2	-0.09335317
24	0x3d743428	0.059620053
25	0x3d34c17a	0.044129826
26	0x3cc5b26e	0.024132933
27	0x3da96a4a	0.08272226
28	0xbdd2616b	-0.10272487
29	0x3e071675	0.1319216
30	0xbddee2f8	-0.108831346
31	0xbd99b45c	-0.07505104
32	0x3da7674d	0.08174
33	0xbdce750a	-0.10080917
34	0x3d8a675e	0.06757997
35	0xbe19bc41	-0.1501322
36	0x3ceeb583	0.029139286
37	0xbd9d1a23	-0.07671001
38	0xbc9b0687	-0.01892401
39	0xbd996f32	-0.07491912
40	0xbd9186b5	-0.071057715
41	0x3cc23a1d	0.023709351
42	0x3cc4e575	0.024035195
43	0xbddeb5c9	-0.108745165
44	0xbe14d42a	-0.14534059
45	0x3db4d4a5	0.08829621
46	0x3d4070a0	0.046982408
47	0x3d28de2f	0.041227516
48	0x3d4600fc	0.048340783
49	0x3e0954f7	0.13411318
50	0x3cfc0607	0.030764593
51	0x3d7e891e	0.062142484
52	0x3d8b73dd	0.068092085
53	0xbdd22ab2	-0.1026205
54	0xbdcb1d85	-0.0991774
55	0xbd547684	-0.051870838
56	0x3dee2568	0.116282284
57	0x3db5b0e9	0.088716336
58	0x3d6d2841	0.057899717
59	0xbd60b09c	-0.054855928
60	0x3d087f04	0.033324257
61	0x3dfe6d07	0.12423139
62	0x3d3e9b99	0.04653511
63	0xbda3712b	-0.079805695
64	0xbd3473ed	-0.044055868
65	0x3da72606	0.08161549
66	0x3dc21421	0.094764955
67	0x3debd82b	0.1151584
68	0x3e012f98	0.12615812
69	0xbd9493fb	-0.072547875
70	0xbbf5d2f0	-0.0075019524
71	0x3d06e76d	0.03293555
72	0xbe060ad0	-0.13090062
73	0x3e00730d	0.12543888
74	0x3dc0b7ed	0.09410081
75	0x3cfaf57c	0.030634634
76	0xbd9f5fcf	-0.07781946
77	0x3d0ebc4d	0.034847546
78	0x3d034e5b	0.032057147
79	0x3daf99b8	0.085742414
80	0x3e0af0c4	0.13568407
81	0x3d1ce3e0	0.038303256
82	0x3b8cc501	0.0042959456
83	0x3cadd904	0.021221645
84	0x3d311eaf	0.043242153
85	0xbdac6cde	-0.08419202
86	0x3ddd56d9	0.108075805
87	0xbd882b0c	-0.066488355
88	0xbc8ed3cb	-0.017434975
89	0xbd8d4594	-0.068980366
90	0xbd76938c	-0.060199305
91	0x3dc91e75	0.09820262
92	0x3dd775f2	0.10520543
93	0x3ca138f2	0.019680474
94	0xbdeee253	-0.11664262
95	0x3e066883	0.13125806
96	0xbdb9e772	-0.09077348
97	0xbdb8983d	-0.09013412
98	0x3d278bd0	0.04090482
99	0xbdcf81be	-0.10132168
100	0x3d8c4da8	0.06850749
101	0xbd547645	-0.051870603
102	0x3dbb748c	0.09153089
103	0x3da1d027	0.0790103
104	0x3dbab630	0.09116781
105	0xbdac0311	-0.08399022
106	0xbd9ed2ee	-0.077550754
107	0x3db73167	0.089449696
108	0xbd389303	-0.045062076
109	0x3d4b7710	0.049674094
110	0x3ce46ab7	0.027882917
111	0x3cae0167	0.021240903
112	0xbdbd1724	-0.09232929
113	0x3d597e07	0.053098705
114	0xbe0c100f	-0.13678001
115	0x3d934a34	0.071918875
116	0x3ce1e77d	0.027576203
117	0x3d7d24df	0.06180274
118	0xbdb2464c	-0.08704814
119	0x3daaf0c0	0.08346701
120	0x3d59feb0	0.053221405
121	0x3d18ed43	0.037335645
122	0x3d4b5616	0.049642645
123	0x3daad93d	0.08342216
124	0xbdceefac	-0.101043075
125	0x3d0a13d8	0.03371033
126	0x3d80963b	0.06278654
127	0xbc12306f	-0.00892268

encoder.2.weight f4 [64, 128]
0	0xbd18f3ea	-0.03734199
1	0x3cee6875	0.029102543
2	0xbd9074d8	-0.07053536
3	0x3a3c8516	0.0007191462
4	0xbd5631f7	-0.052293744
5	0x3d388f23	0.04505838
6	0xbd971d50	-0.07378638
7	0xbd20eca2	-0.03928817
8	0xbdb2f612	-0.087383404
9	0xbd6a885d	-0.057258952
10	0xbc4e1069	-0.012577155
11	0xbd035cf9	-0.032071088
12	0x3c9ded95	0.019278327
13	0x3c4d00b6	0.0125123765
14	0x3c67553c	0.014119443
15	0xbd64fd3e	-0.055905573
16	0xbd9ddf8a	-0.07708652
17	0xbd82a0b9	-0.06378312
18	0x3d8a1cbd	0.06743763
19	0xbda14cbe	-0.078759655
20	0xbc18c263	-0.009323689
21	0xbc8faecf	-0.01753941
22	0xbdc26b4a	-0.0949312
23	0xbcf4a336	-0.029862981
24	0xbcc159a8	-0.023602322
25	0x3c845d7f	0.016157864
26	0xbcb72c5d	-0.022360021
27	0xbd48780a	-0.048942603
28	0xbda0b642	-0.07847263
29	0xbbe857f2	-0.007090562
30	0x3da3c235	0.079960264
31	0xbd63052e	-0.05542486
32	0xbd108fa6	-0.035293244
33	0xbd01c64b	-0.031683248
34	0xbc62f25d	-0.013851729
35	0xbd10cfd4	-0.03535445
36	0xbd108e96	-0.03529223
37	0x3cc10644	0.023562558
38	0x3cb534fd	0.022119993
39	0xbc6ecc63	-0.014575097
40	0xbde560b7	-0.112000875
41	0x3d9a9e92	0.07549776
42	0xbcd3a96b	-0.02583762
43	0x3d0f45d1	0.03497869
44	0xbd8d9399	-0.06912918
45	0xbd96bd6d	-0.07360349
46	0xbbdd43ae	-0.006752453
47	0xbd20d21e	-0.039262883
48	0xbd93f5d7	-0.072246246
49	0x3d2ef937	0.04271814
50	0xbdcc830b	-0.09985932
51	0xbdddee06	-0.10836415
52	0xb989f2ed	-0.0002631167
53	0xbd62b814	-0.05535133
54	0x3c85d07f	0.01633477
55	0xbd91be62	-0.07116391
56	0x3d813dd3	0.0631062
57	0x3d440a74	0.04786153
58	0x3d3312bf	0.04371905
59	0x3b97e592	0.004635521
60	0xbd9f96d4	-0.0779244
61	0x3c6c65d7	0.014428577
62	0x3d5f9f83	0.05459548
63	0xbd0bbda9	-0.03411642
64	0x3ce60072	0.028076384
65	0x3d400166	0.046876334
66	0xbde475d3	-0.11155286
67	0xbd77f10c	-0.060532615
68	0x3d622e5f	0.055220004
69	0xbc84954d	-0.016184473
70	0x3c73d0fa	0.014881367
71	0xbce35b50	-0.027753502
72	0x3c83e082	0.016098265
73	0x3d867b68	0.065665066
74	0xbc6887d0	-0.0141925365
75	0x3d9a500f	0.07534801
76	0x3ce3a151	0.027786883
77	0xbd7944ff	-0.060856815
78	0xbcb71ad1	-0.022351654
79	0xbd943dee	-0.07238375
80	0xbd609509	-0.05482963
81	0x3d9b3178	0.07577795
82	0x3d97e37c	0.07416436
83	0x3a17097b	0.00057616056
84	0xbda3e52a	-0.08002694
85	0xbd715097	-0.058914747
86	0xbd492eb4	-0.049116805
87	0x3d2760a4	0.040863648
88	0xbb8db4b0	-0.004324518
89	0xbc4014d3	-0.011723715
90	0xbc8d6935	-0.01726208
91	0x3cc1279f	0.023578463
92	0x3d8351ea	0.06412108
93	0xbd7c80ab	-0.061646145
94	0x3d41cd2a	0.0473148
95	0x3ba1865d	0.0049293474
96	0x3d27786b	0.040886324
97	0xbb84b429	-0.004049797
98	0xbca90388	-0.020631567
99	0xbd9742dd	-0.073858
100	0xbd1e2b65	-0.038615603
101	0x3d8939e4	0.06700495
102	0xbc927c31	-0.017881485
103	0xbad42edf	-0.0016188285
104	0x3c436139	0.011925035
105	0x3da21747	0.07914596
106	0xbd9c64b2	-0.076363936
107	0x3d59eeb5	0.053206164
108	0xbac6ca0c	-0.0015166416
109	0x3c4634cb	0.012097548
110	0x3cfa873f	0.030582068
111	0x3d5bf364	0.053698912
112	0x3d6c15c6	0.057637952
113	0xbcb55477	-0.022135003
114	0xbd10f531	-0.035390083
115	0xbdd57e8e	-0.10424529
116	0x3d808c2d	0.062767364
117	0xbdcae626	-0.099071786
118	0x3c02cf70	0.007984027
119	0x3d7b494e	0.061349206
120	0x39e62749	0.00043898288
121	0xbc8a10b9	-0.016853677
122	0xbd1518d9	-0.03640065
123	0x3d776c7b	0.06040619
124	0x3c430b6b	0.011904578
125	0x3d56512a	0.052323498
126	0xbdaf0875	-0.08546535
127	0xbca440e6	-0.020050477
128	0xbd8f16fe	-0.06986807
129	0xbb07c8a9	-0.0020718968
130	0xbd539504	-0.051655784
131	0xbcb1a6d6	-0.021685999
132	0x3cc244ba	0.023714412
133	0x3c981245	0.0185634
134	0xbd85a0f2	-0.065248385
135	0x3b5c19a0	0.003358461
136	0xbda3b8fc	-0.07994267
137	0x3cd434e9	0.025904136
138	0xbcaec69f	-0.021334944
139	0xbd66c4cf	-0.056340035
140	0x3d4cc954	0.04999669
141	0x3c6435e2	0.013928862
142	0xbd9dda25	-0.077076234
143	0x3d246ab5	0.040140826
144	0xbd0fa51c	-0.03506957
145	0x3d9e7119	0.077364154
146	0xbcc79a79	-0.02436565
147	0xbdb2f0c9	-0.087373324
148	0xbd455993	-0.048181128
149	0xbd255ecd	-0.040373612
150	0x3cf183a9	0.029481726
151	0x3cec8f90	0.02887705
152	0x3d018964	0.031625167
153	0x3c230702	0.009950401
154	0x3c51c295	0.01280274
155	0xbdd45b5b	-0.10368987
156	0xbcfe2364	-0.031022735
157	0xbcf088f2	-0.029362176
158	0x3d2e578d	0.042563964
159	0x3d60ae42	0.054853685
160	0xbdaf2386	-0.085516974
161	0x3daf8823	0.08570888
162	0xbdbc723d	-0.09201477
163	0x3c899ae3	0.016797489
164	0x3cdc5e59	0.026900457
165	0xbd00c174	-0.03143449
166	0x3c92000d	0.01782229
167	0xbd49dc34	-0.049282268
168	0xbb01b7db	-0.0019793424
169	0x3ccd442a	0.025056917
170	0x3d04027e	0.03222894
171	0xbd9841da	-0.07434435
172	0xbcf7e95a	-0.030262638
173	0x3cea8c51	0.028631361
174	0x3c861a52	0.016369972
175	0x3d7c4f64	0.06159915
176	0x3d8eafde	0.06967138
177	0xbdb396f0	-0.087690234
178	0xbcf4dac4	-0.029889472
179	0x3d0dc792	0.034614153
180	0x3c0d5a64	0.008627508
181	0x3d52e176	0.051484548
182	0x3d5acbc6	0.05341699
183	0xbbd5bdde	-0.006522878
184	0xbd4d2e67	-0.05009308
185	0xbd9a6dc9	-0.07540471
186	0xbd0d5082	-0.034500606
187	0x3c792102	0.015205624
188	0xbd5e1ebb	-0.054228526
189	0x3b4d8911	0.0031362216
190	0xbd40229e	-0.046908014
191	0xbda991c1	-0.082797535
192	0x3ca91a62	0.020642463
193	0x3d3bd165	0.04585399
194	0xbc9f12c2	-0.019418124
195	0x3d27a830	0.04093188
196	0x3d68aea0	0.05680716
197	0xbd75c223	-0.059999596
198	0x3d162fab	0.036666553
199	0xbcded7fd	-0.0272026
200	0x3d1ee109	0.03878883
201	0x3c8d3cfe	0.017240997
202	0x3c16f266	0.009213066
203	0xbc8de3e4	-0.01732058
204	0x3cbf269e	0.023333844
205	0x3d0094f2	0.031392045
206	0xbd7cca35	-0.061716277
207	0xbd578fe6	-0.052627467
208	0xbd5abec7	-0.053404596
209	0xbdcc0779	-0.09962363
210	0x3d6ea94c	0.058266923
211	0x3ccb2976	0.024800044
212	0x3c8282da	0.015931536
213	0xbcd9117d	-0.026497597
214	0x3d7a0cae	0.06104725
215	0x3d89cfac	0.067290634
216	0xbd9cdd37	-0.07659381
217	0x3d2dbd5b	0.04241691
218	0xbd0de137	-0.03463861
219	0x3c694133	0.014236736
220	0xbad0de04	-0.0015935306
221	0x3d3574e5	0.044300932
222	0xbdb0baca	-0.08629377
223	0xbdbda2a9	-0.092595406
224	0x3cadc345	0.021211276
225	0x3c3a565a	0.011373127
226	0x3d8150c0	0.0631423
227	0xbc477921	-0.0121748755
228	0xbdd1bfbb	-0.10241648
229	0xbcde455f	-0.027132688
230	0xbd86c45f	-0.065804236
231	0x3d2ca2f2	0.042147584
232	0xbd81bf0a	-0.06335266
233	0xbd0923e2	-0.033481486
234	0xbda26dfb	-0.07931133
235	0x3d3a877b	0.04553936
236	0xbd0147fc	-0.03156279
237	0x3d3be096	0.04586848
238	0x3ae7f32e	0.0017696375
239	0xbd035db9	-0.032071803
240	0xbcff8d41	-0.031195285
241	0x3c70d6fd	0.014699695
242	0x3d08c334	0.033389285
243	0xbcf9612a	-0.03044184
244	0x3cde2318	0.027116343
245	0xbc913dbd	-0.017729634
246	0x3d81a3c8	0.06330067
247	0xbc7233ae	-0.014782829
248	0x3ccd5e51	0.025069388
249	0xbcf2230c	-0.029557727
250	0x3c994edf	0.018714366
251	0xbd4e6253	-0.050386738
252	0xbb080bd6	-0.0020759008
253	0xbdf7e67c	-0.12104508
254	0xbd17e903	-0.03708745
255	0xbc647b14	-0.01394536

encoder.2.bias f4 [64]
0	0xbcc29e63	-0.023757165
1	0x3d24b7cc	0.040214345
2	0x3c57e272	0.013176547
3	0x3d1176b1	0.035513584
4	0xbdbdb76b	-0.092635
5	0xbda8bfd9	-0.08239717
6	0x3d306d97	0.043073263
7	0x3db05df0	0.08611667
8	0xbdb7d2cd	-0.08975754
9	0xbd92ca81	-0.07167531
10	0x3c863635	0.01638327
11	0x3cf2d1f6	0.029641133
12	0xbdd19f99	-0.10235519
13	0xbcd8f745	-0.026485095
14	0x3d0318d6	0.032006107
15	0xbc3662b4	-0.011131931
16	0xbc979d8f	-0.018507747
17	0xbd83d957	-0.06437939
18	0x3d32412a	0.043519177
19	0x3d5cbbeb	0.05389015
20	0xbcd32dc9	-0.025778668
21	0x3d9113f3	0.07083883
22	0x3db68b06	0.08913235
23	0x3d328faf	0.04359406
24	0xbdc8c6e6	-0.09803562
25	0x3d6d0ccd	0.057873536
26	0x3d195922	0.03743852
27	0xbda61bba	-0.08110757
28	0x3db57036	0.08859293
29	0xbd82d774	-0.06388751
30	0x3d1fe9ce	0.039041333
31	0x3cef71c1	0.029229047
32	0x3d4b3093	0.04960687
33	0xbd224822	-0.039619572
34	0x3b501d10	0.0031755604
35	0xbd9188fc	-0.07106206
36	0xbd80415f	-0.062624685
37	0xbdcc4d41	-0.099756725
38	0x3d4d9832	0.050193973
39	0xbdcbe728	-0.09956199
40	0x3dd74c9e	0.105126604
41	0x3d40d462	0.047077544
42	0xbd20341e	-0.039112203
43	0x3c9611cd	0.018319035
44	0x3d4e9516	0.05043515
45	0xbd393b66	-0.045222662
46	0xbd9f1e36	-0.07769434
47	0xbd3228aa	-0.04349581
48	0x3d4e6157	0.0503858
49	0x3ced7f82	0.028991465
50	0xbcc7ce5e	-0.024390396
51	0xbda11c22	-0.07866694
52	0x3bb94a1e	0.0056545874
53	0xbd8e733e	-0.069555745
54	0xbd6fc7a5	-0.058540005
55	0xbd858c0f	-0.06520855
56	0xbd696f5e	-0.056990974
57	0x3dd03817	0.10166948
58	0xbd42189e	-0.047386758
59	0xbda93ab5	-0.082631506
60	0x3d9c55b4	0.07633534
61	0x3bc87c18	0.0061183088
62	0x3d1d178c	0.038352534
63	0x3bf69c8b	0.0075259856

encoder.4.weight f4 [32, 64]
0	0x3dc90237	0.098148756
1	0x3d66f13b	0.0563824
2	0xbdaefbbd	-0.08544109
3	0x3d6007ed	0.05469506
4	0xbb4e3b64	-0.0031468505
5	0xbd2d5df5	-0.042325933
6	0xba047b02	-0.000505373
7	0x3da558b9	0.08073563
8	0x3df9bd82	0.12194349
9	0xbd8f8722	-0.070081964
10	0xbd873f74	-0.066038996
11	0x3e017d74	0.12645513
12	0x3db7547c	0.08951661
13	0xbdaec603	-0.085338615
14	0xbdbab61e	-0.09116767
15	0xbd63801c	-0.055542096
16	0xbd6b7b1e	-0.05749046
17	0xbd8e9578	-0.06962103
18	0xbdcd5279	-0.10025496
19	0x3cbd14a4	0.023081131
20	0xbd8707f8	-0.06593317
21	0x3b90b8ad	0.0044165463
22	0x3d333cc8	0.043759137
23	0x3cf5d3f5	0.030008296
24	0xbdc60aa7	-0.096700005
25	0xbcd4e745	-0.025989184
26	0x3d8c4db7	0.068507604
27	0x3d462e94	0.048384264
28	0x3c50a329	0.012734213
29	0xbc088f60	-0.0083349645
30	0xbd80329c	-0.06259653
31	0xbd535aa0	-0.0516001
32	0x3ddae65f	0.10688471
33	0xbd3ab3b0	-0.04558152
34	0xbdd453c0	-0.103675365
35	0xbc490610	-0.012269512
36	0x3ccd4005	0.025054941
37	0xbd0cdd4c	-0.034390733
38	0x3d843179	0.06454749
39	0xbd88b59e	-0.06675266
40	0xbd5ed4f8	-0.05440232
41	0xbd819f00	-0.06329155
42	0xbd7d6540	-0.061864138
43	0x3bd27723	0.0064228936
44	0xbc63941c	-0.0138902925
45	0xbcfcfa9b	-0.030881217
46	0xbd1b3d4a	-0.037900247
47	0xbdc0f8da	-0.09422465
48	0xbc4667f4	-0.012109745
49	0x3d10a8c6	0.035317205
50	0x3c5bf9e0	0.013426274
51	0xbdfa9b80	-0.122366905
52	0x3d0122fe	0.03152751
53	0xbc520b90	-0.0128201395
54	0xbd3b187f	-0.04567766
55	0x3db80ea4	0.089871675
56	0xbcfd3cfd	-0.03091287
57	0x3d0160e2	0.031586535
58	0x3d16866d	0.036749292
59	0xbd655c90	-0.055996478
60	0x3a0f7598	0.000547254
61	0xbc8e57cb	-0.017375847
62	0xbda59105	-0.08084301
63	0xbda7c9ea	-0.08192809
64	0xbd475e61	-0.04867399
65	0x3decd40f	0.115638845
66	0xbc2cac76	-0.010539165
67	0x3c2fdf93	0.010734457
68	0xbdf056ea	-0.117353275
69	0x3d393f5d	0.045226444
70	0x3d3ed90b	0.046593707
71	0xbd2797e1	-0.040916327
72	0xbd9363cd	-0.0719677
73	0xbcdb6417	-0.026781125
74	0xbd252161	-0.040315036
75	0xbd5d0dab	-0.053968113
76	0x3db3862d	0.087658264
77	0x3dbb85cf	0.09156381
78	0x3da8a847	0.08235221
79	0xbc98f8b0	-0.018673271
80	0x3d527f67	0.05139103
81	0x3d9a3e4c	0.075314134
82	0xbe034d93	-0.12822561
83	0xbc9c0150	-0.019043595
84	0x3d4fda73	0.05074544
85	0xbd81ce33	-0.063381575
86	0x3c1c0713	0.009523171
87	0xbda95d82	-0.08269788
88	0x3dafd39a	0.08585282
89	0xbd1d579c	-0.03841363
90	0x3b2d1fea	0.0026416727
91	0xbd60ed20	-0.05491364
92	0xbdaa2f90	-0.08309853
93	0xbd168628	-0.036749035
94	0x3c46b468	0.012127973
95	0xbd48ac34	-0.04899235
96	0x3d01eeb3	0.031721782
97	0xbd4da5e6	-0.05020704
98	0x3cc4efc4	0.02404011
99	0xbd1346cc	-0.03595619
100	0x3db214f1	0.086954005
101	0xbdcc4573	-0.09974184
102	0x3cdb6f53	0.026786482
103	0xbdc15361	-0.094397314
104	0x3b9a5e8c	0.004710978
105	0x3dbe1696	0.09281652
106	0x3df37aa6	0.11888628
107	0x3c983f69	0.018584924
108	0x3df34c4f	0.11879789
109	0x3d889ca4	0.06670502
110	0xbd2c0fa9	-0.042007122
111	0xbd99b57f	-0.07505321
112	0x3a0b9981	0.0005325303
113	0x3da8af7c	0.08236596
114	0xbd57d9ca	-0.052697934
115	0x3d824688	0.06361109
116	0x3dc5de76	0.09661572
117	0x3d56ab40	0.05240941
118	0x3b2e86ce	0.0026630643
119	0x3d089f6c	0.03335516
120	0x3d2b88dd	0.04187857
121	0x3d91e421	0.0712359
122	0x3d2489d6	0.040170513
123	0xbd04034a	-0.0322297
124	0x3b1696ad	0.0022977993
125	0x3d9ee390	0.07758248
126	0x3deb7ba4	0.11498192
127	0xbd4029a7	-0.046914723
128	0x3d5ccf36	0.05390855
129	0xbd12f452	-0.035877533
130	0x3dc2bbf1	0.09508503
131	0xbb4c28be	-0.0031152214
132	0xbbfe6dfd	-0.0077645765
133	0xbcc5c6f2	-0.024142716
134	0xbd11fddd	-0.035642494
135	0x3d8f8be7	0.07009106
136	0x3c9839dc	0.018582277
137	0xbcdee759	-0.027209925
138	0xbe0880da	-0.13330403
139	0x3d85a50d	0.065256216
140	0xbdba1303	-0.090856574
141	0xbce76998	-0.028248593
142	0x3d2b529a	0.041826822
143	0xbd5bbcd0	-0.053646863
144	0xbdf61719	-0.12016124
145	0x3c992388	0.0186937
146	0x3db9f631	0.090801604
147	0xbd9e74be	-0.077371106
148	0xbc936909	-0.01799442
149	0x3ceb258d	0.028704429
150	0x3dc9800b	0.098388754
151	0xbdafc8a7	-0.08583193
152	0xbd20e2d1	-0.03927881
153	0x3db3cd3b	0.08779379
154	0x3dc63495	0.09677998
155	0x3d86d696	0.06583898
156	0xbcd25687	-0.025676025
157	0x3d0a2da8	0.033734947
158	0x3d9be757	0.07612484
159	0xbd34ef95	-0.044173796
160	0xbd884062	-0.06652905
161	0x3d55adba	0.05216763
162	0xbd06d8f4	-0.032921746
163	0xbd0a89d0	-0.033822834
164	0xbde89ce9	-0.11358053
165	0x3d8c6480	0.06855106
166	0x3dc75da1	0.09734655
167	0x3e109dfd	0.14122768
168	0xbc7c561b	-0.0154013885
169	0xbdf64b35	-0.12026063
170	0x3de15498	0.11002463
171	0x3dbc581d	0.09196494
172	0xbde96559	-0.11396284
173	0xbcb35075	-0.02188895
174	0xbe03c06c	-0.12866372
175	0xbc6e145f	-0.014531224
176	0xbcd8b104	-0.026451595
177	0xbd9ebd56	-0.07750957
178	0x3dd7f6a8	0.10545093
179	0xbdea7fea	-0.11450179
180	0xbd9f9c75	-0.07793514
181	0xbd723ac8	-0.05913809
182	0xbde3df7e	-0.11126612
183	0xbd29d068	-0.041458517
184	0xbcf5d00e	-0.030006435
185	0x3d54a546	0.05191543
186	0xbdbd4a42	-0.09242679
187	0x3cbbf940	0.022946
188	0x3dcc839a	0.099860385
189	0x3d5dd5e9	0.05415908
190	0x3d8d3895	0.06895558
191	0x3d1ffd9b	0.039060216
192	0x3d2e5846	0.042564653
193	0xbbab8e77	-0.005235489
194	0x3d353a3d	0.044244993
195	0x3dacb51f	0.084329836
196	0xbd940a90	-0.07228577
197	0xbdc83b7e	-0.09776972
198	0x3b114399	0.0022165535
199	0xbd8c07bf	-0.06837415
200	0xbbd39257	-0.006456654
201	0xbdb61aa9	-0.08891804
202	0xbdbe314c	-0.092867464
203	0xbdc4375f	-0.09580874
204	0x3dc70a43	0.09718754
205	0xbc8f15af	-0.017466394
206	0x3d44c189	0.048036132
207	0x3bdd1860	0.0067472905
208	0xbd3b2160	-0.045686126
209	0xbd12ebbc	-0.035869345
210	0x3c25d590	0.010121718
211	0x3c8c18ce	0.017101672
212	0xbd73bcd0	-0.059506238
213	0xbe1669fc	-0.14688867
214	0x3c1d5a04	0.009603981
215	0xbd957ef3	-0.07299604
216	0xbd2beb6e	-0.04197257
217	0x3de571b8	0.11203331
218	0x3dd1293d	0.10212944
219	0xbc2fb210	-0.010723606
220	0xbe0b7e8a	-0.1362249
221	0x3ccb64c8	0.02482833
222	0x3b3f413a	0.0029183165
223	0xbd96136f	-0.073279254
224	0x3c9213f8	0.017831787
225	0x3dcae5b1	0.099070914
226	0xbde11d6a	-0.109919384
227	0xbce370a8	-0.02776368
228	0x3db14b0c	0.08656892
229	0x3d906e4a	0.07052286
230	0x3d806b86	0.062705085
231	0xbddefae9	-0.10887701
232	0xbe0f1fec	-0.13977021
233	0x3c38068c	0.01123203
234	0x3dd204cc	0.10254821
235	0xbd8a971d	-0.06767104
236	0x3d6e0f59	0.058120105
237	0x3d8f9a4b	0.07011851
238	0xbda9c216	-0.08288972
239	0xbe1082b8	-0.14112365
240	0x3d0e02a0	0.034670472
241	0xbdbb09f8	-0.09132761
242	0xbd5ee87e	-0.05442094
243	0x3dc91526	0.09818487
244	0xbda4cd91	-0.08047021
245	0xbaf8e000	-0.0018987656
246	0xbdaba8d2	-0.08381809
247	0x3d1b2e78	0.037886113
248	0x3ce6771c	0.028132968
249	0x3d967c23	0.07347896
250	0x3b8144c7	0.0039449665
251	0x3d24dc86	0.04024937
252	0xbe20b746	-0.15694913
253	0xbc7df3a3	-0.015499982
254	0xbd8cdd83	-0.068781875
255	0xbb7267ac	-0.0036988063

encoder.4.bias f4 [32]
0	0xbce4db1b	-0.027936509
1	0xbbbe1acc	-0.0058015343
2	0xbb58af78	-0.0033063572
3	0x3da966e8	0.08271581
4	0x3c2b581b	0.010458018
5	0xbd0f73e3	-0.035022628
6	0xbc913d34	-0.01772938
7	0xbdc2cf6f	-0.09512221
8	0xbd1bd279	-0.03804252
9	0x3ce0d6ae	0.027446117
10	0xbdc275aa	-0.09495099
11	0x3d844da7	0.064601235
12	0x3d2a2f3a	0.041548945
13	0x3d6b4841	0.057441954
14	0xbd8a51b6	-0.067538664
15	0x3bc0edf2	0.0058877403
16	0x3d9c2d35	0.0762581
17	0xbbed6fe0	-0.0072460026
18	0xbd2214d5	-0.03957065
19	0x3d59f978	0.053216428
20	0xbd044478	-0.03229186
21	0xbca2f6c0	-0.01989305
22	0x3bc58dc4	0.0060288627
23	0xbdab6696	-0.08369176
24	0xbd329400	-0.043598175
25	0xbcc688db	-0.02423518
26	0xbbb5bb0b	-0.005545979
27	0xbd10938a	-0.035296954
28	0x3d82ab50	0.063803315
29	0xbcf6043b	-0.030031314
30	0x3d367bc7	0.044551637
31	0xbd8a78c5	-0.06761316

decoder.0.weight f4 [64, 16]
0	0xbe907ce4	-0.28220284
1	0x3daffbfe	0.085929856
2	0xbc9b9bae	-0.018995132
3	0xbdeae2ae	-0.11469017
4	0xbdb2b78d	-0.08726416
5	0xbe0bfa8d	-0.13669796
6	0xbd856562	-0.06513478
7	0xbe514f48	-0.204404
8	0x3e7cace0	0.24675322
9	0xbe8e0002	-0.2773438
10	0x3e82b3a2	0.25527674
11	0xbd8a7027	-0.067596726
12	0xbe5dee11	-0.21672846
13	0x3da93f74	0.08264056
14	0x3e3c2900	0.18375015
15	0xbe4d88f8	-0.2007178
16	0xbe686c92	-0.22697666
17	0xbe0847dc	-0.13308662
18	0x3e2cee0b	0.16887681
19	0x3e81bf32	0.25341183
20	0xbddc7d0e	-0.1076604
21	0xbd2271b2	-0.03965921
22	0x3d53f0ea	0.051743425
23	0x3e5b7c0e	0.21434042
24	0xbdca3d39	-0.098749585
25	0xbe8a4c78	-0.27011466
26	0xbe7d4d66	-0.24736556
27	0x3e0d3777	0.1379069
28	0xbe18d740	-0.14925861
29	0x3e85624b	0.26051554
30	0xbdca7cb6	-0.09887068
31	0x3da91ecc	0.08257827
32	0x3e03b489	0.12861837
33	0x3e5aa670	0.21352553
34	0xbdd87f6f	-0.10571181
35	0xbe892d49	-0.26792362
36	0xbd2b0861	-0.041756038
37	0x3e02ad8a	0.12761512
38	0xbe073cba	-0.13206759
39	0x3e25a549	0.16176333
40	0x3e45d280	0.1931858
41	0x3db20b07	0.086935095
42	0xbe6d21d0	-0.2315743
43	0x3e880c77	0.2657201
44	0xbe088aaf	-0.13334154
45	0xbe1235a8	-0.1427828
46	0xbe5331db	-0.20624487
47	0x3e0ec9ec	0.13944215
48	0x3d88a568	0.06672174
49	0xbd6db704	-0.058035865
50	0x3e42e2ce	0.19031832
51	0xbdef8599	-0.116954036
52	0x3e793597	0.24336849
53	0xbe01547a	-0.12629882
54	0x3dbc2e68	0.09188539
55	0xbd923090	-0.07138169
56	0x3e8a5f38	0.2702577
57	0x3e423b5a	0.18967953
58	0x3e918686	0.28422946
59	0x3e87493a	0.26423055
60	0xbe71bd1b	-0.23607294
61	0xbe7c89dd	-0.24661966
62	0xbe0a0115	-0.13476975
63	0x3e1e1284	0.1543675
64	0xbe1ef537	-0.1552323
65	0x3dcb642c	0.09931216
66	0x3d43fc2b	0.047847908
67	0xbe67da9a	-0.22641984
68	0xbe58d27a	-0.2117404
69	0xbe8f3ec7	-0.27977583
70	0xbdec4229	-0.115360565
71	0xbd8242a9	-0.06360371
72	0x3e8975a2	0.2684756
73	0xbdd22d7e	-0.10262583
74	0x3dc7ef34	0.09762421
75	0x3e8f5206	0.27992266
76	0x3dcf51d4	0.10123029
77	0xbd9460e7	-0.07245045
78	0x3cd6f3f5	0.026239375
79	0x3daebb44	0.08531812
80	0x3e1758fa	0.14780036
81	0x3dcb846a	0.09937365
82	0x3caf8e42	0.021430138
83	0xbe3ef9af	-0.18649934
84	0xbbec3157	-0.00720803
85	0x3e5d794e	0.21628305
86	0xbe55e8f4	-0.20889646
87	0xbd937e0b	-0.07201775
88	0x3d840308	0.06445891
89	0xbdb0fc4f	-0.08641874
90	0xbd9dcdcc	-0.07705268
91	0x3e69abaf	0.22819398
92	0x3dc50254	0.09619585
93	0x3c2e5c3d	0.0106421085
94	0xbe874771	-0.26421693
95	0x3ddb1266	0.106968686
96	0xbe895d38	-0.26828933
97	0xbe0fab6b	-0.14030235
98	0x3d50c498	0.050968736
99	0xbe55685c	-0.20840591
100	0xbe714bcb	-0.23564069
101	0x3e552465	0.20814665
102	0xbd36d442	-0.04463602
103	0xbe6aff46	-0.22948942
104	0xbe6488a6	-0.22317752
105	0x3d45f475	0.048328836
106	0xbe8b84a2	-0.27249628
107	0x3dd18a60	0.10231471
108	0x3e1f3bb6	0.15550122
109	0xbda26ff8	-0.079315126
110	0x3e70ff90	0.2353499
111	0xbcdb1aa0	-0.026746094
112	0xbe28b924	-0.16476876
113	0xbbbd3109	-0.0057736677
114	0x3e969ba7	0.29415628
115	0x3e5a80a0	0.21338129
116	0x3e8ded96	0.27720326
117	0x3e40761b	0.18795054
118	0x3dd573a2	0.10422446
119	0xbe6806d0	-0.22658849
120	0xbd91d8cf	-0.07121431
121	0xbe0a2e50	-0.1349423
122	0x3d53a537	0.051671233
123	0x3c51c2a6	0.012802755
124	0xbd280c21	-0.041027192
125	0x3dd2b6cd	0.10288773
126	0x3e586d48	0.21135437
127	0xbe7bfaea	-0.24607435
128	0xbd244b16	-0.04011067
129	0xbd0ce2a3	-0.034395825
130	0xbe04288d	-0.12906094
131	0xbe856631	-0.26054528
132	0x3dedf2fd	0.11618612
133	0xbe842fbf	-0.25817677
134	0xbe388604	-0.18019873
135	0xbd9bbce2	-0.07604386
136	0x3e4860ab	0.19568126
137	0x3e6f1a6d	0.23349924
138	0x3cdcd2ea	0.02695604
139	0x3dcfb110	0.10141194
140	0xbe884b85	-0.26620117
141	0x3e38c26f	0.1804292
142	0xbe5e3a03	-0.21701817
143	0x3d23505c	0.03987156
144	0x3e5bf897	0.21481548
145	0x3d4c093e	0.0498135
146	0x3d492e0b	0.049116176
147	0x3e578652	0.21047333
148	0x3e705d03	0.23472981
149	0x3e14d4c5	0.1453429
150	0x3ce6ad61	0.028158845
151	0xbd8114e8	-0.06302816
152	0x3e076b5e	0.13224551
153	0xbd39ae1c	-0.04533206
154	0x3e5261bd	0.20545097
155	0xbda1ddf3	-0.079036616
156	0xbe1dda62	-0.15415338
157	0xbe4c3309	-0.19941343
158	0xbe3342d8	-0.17505968
159	0xbe908f99	-0.28234556
160	0x3e3d4511	0.18483378
161	0xbe6af0fd	-0.22943492
162	0x3e67fb85	0.22654541
163	0x3e5af5da	0.21382847
164	0x3de6025d	0.112309195
165	0x3e498e03	0.1968308
166	0x3e493a07	0.19651042
167	0xbd4fbd37	-0.05071756
168	0x3de8996f	0.1135739
169	0xbde37d8a	-0.11107929
170	0xbe54245d	-0.20716996
171	0x3e9302aa	0.2871297
172	0x3e1b3eaf	0.1516063
173	0xbd94c49e	-0.07264064
174	0x3e041e70	0.12902236
175	0xbdca22b3	-0.098698996
176	0xbd5f34e8	-0.054493815
177	0x3e57ea5f	0.21085499
178	0xbe640a9c	-0.22269672
179	0xbdc1c54c	-0.094614595
180	0xbd0e2abd	-0.034708727
181	0xbde04547	-0.109507136
182	0xbe40aeec	-0.18816727
183	0xbe5db2c1	-0.2165022
184	0xbd514753	-0.05109341
185	0xbdb114d4	-0.08646551
186	0xbe809709	-0.2511523
187	0xbe8928b4	-0.26788867
188	0x3e002744	0.12514979
189	0x3e42a4d0	0.19008183
190	0xbe80ff8c	-0.25194967
191	0x3d013936	0.0315487
192	0x3dffb20e	0.12485133
193	0x3d856bce	0.06514703
194	0xbe54ed47	-0.20793639
195	0x3e3439fd	0.17600246
196	0xbe65de49	-0.22448076
197	0xbcc5e1ad	-0.024155462
198	0xbe55f7ce	-0.20895311
199	0x3e8bad4e	0.27280658
200	0x3e789c0b	0.24278276
201	0x3c584ac3	0.013201418
202	0xbcf563f0	-0.02995488
203	0xbdefba05	-0.11705402
204	0xbe13624a	-0.14392963
205	0xbd847c1c	-0.064689845
206	0xbe91e3bd	-0.28494063
207	0x3dc00ee5	0.09377841
208	0xbe8f5cd5	-0.28000513
209	0xbe7cdb16	-0.2469295
210	0xbe458ebd	-0.19292732
211	0xbe3a8576	-0.18214974
212	0x3e92115c	0.2852887
213	0xbe21bd62	-0.157949
214	0x3e00a098	0.12561262
215	0xbe7d9aac	-0.24766034
216	0xbc40a41f	-0.0117578795
217	0x3d67ae19	0.056562517
218	0xbc62ad4a	-0.013835261
219	0x3c36fbd9	0.011168444
220	0xbd300fe7	-0.042983916
221	0xbe943334	-0.28945315
222	0x3d72463b	0.05914901
223	0xbcfe1bda	-0.03101914
224	0x3e58dfbc	0.21179098
225	0xbe67f676	-0.22652611
226	0xbe11ab19	-0.14225425
227	0x3dcdf486	0.10056405
228	0xbd14a9e3	-0.03629483
229	0x3e489991	0.19589831
230	0xbe7b14bd	-0.2451963
231	0x3dc3b442	0.09555866
232	0x3dcafb96	0.099112675
233	0xbd14cdd3	-0.0363291
234	0xbde263fb	-0.11054226
235	0xbdd63e65	-0.104611196
236	0xbe743c22	-0.23851064
237	0x3e836d2a	0.25669223
238	0x3deb4e53	0.114895485
239	0x3d157909	0.03649238
240	0x3dd74fd3	0.10513272
241	0xbe70a93f	-0.23502062
242	0xbe8b1263	-0.27162465
243	0xbceaeffd	-0.028678888
244	0xbe525d68	-0.20543444
245	0xbe06aa37	-0.1315087
246	0xbe5eb931	-0.21750332
247	0xbe431d93	-0.1905425
248	0x3e6e4bcf	0.23271106
249	0xbde3380a	-0.11094673
250	0xbdfd6602	-0.12372972
251	0xbdfb19a8	-0.12260753
252	0x3e8fc641	0.28080943
253	0x3e1e2dbc	0.15447134
254	0xbd2cadc5	-0.042157907
255	0x3e735dc3	0.23766236

decoder.0.bias f4 [64]
0	0x3dc535e8	0.096294224
1	0xbe39ce5f	-0.1814513
2	0x3dcf17b9	0.101119466
3	0xbe2eac2b	-0.17057864
4	0x3dba9c81	0.09111882
5	0x3eb44275	0.35206953
6	0x3ea48c7c	0.3213843
7	0xbd826bb1	-0.06368197
8	0x3e058b20	0.13041353
9	0x3e816202	0.25270087
10	0xbe250d18	-0.16118276
11	0xbe274b29	-0.16337265
12	0x3db8325f	0.089939825
13	0x3e49c722	0.1970487
14	0x3e2a4792	0.16628864
15	0xbe309c99	-0.17247237
16	0x3dae7917	0.0851919
17	0x3e2a3056	0.16620001
18	0xbdbb49a0	-0.09144902
19	0x3e9bf298	0.30458522
20	0xbcadb042	-0.02120221
21	0x3dff6adf	0.12471556
22	0x3d400b61	0.04688585
23	0x3d7953ed	0.060871053
24	0xbdce7a60	-0.10081935
25	0x3e881241	0.26576427
26	0xbde2cc3b	-0.1107411
27	0xbe13ad40	-0.14421558
28	0x3e12c781	0.14333917
29	0xbe1dcc31	-0.15409924
30	0x3c6382ab	0.013886134
31	0x3e43161a	0.190514
32	0x3e84a51d	0.2590722
33	0xbd2cdb50	-0.04220134
34	0xbd850ae5	-0.064962186
35	0xbbbc2cf4	-0.0057426635
36	0xbe34b84f	-0.17648433
37	0xbd55c999	-0.05219421
38	0x3e24f4f0	0.16109061
39	0x3e090312	0.13380077
40	0x3d668632	0.056280322
41	0x3dc267c0	0.09492445
42	0x3da87a0f	0.08226406
43	0xbe2d0609	-0.16896833
44	0xbe187c54	-0.14891177
45	0xbcf1b41c	-0.029504828
46	0xbd40e1d6	-0.047090374
47	0x3e462167	0.1934868
48	0xbdd51fe5	-0.10406474
49	0x3e9a3d9d	0.30125132
50	0x3c31a083	0.010841492
51	0x3eb10052	0.34570557
52	0x3e79058a	0.24318519
53	0x3d4cf9ba	0.050042845
54	0x3e1be752	0.1522496
55	0xbde6b4bd	-0.11264942
56	0x3e584d69	0.2112328
57	0xbd14f319	-0.03636465
58	0xbd062d88	-0.032758266
59	0x3e18e77c	0.14932054
60	0x3e7cf92b	0.24704425
61	0xbd9a8ee8	-0.075467885
62	0xbe37f2ae	-0.17963669
63	0xbe38e1af	-0.18054841

decoder.2.weight f4 [128, 64]
0	0xbbebfc6b	-0.0072017214
1	0x3d7cf8f8	0.061760873
2	0x3d281a52	0.041040726
3	0xbc9f9cd9	-0.01948397
4	0x3d6cb5c1	0.05779052
5	0x3cb1069d	0.021609599
6	0x3dcd1f9b	0.10015794
7	0xbd9ebb46	-0.07750563
8	0xbb9236d4	-0.0044621024
9	0xbd3e5f55	-0.046477634
10	0xbc81da8e	-0.015851285
11	0xbb64fea8	-0.0034941826
12	0x3d58f9c0	0.052972555
13	0xbd1bd0bf	-0.038040873
14	0x3ce9941a	0.028513003
15	0x3e01403b	0.12622158
16	0x3d9da0bb	0.076966725
17	0xbd8d456e	-0.06898008
18	0x3d160852	0.03662903
19	0xbb60b146	-0.003428535
20	0xbceaceb3	-0.028663015
21	0x3e287c23	0.16453604
22	0x3e02d9d7	0.12778412
23	0x3c81c9e3	0.015843337
24	0x3d818f2f	0.06326138
25	0xbd1f6298	-0.038912386
26	0x3e0d6d42	0.1381121
27	0x3c80eba7	0.015737368
28	0xbce6dab7	-0.028180463
29	0x3dedf21c	0.11618444
30	0x3e1f3204	0.15546423
31	0x3deea583	0.116526626
32	0x3d9ddcb8	0.077081144
33	0x3cd701a0	0.026245892
34	0xbd178265	-0.03698959
35	0xbd0a8525	-0.033818383
36	0xbd033474	-0.032032445
37	0x3cc28d78	0.023749098
38	0xbd608a8d	-0.054819632
39	0x3dbe92f7	0.09305375
40	0x3c52a668	0.012857057
41	0x3c02a115	0.007972975
42	0x3b10d477	0.0022099295
43	0x3e1d5116	0.15362963
44	0x3e0170db	0.12640707
45	0x3e12e92e	0.14346763
46	0x3db402b1	0.08789576
47	0xbd58a643	-0.052892935
48	0xbd7bc33a	-0.06146548
49	0x3dfd57e8	0.123702824
50	0xbd98175a	-0.07426329
51	0x3de42e7e	0.1114168
52	0x3e02bd02	0.12767413
53	0x3e280679	0.16408719
54	0x3e06927b	0.13141815
55	0xbd2207f4	-0.039558366
56	0xbc9b7339	-0.01897584
57	0x3e090948	0.13382447
58	0xbd915c8d	-0.07097731
59	0x3e01cb1c	0.12675136
60	0x3e0ff504	0.1405831
61	0x3d76900d	0.06019597
62	0x3c477f21	0.012176306
63	0x3d066893	0.032814573
64	0x3cafef3d	0.021476382
65	0x3d1b006c	0.0378422
66	0x3a51e480	0.00080067664
67	0x3dc486c8	0.0959602
68	0x3dc94956	0.09828441
69	0x3d949e6f	0.07256781
70	0xbd747af1	-0.05968756
71	0x3d629179	0.055314515
72	0x3e29eb25	0.16593607
73	0x3cbce2c9	0.023057358
74	0xbcabdd65	-0.020979593
75	0xbd67716e	-0.05650466
76	0x3d0ab83e	0.033867113
77	0x3d821666	0.063519284
78	0x3dd6a7e2	0.1048124
79	0x3d73beb8	0.059508055
80	0x3dcb5264	0.09927824
81	0x3db6a7dc	0.089187354
82	0x3e23ea67	0.16007386
83	0xbce86c2f	-0.028371898
84	0xbc88ee95	-0.016715327
85	0x3d7e0bdd	0.062023032
86	0x3dd9d1b5	0.106357016
87	0x3df5a72b	0.119947754
88	0x3e043991	0.12912585
89	0x3d86e2ef	0.06586253
90	0x3dbe113f	0.09280633
91	0xbbc7b281	-0.0060942774
92	0xbd66e326	-0.05636897
93	0x3e2518fd	0.16122814
94	0x3dff9bbf	0.12480878
95	0x3e0fe522	0.14052251
96	0xbd64d7a7	-0.055869725
97	0x3de481b8	0.111575544
98	0xbd83616c	-0.06415066
99	0x3d125719	0.035727594
100	0xbd2e3523	-0.042531144
101	0xbc48b639	-0.0122504765
102	0xbd856a3f	-0.065144055
103	0x3df92608	0.12165457
104	0x3e03196f	0.12802671
105	0x3dc6759c	0.09690401
106	0x3dd5b239	0.10434384
107	0x3e0b1fef	0.135864
108	0xbcb1b849	-0.02169432
109	0x3da45dec	0.08025727
110	0x3e2a85f1	0.16652657
111	0x3cabfc71	0.020994397
112	0x3e0549d0	0.13016438
113	0x3dd74e63	0.10512998
114	0x3e032372	0.1280649
115	0x3cbdc8b7	0.023166997
116	0x3daf4dd5	0.08559767
117	0x3bdc89df	0.0067303027
118	0xbd944de4	-0.07241419
119	0xbd0b5c9b	-0.034023862
120	0xbbe4c293	-0.006981203
121	0x3d29b6a0	0.04143393
122	0x3e0bbc5f	0.13646077
123	0xbd11fca4	-0.035641328
124	0x3df15efc	0.11785695
125	0x3c8a104c	0.016853474
126	0x3dc41e07	0.0957604
127	0xbc5af28b	-0.013363491
128	0x3e098436	0.1342934
129	0xbd0c8a84	-0.034311786
130	0xbcecf95d	-0.0289275
131	0x3dd349c2	0.103168026
132	0x3de61c25	0.11235837
133	0x3e1f9cf5	0.15587218
134	0xbd7725c8	-0.060338765
135	0x3df6a1f6	0.1204261
136	0x3bf4cea6	0.0074709235
137	0xbd60f631	-0.054922286
138	0x3e151e62	0.14562371
139	0x3d967da3	0.07348182
140	0x3e0beb01	0.13663866
141	0x3d50fddf	0.05102336
142	0x3d298a38	0.04139158
143	0x3bc66b95	0.0060553052
144	0x3e11798b	0.14206521
145	0xbd306419	-0.04306421
146	0x3e059af4	0.13047391
147	0x3ddf58d5	0.10905615
148	0x3c38ac65	0.011271571
149	0x3d7ad668	0.06123963
150	0x3dc9a346	0.09845595
151	0x3e0d0f7f	0.13775443
152	0xbd864073	-0.065552615
153	0xbbdbe41d	-0.006710543
154	0x3e16aa0b	0.14713304
155	0x3c6d0ce1	0.014468403
156	0x3df5e29a	0.120061114
157	0x3d46a19a	0.04849396
158	0x3dcd5ca4	0.100274354
159	0x3d741c27	0.05959716
160	0xbd60888b	-0.054817718
161	0x3df1d076	0.11807339
162	0x3d6f79f3	0.05846591
163	0xbbd47535	-0.0064836987
164	0x3d59a365	0.05313434
165	0x3d3f4a87	0.046701934
166	0x3e06d9bb	0.13168995
167	0xbc0f8976	-0.008760801
168	0xbba70900	-0.0050975084
169	0x3d93e6cd	0.07221756
170	0xbb9281b2	-0.0044710273
171	0x3dca905f	0.09890818
172	0x3dc5ae15	0.09652344
173	0x3e006028	0.1253668
174	0x3d78338a	0.060596026
175	0xbc3aeac3	-0.011408511
176	0x3c86173a	0.016368497
177	0x3d19ed03	0.037579548
178	0x3d289f5a	0.041167594
179	0xbbccfe46	-0.0062558977
180	0x3d0e52b9	0.03474686
181	0xbd0d5a49	-0.03450993
182	0xbc96bbdb	-0.018400123
183	0xbd356a39	-0.044290755
184	0x3c835a2f	0.016034214
185	0x3d04ddc7	0.032438066
186	0xbcf544fc	-0.02994012
187	0xbd0ef260	-0.034899116
188	0x3d7a6978	0.06113574
189	0x3d951e19	0.07281131
190	0x3e13353a	0.14375773
191	0xbd004707	-0.031317737
192	0x3da0b399	0.078467555
193	0x3c0e668b	0.00869144
194	0x3df05dd2	0.11736645
195	0xbd882b3f	-0.066488735
196	0xbd3130b3	-0.043259334
197	0xbda343c6	-0.07971911
198	0x3cd8347d	0.026392216
199	0x3d933d19	0.07189388
200	0x3d25a78b	0.040442985
201	0x3d9673ec	0.07346329
202	0x3e05fcbe	0.13084695
203	0xbdc44c80	-0.09584904
204	0xbcf9c3b9	-0.030488836
205	0x3d249608	0.040182143
206	0x3dd24cf3	0.10268583
207	0x3cb7f06d	0.022453511
208	0x3e023f68	0.127195
209	0x3c9ec572	0.019381259
210	0x3e06e788	0.1317426
211	0x3dff71ba	0.124728635
212	0x3d3aff70	0.04565376
213	0x3cf081fa	0.029358853
214	0x3d10dc47	0.035366323
215	0xbc345a7b	-0.0110079
216	0xbc278e20	-0.010226756
217	0x3dad7e20	0.08471322
218	0x3d60d514	0.054890707
219	0xbd71acf3	-0.059002828
220	0x3d03c161	0.032166842
221	0xbc06e611	-0.008233563
222	0xbc4a2433	-0.012337732
223	0xba99f73c	-0.0011746655
224	0xbc94bd7f	-0.018156765
225	0xbd9555d6	-0.072917625
226	0xbdc439c7	-0.09581333
227	0x3e111ec6	0.14171895
228	0xbd37f992	-0.044915743
229	0x3bea66cb	0.007153367
230	0x3e230a7a	0.15921965
231	0x3dacd37f	0.08438777
232	0x3cd999ea	0.02656265
233	0xbd5f82c0	-0.054568052
234	0x3d186b33	0.03721161
235	0x3ddea1ea	0.108707264
236	0xbd074f9b	-0.033034902
237	0xbd795d60	-0.060880065
238	0x3cbd3805	0.023098001
239	0x3e18158a	0.14851967
240	0x3e0a9866	0.13534698
241	0xbda40540	-0.08008814
242	0x3cdd82ea	0.027039964
243	0x3cbaa903	0.02278567
244	0x3d22a155	0.03970464
245	0x3ccb6f0b	0.024833223
246	0x3e14dba0	0.14536905
247	0x3db92b00	0.09041405
248	0x3e16c8f6	0.14725098
249	0xbbc0053b	-0.0058599985
250	0xbd8b838b	-0.06812199
251	0x3e12117b	0.14264481
252	0x3b730028	0.003707895
253	0x3dd30e21	0.10305429
254	0xbd4bfa88	-0.049799472
255	0x3b686c9d	0.003546513

decoder.2.bias f4 [128]
0	0xbcde603c	-0.027145498
1	0x3cc606fa	0.024173249
2	0x3d656a61	0.056009654
3	0xbd40d5d4	-0.047078922
4	0xbd33c5a8	-0.04388967
5	0x3dcf17bc	0.10111949
6	0xbd3b07bf	-0.045661684
7	0x3d9a6c00	0.075401306
8	0x3dadb7fc	0.08482358
9	0x3c7688fc	0.015047308
10	0xbd30eb0f	-0.04319292
11	0x3d0527a0	0.032508492
12	0xbd53f06e	-0.051742963
13	0x3e4f829f	0.20264672
14	0xbbaa90db	-0.0052052564
15	0xbd2f9886	-0.042870067
16	0x3b2b52b1	0.0026141817
17	0x3dc30cb1	0.09523905
18	0xbdbb536e	-0.09146772
19	0xbd14a126	-0.036286496
20	0x3c6c6fc7	0.014430947
21	0xbc029727	-0.007970608
22	0x3d830b81	0.063986786
23	0x3e02be3c	0.12767881
24	0x3d94230e	0.07233249
25	0x3e265dfa	0.16246787
26	0xbe932eb1	-0.2874656
27	0xbddb6272	-0.10712136
28	0xbdad069f	-0.084485285
29	0x3e2d768a	0.1693975
30	0xbcb9e885	-0.022693882
31	0x3cacd92c	0.02109965
32	0x3df2f178	0.11862463
33	0x3d26a468	0.040684134
34	0x3da4d69d	0.08048747
35	0x3db3ccf5	0.08779327
36	0xbc801526	-0.015635084
37	0x3da5c710	0.08094609
38	0x3c364a1d	0.011126068
39	0x3e256b53	0.16154222
40	0xbd560c64	-0.05225791
41	0x3d5bfcfb	0.053708058
42	0x3deddc31	0.11614264
43	0x3da8ffe4	0.08251932
44	0x3c80d269	0.015725331
45	0x3df6de24	0.12054089
46	0x3dd0894b	0.101824366
47	0xbcf70c9f	-0.030157385
48	0x3c729348	0.014805622
49	0x3e13caa3	0.14432769
50	0xbd277f2c	-0.040892765
51	0x3dcf5248	0.10123116
52	0x3c94344d	0.018091345
53	0x3deaab0f	0.11458408
54	0x3c61a886	0.013773089
55	0x3d086bc5	0.033305902
56	0x3d8b660a	0.06806572
57	0x3c2cf7ad	0.010557097
58	0x3dd390a2	0.10330321
59	0x3cceb8a8	0.025234535
60	0x3e1518f7	0.14560305
61	0x3d73548d	0.059406806
62	0xbda73bab	-0.08165678
63	0xbc99db9b	-0.018781474
64	0x3dbfabe2	0.09358956
65	0x3cb67145	0.022270808
66	0xbd824244	-0.063602954
67	0xbc98a78a	-0.018634576
68	0xbce8fcf6	-0.028440934
69	0xbc9ef827	-0.019405438
70	0xbd2472a1	-0.04014838
71	0x3e14d038	0.14532554
72	0x3be92461	0.0071149324
73	0x3dd853f5	0.105628885
74	0x3e0e146f	0.13874982
75	0x3e0083b7	0.12550245
76	0x3d2874df	0.041127082
77	0x3e004ed3	0.12530069
78	0xbc671795	-0.0141047435
79	0x3dcc9868	0.09990007
80	0x3d64ed48	0.05589035
81	0xbd6997eb	-0.057029646
82	0x3e1db030	0.15399241
83	0x3db5c3c3	0.08875229
84	0x3cc4bd9d	0.024016196
85	0x3b2fee7a	0.0026845024
86	0x3d771da9	0.06033102
87	0x3dea4b94	0.11440197
88	0x3db46da7	0.08809977
89	0x3d238257	0.039919224
90	0x3d088839	0.033333037
91	0x3da27f14	0.079343945
92	0x3ce4ca93	0.027928626
93	0x3e22d82c	0.15902776
94	0x3d47f477	0.048817124
95	0x3d020700	0.031744957
96	0x3cd3307c	0.025779955
97	0xbc82a687	-0.015948547
98	0x3d855258	0.065098464
99	0x3e0428e4	0.12906224
100	0x3d33ed3f	0.043927427
101	0x3e06091b	0.13089411
102	0x3dd31be4	0.10308054
103	0x3d15efe7	0.03660574
104	0x3e028592	0.12746266
105	0x3df8fb93	0.12157359
106	0x3da8d289	0.082432814
107	0x3d45039c	0.048099145
108	0xbd328d45	-0.043591756
109	0x3d39c407	0.045352962
110	0xbd5ff0e4	-0.05467309
111	0x3b040bfb	0.0020148742
112	0xbd4e6925	-0.050393242
113	0x3d3ae224	0.04562582
114	0x3e3313cf	0.17488025
115	0x3dbf0483	0.093270324
116	0x3d9b01bf	0.075686924
117	0x3df64d15	0.12026421
118	0x3e12b5a3	0.14327101
119	0x3e2151e3	0.15753894
120	0x3db623fe	0.08893584
121	0x3dfd9116	0.123811886
122	0x3dd67aa2	0.10472609
123	0x3dbe4364	0.092901975
124	0xbb5e01a6	-0.0033875494
125	0xbd8c5109	-0.06851394
126	0x3de09f56	0.10967891
127	0x3e02107f	0.12701605
