vae_model3.pth (torch, 209616 bytes, 14 tensors)

fc1.weight f4 [128, 122]
0.036583096 -0.04787936 0.07060262 -0.008628471 0.0534361 0.0033396266 -0.033558205 0.0439206
-0.052012954 -0.050632335 -0.057856742 -0.05860901 -0.05591532 -0.06689639 -0.047887415 -0.06449363
-0.108768255 0.060214516 0.03341548 -0.0674615 0.0030796414 -0.05770755 -0.018753199 -0.020996653
0.0408623 0.028902667 -0.09202458 -0.08884015 -0.099494286 0.07903613 0.020388082 0.050650142
0.0120512 0.0007459564 -0.033619314 -0.033354335 -0.069256686 0.039577473 0.0035058425 -0.04465046
0.07792943 -0.059198838 -0.023567066 -0.01697639 0.07676244 -0.016681157 0.03372802 -0.025491206
-0.0054308427 -0.004739229 -0.0025988116 -0.04770561 0.060440507 0.03501063 -0.005440824 -0.09369343
-0.0066605005 -0.053275876 0.05285642 0.040595867 -0.049355533 -0.04558992 -0.039818212 0.06542252
0.040549904 0.053878937 -0.07551275 -0.07665651 -0.06523017 -0.0057237926 -0.013780753 0.028081639
0.021998685 -0.055732094 -0.066625714 0.080185324 0.04412849 -0.0024000374 -0.0927243 -0.04772684
-0.072065055 -0.06343337 0.08282201 -0.09496449 -0.011259507 -0.066633455 -0.04022596 0.014359843
0.042506024 -0.09349046 -0.009178547 -0.010960668 0.03440327 -0.07412782 -0.003627356 -0.009720619
-0.06431777 0.07822787 0.020108107 0.07040504 -0.047809344 -0.025500746 0.046023324 0.046213396
-0.05167327 0.07817062 0.0022056384 -0.021524442 -0.04188114 -0.04830352 0.03131706 0.058557335
-0.0490091 0.036527492 0.022984482 -0.019108614 -0.06312107 -0.036011267 -0.027071094 -0.08770317
-0.06276943 0.025848763 -0.00052615604 0.013749579 0.05720089 0.091352805 -0.054981943 0.09319554
0.012177574 0.11408299 0.08426959 -0.03843312 -0.0060556834 0.03615722 0.05077745 -0.063071184
0.04378156 0.012178637 0.09995882 -0.015170847 -0.04459061 -0.055385858 -0.05564686 -0.021870572
0.072418086 -0.009971621 0.114062764 0.043609336 0.06124145 0.05819031 -0.03178151 0.056995116
0.0687568 0.07089598 0.11274975 0.06405504 0.08132396 -0.0025703895 -0.0016697645 0.08556314
-0.05433644 -0.04856779 -0.0044357614 -0.042558 -0.02083171 -0.021239363 0.0037591942 -0.050432384
0.019771487 0.025115326 0.002497895 -0.043359857 0.077187404 0.04042301 0.009052917 0.011359979
-0.058435906 -0.052852932 -0.027217865 0.00562777 0.03404399 -0.075175285 -0.053072397 -0.020081196
0.085582964 0.084973 0.059014443 0.010019267 -0.024092177 0.06972777 0.036838043 -0.06870477
0.05149931 -0.058021735 -0.04605789 -0.0030199313 0.059207626 -0.0424971 -0.028759412 0.039356813
0.00997103 -0.050014693 0.038413793 -0.013555835 0.029626265 0.010575321 -0.059681542 0.010428707
0.01144718 0.010290919 -0.034428444 0.013788229 -0.011657095 0.026835335 0.0529567 0.059586477
-0.0068299645 0.03310919 -0.016957244 -0.01967186 -0.06942982 0.018777037 -0.062227756 0.096446656
0.06060532 -0.0696324 0.073692515 0.029028883 0.069309406 0.060494356 0.096065804 0.0692742
0.04456287 0.048822634 0.06173535 -0.0012299982 -0.040693585 0.07887304 0.049933333 -0.05877458
-0.035958875 -0.020270323 0.09179291 0.028236516 -0.026466988 0.0580406 -0.051829502 0.08289983
-0.0050824014 -0.020690227 0.009567408 0.0847662 -0.03234796 -0.08392745 0.045409653 0.032868795
00000000: 28d8 153d 261d 44bd 1b98 903d 6e5e 0dbc
00000010: d0df 5a3d a3dd 5a3b 5474 09bd 16e6 333d
00000020: 890b 55bd da63 4fbd 31fb 6cbd 0010 70bd
00000030: 7607 65bd f900 89bd 9825 44bd 3c15 84bd
00000040: e4c1 debd 7fa3 763d acde 083d 4129 8abd
00000050: cfd3 493b c05e 6cbd 4fa0 99bc 2c01 acbc
00000060: 3a5f 273d 49c5 ec3c 6277 bcbd d3f1 b5bd
00000070: a9c3 cbbd b2dd a13d e804 a73c 8676 4f3d
00000080: 6572 453c 498c 433a 68b4 09bd 8e9e 08bd
00000090: 73d6 8dbd fd1b 223d 47c2 653b 67e3 36bd
000000a0: 7799 9f3d 7b7a 72bd b80f c1bc 1212 8bbc
000000b0: a035 9d3d eca6 88bc 6426 0a3d efd2 d0bc
000000c0: 36f5 b1bb 894b 9bbb d350 2abb f566 43bd
000000d0: 7790 773d 4e67 0f3d f148 b2bb 57e2 bfbd
000000e0: 5440 dabb ce37 5abd f97f 583d da47 263d
000000f0: 0729 4abd 7fbc 3abd 6c18 23bd 3efc 853d
00000100: a817 263d 29b0 5c3d 6ea6 9abd 17fe 9cbd
00000110: 6597 85bd a78e bbbb abc8 61bc 770b e63c
00000120: 9636 b43c 5647 64bd 1073 88bd 3438 a43d
00000130: 13c0 343d f249 1dbb 3de6 bdbd 387d 43bd
00000140: d896 93bd 5be9 81bd 969e a93d be7c c2bd
00000150: cc79 38bc 1f77 88bd fac3 24bd 8c45 6b3c
00000160: cc1a 2e3d ed77 bfbd 9e61 16bc 6094 33bc
00000170: 71ea 0c3d 54d0 97bd efb8 6dbb 3b43 1fbc
00000180: 09b9 83bd ef35 a03d c2b9 a43c 8530 903d
00000190: bbd3 43bd f1e6 d0bc f482 3c3d 424a 3d3d
000001a0: 5aa7 53bd eb17 a03d 798c 103b 0754 b0bc
000001b0: 8f8b 2bbd e9d9 45bd 5146 003d d1d9 6f3d
000001c0: c4bd 48bd da9d 153d f449 bc3c ab89 9cbc
000001d0: 9f45 81bd 8d80 13bd 33c4 ddbc b89d b3bd
000001e0: 428d 80bd c9c0 d33c bced 09ba ea45 613c
000001f0: 7b4b 6a3d 2e17 bb3d bf34 61bd 4edd be3d
00000200: 7384 473c 58a4 e93d 8995 ac3d 0c6c 1dbd
00000210: c16e c6bb 9819 143d 04fc 4f3d 772b 81bd
00000220: 4b54 333d e888 473c 36b7 cc3d 258f 78bc
00000230: a5a4 36bd 48dc 62bd f6ed 63bd ea29 b3bc
00000240: ef4f 943d 0360 23bc bd99 e93d b49f 323d
00000250: 51d8 7a3d f658 6e3d 542d 02bd b673 693d
00000260: 5dd0 8c3d e931 913d 57e9 e63d 4a2f 833d
00000270: 2d8d a63d fb73 28bb 00dc daba ba3b af3d
00000280: e38f 5ebd 05ef 46bd dd59 91bb 4c51 2ebd
00000290: 43a7 aabc 2cfe adbc d05c 763b 3092 4ebd
000002a0: d0f7 a13c a8be cd3c b9b3 233b 1b9a 31bd
000002b0: 6e14 9e3d 9992 253d b052 143c 351f 3a3c
000002c0: 7d5a 6fbd 517c 58bd 00f8 debc 2869 b83b
000002d0: b671 0b3d 80f5 99bd 7162 59bd 5281 a4bc
000002e0: 1f46 af3d 5306 ae3d 21b9 713d da27 243c
000002f0: f55c c5bc 6fcd 8e3d 7de3 163d 16b5 8cbd
00000300: f1f0 523d 33a8 6dbd 33a7 3cbd 0aea 45bb
00000310: b283 723d 7011 2ebd dc98 ebbc 9c34 213d
00000320: 885d 233c 35dc 4cbd c857 1d3d 4b19 5ebc
00000330: c8b2 f23c 1c44 2d3c a274 74bd 2bdd 2a3c
00000340: f48c 3b3c 3e9b 283c d704 0dbd 06e8 613c
00000350: 66fd 3ebc c7d5 db3c 20e9 583d f310 743d
00000360: e5cd dfbb 819d 073d ebe9 8abc e126 a1bc
00000370: 3931 8ebd 4dd2 993c 88e2 7ebd d385 c53d
00000380: 493d 783d 6f9b 8ebd 1aec 963d fbcd ed3c
00000390: 17f2 8d3d eec8 773d 26be c43d a2df 8d3d
000003a0: 8e87 363d 3efa 473d 35de 7c3d e437 a1ba
000003b0: 51ae 26bd 3088 a13d e586 4c3d 9dbd 70bd
000003c0: 9d49 13bd f30d a6bc ecfd bb3d 4450 e73c
000003d0: 4cd1 d8bc fbbb 6d3d 2c4b 54bd 63c7 a93d
000003e0: 468a a6bb 8d7e a9bc 9ec0 1c3c e799 ad3d
000003f0: 4b7f 04bd 28e2 abbd 79ff 393d 6ea1 063d

fc1.bias f4 [128]
-0.012567469 -0.109833464 0.005783775 0.04577038 0.014367766 0.09495125 -0.042882934 0.09088989
0.045494653 0.025430165 -0.088536106 0.1220014 -0.01871134 0.05513898 0.070138365 0.0019781725
-0.04424028 9.6361604e-05 -0.020269731 -0.078669384 -0.008524422 -0.00833643 -0.06995392 -0.048303563
-0.031072322 0.0737153 -0.093324825 0.017663281 -0.06772675 0.065711774 0.11214617 -0.0049537695
-0.01802562 -0.08449952 0.029383581 0.06443772 -0.074646965 -0.08895357 -0.00033004745 0.014377332
0.08298149 -0.053980034 -0.0005040998 0.035713933 -0.05912816 0.008988673 -0.080505066 -0.08672678
-0.012718235 -0.013002796 0.07653964 -0.009448496 0.07159909 -0.06833725 -0.0802876 0.015952256
-0.06658308 -0.080267504 0.10162423 0.058308445 0.06620438 -0.07915216 0.059686303 -0.08355925
0.025473578 -0.014709522 -0.02401889 0.077754185 0.053319976 0.037359018 0.052472062 0.06748673
-0.05267444 -0.01566039 0.11453007 0.03442403 0.03396813 -0.10391125 0.02905002 0.04623605
0.04381045 0.0006464051 -0.06901597 0.11971719 -0.0075034327 -0.061855238 -0.06168977 -0.05365173
0.017668242 0.056916635 -0.006379146 -0.02662237 -0.011355353 -0.045904726 0.06707078 0.065369345
0.03160978 -0.0052876007 -0.052371487 0.041986473 0.061870538 0.06740938 -0.07277117 -0.04627473
-0.041792575 -0.0650702 0.06427269 0.06721679 -0.100016914 -0.032081135 0.11386538 0.118370414
0.07315528 -0.08888212 0.08290679 -0.007098955 -0.023109185 -0.08528153 0.028615652 0.011181075
0.052191414 0.037553977 -0.021371312 0.06906385 -0.08481147 0.11413621 -0.026240997 -0.0860177
00000000: c9e7 4dbc 5ef0 e0bd d285 bd3b b979 3b3d
00000010: c766 6b3c cd75 c23d 04a6 2fbd 7b24 ba3d
00000020: 9a58 3a3d ec52 d03c 6b52 b5bd dfdb f93d
00000030: 8648 99bc 69d9 613d b4a4 8f3d 3aa4 013b
00000040: 4c35 35bd be15 ca38 b50c a6bc 6a1d a1bd
00000050: 04aa 0bbc 8695 08bc 0044 8fbd f5d9 45bd
00000060: 628b febc 0cf8 963d 1621 bfbd 96b2 903c
00000070: 53b4 8abd e593 863d e4ac e53d 3b53 a2bb
00000080: 77aa 93bc 160e adbd d6b5 f03c ecf7 833d
00000090: 82e0 98bd 4a2d b6bd 380a adb9 e78e 6b3c
000000a0: 33f2 a93d 2b1a 5dbd 9125 04ba c648 123d
000000b0: 5f30 72bd 3a45 133c d7df a4bd cf9d b1bd
000000c0: 2560 50bc ae09 55bc d1c0 9c3d ddcd 1abc
000000d0: 8ba2 923d 66f4 8bbd d36d a4bd 4eae 823c
000000e0: b65c 88bd 4a63 a4bd 5d20 d03d d6d4 6e3d
000000f0: 2996 873d 871a a2bd a079 743d 1d21 abbd
00000100: f7ad d03c 3500 71bc 43c3 c4bc 963d 9f3d
00000110: 0c66 5a3d c505 193d f2ec 563d 7c36 8a3d
00000120: 27c1 57bd 384a 80bc be8e ea3d 3600 0d3d
00000130: 2a22 0b3d 6ccf d4bd 4ffa ed3c 0362 3d3d
00000140: 9672 333d 8373 293a 3f58 8dbd 492e f53d
00000150: 5bdf f5bb eb5b 7dbd 6aae 7cbd ebc1 5bbd
00000160: fdbc 903c 6b21 693d 2808 d1bb 2817 dabc
00000170: cd0b 3abc 9806 3cbd 685c 893d 5de0 853d
00000180: 4279 013d 9c43 adbb 7c83 56bd 02fa 2b3d
00000190: f66b 7d3d ee0d 8a3d 0d09 95bd 928a 3dbd
000001a0: b12e 2bbd 8643 85bd 66a1 833d f5a8 893d
000001b0: abd5 ccbd 8267 03bd 4132 e93d 306c f23d
000001c0: 6fd2 953d d407 b6bd 09cb a93d 5a9e e8bb
000001d0: 794f bdbc 15a8 aebd 5f6b ea3c d430 373c
000001e0: aac6 553d 33d2 193d e412 afbc 5971 8d3d
000001f0: a3b1 adbd 3fc0 e93d 5cf7 d6bc 0c2a b0bd

fc2.weight f4 [64, 128]
0.07564662 -0.0014551199 -0.060209222 -0.08546105 0.07126726 0.04383994 0.07971286 -0.010646529
0.06938144 -0.015805563 0.010697134 -0.060956113 -0.0014634156 -0.018898362 0.049574807 -0.07267927
-0.053381503 0.059017554 0.005299063 -0.032036915 0.0027266375 0.025422568 0.08137052 0.013391697
0.02149808 0.032366853 0.075951345 0.009222722 -0.029397627 -0.039045557 0.019876048 -0.021326032
0.06181123 -0.027668783 -0.046644952 -0.02008977 -0.07715333 0.08098927 0.013790861 0.07821261
0.009370087 -0.0077471174 0.031106744 -0.062536746 0.008631477 0.029449657 0.0011344878 0.037753966
-0.09237965 -0.07971866 -0.03933166 -0.0141486125 -0.07558913 0.022052674 -0.040230934 -0.043979496
-0.043659803 0.03847415 -0.0075080288 0.02950212 0.062287744 -0.016563853 0.019432949 -0.029951636
-0.08464906 -0.014443072 0.06537256 -0.035110097 0.036816232 0.030086594 0.061021835 -0.0066722888
0.048787896 0.061647803 -0.088825636 0.053238045 -0.028172873 0.072155856 0.00828686 0.061419394
-0.045252237 0.044037733 0.07500091 -0.0749206 -0.08761016 0.07098906 0.07880486 -0.06042214
-0.080558084 -0.062250946 -0.08140203 -0.084530056 0.006645146 0.04304489 0.029662719 0.013431157
0.06189561 -0.03510982 0.07549163 -0.036736377 0.05563128 0.0073040384 -0.006488781 -0.07384487
-0.03961182 0.0065125837 0.065280326 -0.047985174 -0.036374047 0.053940617 -0.0791249 0.08713027
-0.02451552 0.037015017 -0.049161434 -0.07265014 -0.007898825 0.08495952 -0.0018686523 -0.0163173
0.010159298 0.0070658033 -0.045447305 0.028799778 -0.070457816 -0.05863051 0.07391442 0.07332203
0.024619412 -0.043053858 -0.08116925 0.046975106 -0.058515307 0.014177815 -0.015012373 -0.049509738
0.03442055 -0.098874405 -0.050129093 -0.07562037 -0.07398153 -0.0118675865 0.023023786 0.061163757
-0.082180105 -0.08805504 -0.022004733 0.007830125 0.05270067 -0.09371763 0.06804904 0.058046453
0.0651782 -0.00018529523 0.010477482 0.05564351 0.030702727 -0.012201756 0.022209397 0.028039062
0.002527176 -0.055387735 -0.02348672 0.013284886 -0.020397536 0.041643985 0.015438591 -0.05653169
0.0052869944 -0.08023047 0.01548583 0.041209515 0.06544861 0.01856129 0.039365597 -0.03055986
0.0014099054 0.02039617 0.007279242 -0.046645496 -0.020102791 0.008189789 -0.10171851 -0.03730481
-0.0075888215 -0.018901978 0.048442055 0.017893331 -0.031700194 0.0452737 -0.048554063 -0.08144925
-0.09930047 -0.053203117 0.052368633 0.057284668 -0.06670515 0.019789735 0.039483923 -0.03042446
-0.016530896 -0.004475752 -0.023750553 0.025834745 -0.09779193 0.055066068 0.060721632 0.011442213
-0.057227362 -0.021170946 0.025006449 0.017857127 0.06738869 0.051180966 0.039702833 -0.021955399
-0.015498705 0.06357383 0.04498956 -0.049580943 0.06403515 0.06799035 -0.06288264 -0.0261051
-0.06448068 0.018215964 0.053955406 0.037181616 0.058578745 0.016583357 -0.0047910763 0.01577972
0.07038489 0.08347065 -0.08834127 -0.07779542 0.07936668 0.04298429 -0.037427764 0.019622004
0.02594809 -0.042241227 0.072636105 -0.07239071 0.032746457 0.06984032 0.029271979 0.034892187
-0.011385322 -0.08772199 0.005233695 0.044496335 0.020048043 0.004595971 -0.012568158 0.038495928
00000000: 9dec 9a3d b9b9 beba f29d 76bd 3406 afbd
00000010: 92f4 913d 8291 333d 7f40 a33d c76e 2ebc
00000020: db17 8e3d ab7a 81bc 0843 2f3c 1ead 79bd
00000030: 14d0 bfba bdd0 9abc f40e 4b3d ded8 94bd
00000040: 90a6 5abd 64bc 713d c3a3 ad3b 2439 03bd
00000050: 63b1 323b fd42 d03c 96a5 a63d d968 5b3c
00000060: be1c b03c 1b93 043d 618c 9b3d e61a 173c
00000070: 4bd3 f0bc 3cee 1fbd 18d3 a23c eeb3 aebc
00000080: c62d 7d3d a5a9 e2bc c70e 3fbd 4d93 a4bc
00000090: 9102 9ebd b4dd a53d 10f3 613c ef2d a03d
000000a0: fe84 193c 88db fdbb 92d3 fe3c 4413 80bd
000000b0: 0a6b 0d3c 6840 f13c 18b3 943a e7a3 1a3d
000000c0: 8b31 bdbd 8943 a3bd 3c1a 21bd 95cf 67bc
000000d0: 79ce 9abd cfa7 b43c 31c9 24bd d823 34bd
000000e0: 9fd4 32bd 1297 1d3d e905 f6bb 6eae f13c
000000f0: 6f21 7f3d ebb0 87bc d931 9f3c 225d f5bc
00000100: 7d5c adbd a2a2 6cbc 0ce2 853d 9bcf 0fbd
00000110: 9ecc 163d 2978 f63c 08f2 793d 37a3 dabb
00000120: d1d5 473d 6882 7c3d 37ea b5bd 2310 5a3d
00000130: ccca e6bc 73c6 933d 9cc5 073c e792 7b3d
00000140: 695a 39bd e960 343d 149a 993d f96f 99bd
00000150: f56c b3bd b662 913d 7164 a13d 357d 77bd
00000160: a3fb a4bd d9fa 7ebd 1cb6 a6bd 181e adbd
00000170: 86bf d93b d74f 303d 3bff f23c 5b0e 5c3c
00000180: 4086 7d3d 51cf 0fbd 5b9b 9a3d e278 16bd
00000190: a0dd 633d b756 ef3b d79f d4bb fb3b 97bd
000001a0: 0140 22bd 8367 d53b b1b1 853d 1a8c 44bd
000001b0: f4fc 14bd d6f0 5c3d 3c0c a2bd 5b71 b23d
000001c0: c6d4 c8bc 0f9d 173d 805d 49bd 99c9 94bd
000001d0: 136a 01bc 42ff ad3d 91ed f4ba dcab 85bc
000001e0: 2f73 263c 4188 e73b f426 3abd 83ed eb3c
000001f0: 304c 90bd 8c26 70bd 7260 973d dc29 963d
00000200: a6ae c93c 3e59 30bd 103c a6bd f868 403d
00000210: bfad 6fbd 114a 683c 75f6 75bc b9ca 4abd
00000220: 90fc 0c3d aa7e cabd 2a54 4dbd dade 9abd
00000230: a183 97bd 4470 42bc 619c bc3c d986 7a3d
00000240: 0b4e a8bd 3356 b4bd 4543 b4bc ed49 003c
00000250: a8dc 573d 07ef bfbd 4c5d 8b3d 1ec2 6d3d
00000260: 267c 853d cf4b 42b9 bfa9 2b3c 73ea 633d
00000270: 4984 fb3c e0e9 47bc 7bf0 b53c 2db2 e53c
00000280: fa9e 253b 40de 62bd 3967 c0bc daa8 593c
00000290: bc18 a7bc e292 2a3d 25f2 7c3c c68d 67bd
000002a0: 863e ad3b df4f a4bd 47b8 7d3c 4fcb 283d
000002b0: ec09 863d d90d 983c d23d 213d ac58 fabc
000002c0: 93cc b83a de15 a73c b586 ee3b 590f 3fbd
000002d0: 9cae a4bc 772e 063c cb51 d0bd eecc 18bd
000002e0: a6ab f8bb 52d8 9abc 2d6b 463d 0995 923c
000002f0: 10d8 01bd ea70 393d a0e0 46bd ddce a6bd
00000300: 0b5e cbbd 83eb 59bd 7e80 563d 54a3 6a3d
00000310: b69c 88bd 151e a23c e5b9 213d b83c f9bc
00000320: cd6b 87bc 54a9 92bb 8590 c2bc 63a3 d33c
00000330: 2347 c8bd f58c 613d 3fb7 783d 1f78 3b3c
00000340: 3d67 6abd b16e adbc 53da cc3c 1c49 923c
00000350: 1503 8a3d 22a3 513d 709f 223d cfdb b3bc
00000360: 48ee 7dbc ff32 823d f946 383d 6315 4bbd
00000370: dc24 833d 863e 8b3d 9dc8 80bd 5dda d5bc
00000380: 720e 84bd a539 953c 5800 5d3d c04b 183d
00000390: 44f0 6f3d d2d9 873c 76fe 9cbb 7944 813c
000003a0: f425 903d a9f2 aa3d 45ec b4bd 3553 9fbd
000003b0: ff8a a23d 4b10 303d db4d 19bd 53be a03c
000003c0: 1791 d43c 2305 2dbd 3dc2 943d 9541 94bd
000003d0: 2621 063d 7108 8f3d cacb ef3c 1ceb 0e3d
000003e0: 8089 3abc 96a7 b3bd 6a7f ab3b ca41 363d
000003f0: cb3b a43c cd99 963b adea 4dbc e8ad 1d3d

fc2.bias f4 [64]
-0.029655771 -0.022313204 0.039956618 -0.04383053 -0.09146869 0.01601798 -0.09535885 -0.06489484
-0.007905298 -0.031270217 -0.039461695 0.06461011 0.06278506 0.0494703 -0.004990113 -0.039481923
-0.085059255 0.008091521 0.09974409 0.044968802 -0.061523415 0.08283888 -0.03529281 -0.092010856
0.009847695 0.08216051 0.012656912 -0.00952109 -0.0044698403 -0.043836232 0.033693 -0.079467826
0.03308409 0.05668561 -0.07560016 0.051345713 0.096509054 -0.090968475 0.08155868 -0.014371663
-0.004128527 -0.07836078 -0.04347264 -0.022584546 -0.009567674 -0.012261078 0.113879524 -0.036062066
-0.08460907 -0.0918704 -0.056304652 -0.09264063 -0.0845465 -0.0055142906 0.028775098 -0.059416097
0.074035175 -0.033824135 -0.04294839 0.034660883 -0.03625991 -0.086350694 0.083031215 0.012686517
00000000: a9f0 f2bc 2eca b6bc 8da9 233d a487 33bd
00000010: f053 bbbd 2438 833c 804b c3bd 96e7 84bd
00000020: 3985 01bc 3315 00bd 96a2 21bd 4e52 843d
00000030: 7495 803d 5fa1 4a3d 1a84 a3bb ccb7 21bd
00000040: 8c33 aebd 4d92 043c a146 cc3d 3531 383d
00000050: faff 7bbd 6ea7 a93d 328f 10bd 3070 bcbd
00000060: 3a58 213c c543 a83d f05e 4f3c 59fe 1bbc
00000070: bd77 92bb 9f8d 33bd ac01 0a3d 07c0 a2bd
00000080: 2f83 073d 2c2f 683d 42d4 9abd e24f 523d
00000090: 8aa6 c53d ae4d babd 3d08 a73d 2077 6bbc
000000a0: 9848 87bb 9e7b a0bd 5e10 32bd 3a03 b9bc
000000b0: bcc1 1cbc b0e2 48bc ab39 e93d d1b5 13bd
000000c0: 8547 adbd 8c26 bcbd b59f 66bd 5fba bdbd
000000d0: b726 adbd 39b1 b4bb c1b9 eb3c 4b5e 73bd
000000e0: c19f 973d 2d8b 0abd a7ea 2fbd 92f8 0d3d
000000f0: 4585 14bd a2d8 b0bd 450c aa3d 1cdb 4f3c

fc_mu.weight f4 [16, 64]
0.019148808 -0.017876534 -0.01812894 -0.09724228 -0.01607182 -0.027062492 -0.09779405 -0.07106087
0.027185583 -0.09936076 -0.01973474 0.041148387 0.10886801 -0.083079696 0.06001617 -0.01785613
0.079787806 0.09625017 -0.082038954 0.0057017915 -0.07500598 0.07491589 -0.007119119 -0.06436632
-0.108932436 -0.09610008 -0.1103345 0.10840209 -0.09303315 -0.03246661 0.029435204 -0.05016361
-0.002884678 0.010778897 -0.013265014 -0.040607456 0.112993754 0.04156711 -0.014166926 0.00816954
-0.030062333 -0.11402719 0.11161697 -0.10416223 0.0747001 -0.096454516 0.011051786 -0.088946074
-0.0779227 -0.047369238 0.08734826 -0.024901936 0.029821977 0.02413001 0.05754944 -0.0007336938
0.1296986 0.04587071 -0.024500217 -0.014086124 0.03077708 0.045670792 0.07397313 -0.09159919
-0.019649979 -0.007864069 0.025496038 0.03163115 0.08305462 0.05305077 -0.05897591 -0.10692512
0.058922675 -0.03129 0.10418381 -0.011995792 0.027902812 -0.08280935 -0.013855398 -0.015502859
-0.09456064 -0.05196011 -0.048602387 -0.020170726 0.006740753 -0.07305851 0.030278862 0.039741106
0.014006913 0.11476662 -0.02758742 -0.11736086 0.11514486 0.04176432 -0.046091214 0.10758783
0.1273108 0.0479626 -0.01167421 0.10647032 -0.040311497 -0.011877497 0.08993833 -0.004768857
0.06598934 -0.12191871 -0.007336065 0.007233951 0.0020994777 -0.074330375 0.06566786 -0.038493723
-0.087892026 0.06295007 0.01897648 -0.018350743 -0.040417373 -0.07940332 0.073603004 0.03760276
-0.038995367 0.022538818 -0.05041474 0.105633005 0.05301374 -0.07848342 0.01874838 -0.0911689
0.04508391 0.11259634 0.021994157 0.018480077 -0.10434186 0.005904552 -0.08094517 0.09869047
-0.07690615 -0.017326212 -0.09492086 0.060344156 -0.1221453 -0.038636718 -0.08427282 0.040920608
0.07351142 -0.12890977 -0.1507514 -0.12017801 0.0040102527 -0.010604086 0.04071632 -0.02145253
-0.08991888 0.08710825 -0.08374742 0.048296243 0.10419803 0.082479164 0.0040746806 -0.1025437
-0.0055710333 0.09231867 0.058733463 0.08436301 -0.003821394 -0.075675614 -0.095093235 -0.041396063
0.07017707 0.11500822 0.036542624 -0.029158285 -0.091064766 -0.033581417 -0.15016806 -0.12573339
0.09060681 0.083217174 0.07927936 -0.04977733 0.07761436 -0.077702686 -0.05959562 0.06479586
0.036386434 -0.094407335 0.11926714 -0.11721019 -0.10099081 0.031796634 -0.008641517 0.010927885
0.031897724 0.06917149 0.09823053 -0.03240523 -0.026196418 -0.034527846 -0.07384036 -0.048244584
0.03617569 0.03882781 -0.098578274 0.07328543 -0.000977979 -0.12435599 -0.07609174 0.024039155
-0.07187763 0.037566733 0.07083568 -0.0044817273 0.04036269 -0.12582973 0.08916822 0.124046855
0.12263632 0.033769395 0.04141004 0.051308855 0.007741348 0.07975448 -0.1371667 0.11157639
0.06648031 -0.041490782 -0.10228497 0.04853449 0.010999943 0.0965829 -0.11806136 -0.08934856
-0.11290265 -0.017266273 0.015153751 -0.13257885 -0.11755457 -0.05885662 0.027374608 0.12372054
-0.049855113 -0.101205416 0.108248144 0.102134965 0.06269723 0.09791794 0.082408205 -0.023998976
-0.029612264 -0.08128937 0.020940645 0.025901191 0.04929456 -0.0056527406 -0.064875774 -0.0760316
00000000: f6dd 9c3c cf71 92bc 2583 94bc f626 c7bd
00000010: 0da9 83bc 29b2 ddbc 3f48 c8bd 5d88 91bd
00000020: 4db4 de3c a77d cbbd c0aa a1bc 368b 283d
00000030: 31f6 de3d b025 aabd 84d3 753d 0547 92bc
00000040: ca67 a33d cf1e c53d 0a04 a8bd 18d6 ba3b
00000050: bc9c 99bd 816d 993d 8047 e9bb 7dd2 83bd
00000060: f817 dfbd 1ed0 c4bd 0ef7 e1bd ea01 de3d
00000070: 2a88 bebd b5fb 04bd 1922 f13c 5c78 4dbd
00000080: de0c 3dbb f999 303c 8055 59bc 0154 26bd
00000090: 4569 e73d 4642 2a3d 651c 68bc 89d9 053c
000000a0: 4845 f6bc 1687 e9bd 7097 e43d 0253 d5bd
000000b0: 5efc 983d f289 c5bd 8d12 353c 5c29 b6bd
000000c0: f095 9fbd 3f06 42bd a5e3 b23d 25ff cbbc
000000d0: 384d f43c 4cac c53c f6b8 6b3d 5c55 40ba
000000e0: b6cf 043e ede2 3b3d aeb4 c8bc 7cc9 66bc
000000f0: 3720 fc3c 4c11 3b3d 397f 973d 5b98 bbbd
00000100: fef8 a0bc 4cd8 00bc 11dd d03c aa8f 013d
00000110: 8a18 aa3d c44b 593d b990 71bd 8ffb dabd
00000120: e758 713d f129 00bd 525e d53d 008a 44bc
00000130: 7094 e43c f397 a9bd c001 63bc b4ff 7dbc
00000140: 02a9 c1bd 20d4 54bd 4c13 47bd 143d a5bc
00000150: 89e1 dc3b b39f 95bd 600b f83c 92c7 223d
00000160: 407d 653c c30a eb3d 03ff e1bc e45a f0bd
00000170: 12d1 eb3d 1011 2b3d 24ca 3cbd 0257 dc3d
00000180: c35d 023e 6e74 443d 3045 3fbc 1c0d da3d
00000190: ab1d 25bd d599 42bc 9631 b83d 1244 9cbb
000001a0: 6b25 873d 84b0 f9bd 6063 f0bb c70a ed3b
000001b0: 6497 093b 863a 98bd df7c 863d 98ab 1dbd
000001c0: bc00 b4bd f7eb 803d 9074 9b3c 4c54 96bc
000001d0: b08c 25bd 359e a2bd 2cbd 963d 5a05 1a3d
000001e0: 9bb9 1fbd 54a3 b83c b07f 4ebd 1e56 d83d
000001f0: ef24 593d eabb a0bd 3496 993c c3b6 babd
00000200: e8a9 383d e998 e63d 172d b43c 8863 973c
00000210: 2fb1 d5bd f97a c13b 95c6 a5bd 3b1e ca3d
00000220: f980 9dbd b3ef 8dbc de65 c2bd 6f2b 773d
00000230: 5127 fabd 8941 1ebd 3a97 acbd 5e9c 273d
00000240: 288d 963d ec00 04be 935e 1abe e31f f6bd
00000250: 7068 833b c3bc 2dbc 28c6 263d 37bd afbc
00000260: 6427 b8bd cf65 b23d c483 abbd 48d2 453d
00000270: c765 d53d d6ea a83d e684 853b 6e02 d2bd
00000280: 378d b6bb 9211 bd3d 8092 703d 84c6 ac3d
00000290: 5a70 7abb d1fb 9abd 3ec0 c2bd eb8e 29bd
000002a0: ffb8 8f3d 6e89 eb3d b8ad 153d 5bdd eebc
000002b0: 2a80 babd ab8c 09bd a8c5 19be 41c0 00be
000002c0: 1090 b93d c46d aa3d 385d a23d 50e3 4bbd
000002d0: 47f4 9e3d 9622 9fbd 891a 74bd b1b3 843d
000002e0: f109 153d a258 c1bd 5542 f43d e50b f0bd
000002f0: 45d4 cebd 303d 023d 2695 0dbc df0a 333c
00000300: 30a7 023d c8a9 8d3d 172d c93d 59bb 04bd
00000310: df99 d6bc 126d 0dbd 9d39 97bd 1d9c 45bd
00000320: f62c 143d e909 1f3d 68e3 c9bd ac16 963d
00000330: 882f 80ba 5aae febd fcd5 9bbd c3ed c43c
00000340: 9434 93bd 93df 193d 4c12 913d 74db 92bb
00000350: 5953 253d 82d9 00be d49d b63d 470c fe3d
00000360: c028 fb3d c751 0a3d 939d 293d 3c29 523d
00000370: 22ab fd3b 5156 a33d 6d75 0cbe 2a82 e43d
00000380: d426 883d 3df2 29bd c87a d1bd 1acc 463d
00000390: 1b39 343c 41cd c53d 28ca f1bd 61fc b6bd
000003a0: 8139 e7bd 0072 8dbc 7047 783c c0c2 07be
000003b0: 73c0 f0bd a413 71bd b740 e03c 3261 fd3d
000003c0: e034 4cbd c944 cfbd 34b1 dd3d 232c d13d
000003d0: 6867 803d 3389 c83d a2c5 a83d 8099 c4bc
000003e0: 6b95 f2bc 0b7b a6bd b78b ab3c bc2e d43c
000003f0: 18e9 493d a03a b9bb 97dd 84bd 75b6 9bbd

fc_mu.bias f4 [16]
-0.05657218 -0.015182334 0.07545776 0.054794993 0.06825396 0.097310476 -0.046649616 0.023809131
-0.069039665 -0.0047117965 -0.040038753 0.04200613 -0.07127729 0.009601038 0.0721711 -0.019288637
00000000: 3bb8 67bd 53bf 78bc 9989 9a3d b770 603d
00000010: bbc8 8b3d b74a c73d ab13 3fbd 5e0b c33c
00000020: ab64 8dbd 6a65 9abb adff 23bd 9f0e 2c3d
00000030: d4f9 91bd ac4d 1d3c 71ce 933d 3403 9ebc

fc_logvar.weight f4 [16, 64]
0.11234482 -0.10841568 -0.010425618 0.01033293 0.06961677 -0.0778663 0.025282012 -0.08769106
-0.07243968 0.05397534 0.11759049 -0.09127808 -0.020183405 -0.0031458081 -0.12065901 0.014341716
0.026146138 0.09341236 0.08102804 0.008292272 -0.0043669334 0.05898436 -0.059035644 0.097094096
-0.010976329 -0.019601705 -0.01644525 0.0953425 0.04087453 0.0456679 -0.014594601 -0.05188088
0.047833398 -0.122837216 0.046653733 -0.016058657 0.08548219 -0.03201204 -0.08173475 -0.10572133
0.05022047 0.105219096 -0.040875897 -0.06953064 0.09203186 0.098310255 0.09375564 -0.03981698
-0.1113496 -0.08072282 -0.05287271 -0.015883101 0.029667098 -0.018949406 -0.09931848 0.07489054
0.03804924 -0.02069498 0.031298917 0.011551185 0.043055575 0.0141362995 -0.042329356 0.039505344
-0.0024948618 -0.040550396 0.008388643 -0.076748796 0.10347727 -0.09820208 0.006999222 -0.051839128
0.07034076 0.02049773 0.08927442 0.12626803 -0.005165461 0.021177221 -0.121102065 -0.057422053
0.12706445 0.081594594 0.115830936 0.048242766 -0.011204521 -0.04232424 -0.046368837 -0.0762396
0.03377369 0.028158456 -0.1111079 -0.11068559 0.098110296 0.022197887 0.0618079 -0.123874724
-0.073889315 -0.069573104 0.029322222 -0.088090226 -0.0076385303 0.10949528 -0.07044824 0.06307654
0.041143343 -0.10582329 -0.0447744 0.091194674 0.013208072 -0.031641793 0.053260718 0.07994943
-0.08313395 0.025156995 0.041651152 0.019960077 0.11092776 0.12504919 -0.03995712 -0.009120109
-0.07823023 -0.06016166 -0.09362017 0.0044710864 -0.073707744 -0.11451438 0.02764755 0.052113842
-0.026615793 0.068067536 0.106772825 -0.014000748 -0.04218659 0.07475507 -0.02161173 -0.13289277
-0.10158627 0.10375853 -0.0667038 -0.018376853 0.04392988 -0.047768977 -0.0040849745 0.011560156
0.11149376 0.048685297 0.081698544 0.06625144 -0.060765833 -0.10257821 0.020464852 -0.0012578926
-0.0765536 -0.07791962 0.08087142 0.104368255 0.052309815 0.0019551136 0.0648217 0.06064923
-0.1329526 0.06912849 -0.11809884 -0.11119218 -0.03703562 0.016031574 0.019563358 0.072743684
0.12261121 0.046791494 0.063994035 -0.0058779367 0.09303958 0.032795988 0.06466848 0.10009334
-0.03249505 0.05498402 -0.08004634 0.055930603 -0.05278026 -0.041510087 -0.09503381 0.06741892
0.031155938 -0.07163983 0.017288424 -0.039176382 -0.048136063 0.10374507 0.08931959 -0.026420841
0.034965992 0.015163798 0.13706698 -0.067440026 0.0043074503 0.09674621 -0.012012413 0.003443789
0.02608101 0.028314384 0.123962 0.053490486 0.02019257 -0.10117621 -0.073975995 -0.0070582395
0.033375017 -0.050430067 -0.09077284 -0.08288594 -0.06855733 -0.038388148 -0.056013674 -0.051240657
-0.07911831 0.036396798 -0.09411112 -0.08471361 -0.012999454 -0.032779798 -0.10397016 0.045907035
0.017250434 0.020797124 -0.04556802 0.0877318 0.08246237 0.022335097 0.033373255 0.039103568
-0.052131906 0.075335905 -0.113560125 0.047432534 0.07958017 0.054081395 0.0019484038 0.060567144
-0.08942044 -0.043418817 0.08064415 0.09953497 0.03705018 -0.032051694 0.11186397 0.03923958
0.0050320453 -0.12612857 0.0119868675 0.05223827 -0.08470343 0.11881222 0.12283988 -0.05712957
00000000: 0a15 e63d 0a09 debd 36d0 2abc 734b 293c
00000010: 3d93 8e3d 5e78 9fbd 391c cf3c 5f97 b3bd
00000020: 415b 94bd 3f15 5d3d 48d3 f03d 01f0 babd
00000030: ab57 a5bc e729 4ebb 121c f7bd 84f9 6a3c
00000040: 6d30 d63c fb4e bf3d 07f2 a53d 4fdc 073c
00000050: 7e18 8fbb 9699 713d 5ccf 71bd 45d9 c63d
00000060: 10d6 33bc c193 a0bc 30b8 86bc ee42 c33d
00000070: 0d6c 273d 440e 3b3d 311e 6fbc 0c81 54bd
00000080: f4ec 433d 1492 fbbd fc17 3f3d 728d 83bc
00000090: 4911 af3d 0f1f 03bd 8c64 a7bd 6d84 d8bd
000000a0: fbb3 4d3d 1c7d d73d 7c6d 27bd 1566 8ebd
000000b0: 337b bc3d e356 c93d f502 c03d 2117 23bd
000000c0: 420b e4bd 0152 a5bd 0e91 58bd 471d 82bc
000000d0: 6a08 f33c c93b 9bbc 7d67 cbbd 3660 993d
000000e0: 85d9 1b3d 8588 a9bc 4b33 003d 2e41 3d3c
000000f0: 0b5b 303d f09b 673c 8c61 2dbd 5bd0 213d
00000100: d680 23bb 2c18 26bd 8570 093c 792e 9dbd
00000110: e4eb d33d 2c1e c9bd bb59 e53b 4455 54bd
00000120: d10e 903d dbea a73c 82d5 b63d 684c 013e
00000130: 0743 a9bb da7b ad3c 5c04 f8bd 6333 6bbd
00000140: 2f1d 023e 111b a73d c538 ed3d 359a 453d
00000150: 2b93 37bc 2f5c 2dbd 40ed 3dbd 8223 9cbd
00000160: 4856 0a3d 90ac e63c 8a8c e3bd 20af e2bd
00000170: 0dee c83d 58d8 b53c 482a 7d3d 08b2 fdbd
00000180: 4853 97bd 587c 8ebd 2835 f03c a668 b4bd
00000190: a34c fabb 103f e03d 2b47 90bd 462e 813d
000001a0: ec85 283d e2b9 d8bd 5c65 37bd 46c4 ba3d
000001b0: ab66 583c d39a 01bd e927 5a3d 87bc a33d
000001c0: 2242 aabd 0b16 ce3c 669a 2a3d 5183 a33c
000001d0: 182e e33d e50c 003e 14aa 23bd 826c 15bc
000001e0: 2c37 a0bd 136c 76bd efbb bfbd 3182 923b
000001f0: 16f4 96bd 8486 eabd 1d7d e23c 5375 553d
00000200: 5d09 dabc fe66 8b3d b6ab da3d 6563 65bc
00000210: d9cb 2cbd 3019 993d 150b b1bc 0b15 08be
00000220: 760c d0bd 5a7f d43d 009c 88bd 0e8b 96bc
00000230: d1ef 333d 67a9 43bd 40db 85bb cf66 3d3c
00000240: d756 e43d 3c6a 473d 9151 a73d d6ae 873d
00000250: 98e5 78bd 8614 d2bd e8a5 a73c dfdf a4ba
00000260: 22c8 9cbd 5294 9fbd ea9f a53d 06bf d53d
00000270: d142 563d 5d21 003b 3dc1 843d 546b 783d
00000280: ba24 08be 3d93 8d3d cedd f1bd bab8 e3bd
00000290: aab2 17bd a654 833c 5643 a03c a4fa 943d
000002a0: 961b fb3d 70a8 3f3d 4e0f 833d b59b c0bb
000002b0: 898b be3d 1655 063d e870 843d bdfd cc3d
000002c0: 8819 05bd ec36 613d 56ef a3bd 7d17 653d
000002d0: 1d30 58bd 7b06 2abd 16a1 c2bd ee12 8a3d
000002e0: bd3a ff3c e7b7 92bd 74a0 8d3c 6a77 20bd
000002f0: 522a 45bd 4c78 d43d 30ed b63d 8570 d8bc
00000300: 8038 0f3d 9471 783c 495b 0c3e ff1d 8abd
00000310: 8325 8d3b e022 c63d b6cf 44bc 31b1 613b
00000320: d8a7 d53c 91f3 e73c cadf fd3d d718 5b3d
00000330: e36a a53c 7935 cfbd ba80 97bd ce48 e7bb
00000340: 3eb4 083d c28f 4ebd 1ce7 b9bd 1bc0 a9bd
00000350: c967 8cbd e43c 1dbd 986e 65bd b9e1 51bd
00000360: c808 a2bd cf14 153d 55bd c0bd 547e adbd
00000370: a9fb 54bc 1c44 06bd 4fee d4bd 0409 3c3d
00000380: c850 8d3c bb5e aa3c 88a5 3abd bbac b33d
00000390: 08e2 a83d 18f8 b63c 65b2 083d 102b 203d
000003a0: 4488 55bd b649 9a3d 3692 e8bd 9e48 423d
000003b0: eefa a23d 7484 5d3d 9561 ff3a 4115 783d
000003c0: 1022 b7bd eed7 31bd c328 a53d fed8 cb3d
000003d0: eec1 173d a348 03bd f018 e53d afb9 203d
000003e0: dbe3 a43b d927 01be 9164 443c ccf7 553d
000003f0: fe78 adbd d253 f33d 7a93 fb3d b200 6abd

fc_logvar.bias f4 [16]
-0.026930057 -0.0043380787 -0.028902365 -0.041244537 -0.008593378 0.05708882 -0.08158699 -0.06391128
-0.04165714 -0.018017493 0.092001006 0.015210539 0.00890964 -0.0040478637 0.066848524 0.06849155
00000000: 6c9c dcbc 7126 8ebb a7c4 ecbc 08f0 28bd
00000010: 3dcb 0cbc f7d5 693d 1417 a7bd ebe3 82bd
00000020: ada0 2abd 6c99 93bc 066b bc3d a035 793c
00000030: bdf9 113c f1a3 84bb e1e7 883d 4c45 8c3d

fc3.weight f4 [64, 16]
-0.029030658 -0.2504638 0.07727827 0.051740885 0.03758474 -0.17139022 -0.08777478 -0.2093855
-0.024507914 -0.20070298 -0.17482997 -0.2389398 -0.24125741 0.0064812205 -0.17815223 -0.11748312
0.1003637 0.2117686 -0.058176495 -0.15136056 -0.14227511 -0.13625026 -0.018305762 0.27033898
-0.17581324 0.06509657 0.27350235 0.13112612 -0.018184058 0.2463195 0.18718621 0.27061278
0.039847072 -0.089246415 0.13130084 -0.20815593 -0.2443984 0.14465082 -0.004654793 0.07435107
-0.1727403 -0.15107822 -0.20216163 0.03507474 0.12530643 -0.05315909 0.1303283 -0.052613482
0.13748671 -0.11690681 0.21436201 -0.19278884 0.10859245 -0.006901337 0.182439 0.25404173
-0.27516726 0.08420426 -0.28302255 0.14091061 -0.25855199 0.051864333 -0.076309204 0.26251855
-0.0724723 0.05241898 0.1334447 0.28712752 -0.26155654 0.23992226 0.14506401 0.07165422
0.024381764 0.07911497 -0.2457133 -0.23271176 -0.07612765 0.1707763 0.23747534 -0.24767093
0.13049634 -0.16839394 0.18437663 -0.06624597 0.20219785 0.058216304 0.120988384 0.059904743
-0.13760643 0.17150614 0.1495602 0.06656791 0.07863661 -0.19820632 0.022109559 0.030391013
-0.1277399 -0.16853705 -0.21757655 -0.086516865 -0.0955483 -0.21262911 0.08319471 0.0682257
-0.23375589 0.10262191 -0.21195774 0.21470055 0.23124139 -0.06992867 0.10947885 -0.124485455
-0.12982707 0.09310051 0.050314557 0.23747092 -0.08866873 0.029392734 -0.23762281 -0.1453637
-0.21943016 -0.08231676 -0.24140261 0.0038843914 0.20700747 0.18738368 0.09583257 -0.16054565
0.06526022 -0.016438149 0.15528312 -0.14095996 0.15709221 -0.17136604 0.13834767 0.18465681
-0.2395585 0.1796701 0.082626946 -0.22422798 0.047007143 0.07300955 -0.23025121 -0.08607885
-0.24431525 0.17321001 0.18076839 -0.28202802 0.02626214 -0.067813225 0.08834948 -0.23482443
-0.2530107 -0.24800669 0.12502557 -0.25068206 -0.22817992 -0.26458058 0.113137744 0.2653348
-0.045483127 0.20751213 -0.24549818 0.024062887 0.018632635 0.16384974 -0.12492528 -0.24263525
0.06353349 0.28523564 -0.24953547 0.2400684 -0.051165484 0.15385367 -0.2366477 -0.027095504
-0.3113121 -0.23640236 0.11987934 -0.17304641 0.02766738 -0.0036783142 -0.037798114 0.14410569
0.118271135 -0.25145283 0.17201595 -0.042029038 0.10679723 0.17572564 -0.115309104 0.21841158
-0.11631882 -0.2108708 0.18137287 0.054624666 -0.2737144 -0.0047812937 -0.1971406 -0.21010764
0.29065943 0.19134751 -0.2475306 -0.12814246 0.074546315 -0.005979847 -0.25338444 -0.09156357
0.0828523 -0.2480731 0.2708727 0.053432114 -0.2536018 0.013513653 -0.23824197 -0.22086874
-0.06722381 0.2079213 -0.035130326 -0.02858976 -0.28214547 -0.27246204 0.116205245 -0.27028453
0.24354038 0.082106724 0.2111881 0.15886223 -0.085002184 -0.25592786 0.05496985 0.022148896
0.1039776 -0.17804377 0.27458006 0.17973603 -0.17095737 0.04458512 -0.028169544 -0.18299134
-0.15852533 0.025475416 0.007990858 0.18885422 0.20479149 -0.062555104 -0.034950495 0.16254117
0.07264509 0.26081246 0.037133362 -0.13740638 -0.066984 0.07832273 -0.17426273 0.06298631
00000000: b4d1 edbc cb3c 80be 1244 9e3d 40ee 533d
00000010: 75f2 193d eb80 2fbe 44c3 b3bd 2769 56be
00000020: d2c4 c8bc 1585 4dbe a106 33be a3ac 74be
00000030: 2f0c 77be 6b60 d43b 8a6d 36be fd9a f0bd
00000040: 7c8b cd3d ded9 583e 7a4a 6ebd 43fe 1abe
00000050: 91b0 11be 3085 0bbe f7f5 95bc df69 8a3e
00000060: 6308 34be 5a51 853d 8008 8c3e ed45 063e
00000070: bcf6 94bc 2e3b 7c3e bead 3f3e c28d 8a3e
00000080: af36 233d d3c6 b6bd ba73 063e d426 55be
00000090: 9343 7abe 581f 143e 3c87 98bb 6045 983d
000000a0: d5e2 30be 40b4 1abe 7503 4fbe 88aa 0f3d
000000b0: 5450 003e 59bd 59bd c874 053e 3c81 57bd
000000c0: 51c9 0c3e d66c efbd b781 5b3e 706a 45be
000000d0: b865 de3d 9c24 e2bb 4ad1 3a3e c211 823e
000000e0: b9e2 8cbe 4873 ac3d 55e8 90be df4a 103e
000000f0: ed60 84be b26f 543d 0048 9cbd d568 863e
00000100: 5b6c 94bd 49b5 563d baa5 083e 6102 933e
00000110: bdea 85be 2eae 753e a98b 143e 73bf 923d
00000120: 44bc c73c 0807 a23d 449c 7bbe fe4b 6ebe
00000130: d0e8 9bbd fbdf 2e3e bc2c 733e 739d 7dbe
00000140: d5a0 053e 766f 2cbe 3acd 3c3e f8ab 87bd
00000150: f40c 4f3e 3874 6e3d c2c8 f73d ad5e 753d
00000160: b3e8 0cbe 4e9f 2f3e 4f26 193e c254 883d
00000170: 3b0c a13d 99f6 4abe 1b1f b53c 93f6 f83c
00000180: 40ce 02be fa94 2cbe 63cc 5ebe c12f b1bd
00000190: d4ae c3bd 72bb 59be fd61 aa3d eab9 8b3d
000001a0: b45d 6fbe 702b d23d 730b 59be 76da 5b3e
000001b0: 8bca 6c3e c336 8fbd 7336 e03d 3bf2 febd
000001c0: 63f1 04be 7bab be3d a316 4e3d 942b 733e
000001d0: f397 b5bd 08c9 f03c 6553 73be 39da 14be
000001e0: 4db2 60be b195 a8bd 3f32 77be 4691 7e3b
000001f0: c4f9 533e 82e1 3f3e de43 c43d 1466 24be
00000200: 26a7 853d 4ca9 86bc 8a02 1f3e cf57 10be
00000210: c8dc 203e 947a 2fbe 03ab 0d3e ad16 3d3e
00000220: d34e 75be 70fb 373e 5138 a93d 059c 65be
00000230: 908a 403d 0886 953d f9c6 6bbe 1c4a b0bd
00000240: c72d 7abe f75d 313e 591b 393e fa65 90be
00000250: b323 d73c a9e1 8abd 92f0 b43d d175 70be
00000260: 9e8a 81be 77f5 7dbe b406 003e 6659 80be
00000270: ffa7 69be 1b77 87be c3b4 e73d f7d9 873e
00000280: 844c 3abd 0f7e 543e e063 7bbe 881f c53c
00000290: 78a3 983c 3ac8 273e d3d8 ffbd 6075 78be
000002a0: d91d 823d 680a 923e 3a86 7fbe 7ed4 753e
000002b0: e692 51bd d18b 1d3e c653 72be 64f7 ddbc
000002c0: 4d64 9fbe 7613 72be 4d83 f53d 1433 31be
000002d0: b4a6 e23c df0f 71bb 32d2 1abd 7190 133e
000002e0: 2338 f23d 6dbe 80be f324 303e a426 2cbd
000002f0: 82b8 da3d 6cf1 333e 2e27 ecbd 49a7 5f3e
00000300: 9038 eebd 84ee 57be cfb9 393e 1dbe 5f3d
00000310: 4b24 8cbe 66ac 9cbb 3adf 49be 7526 57be
00000320: 50d1 943e 9af0 433e a978 7dbe c737 03be
00000330: bdab 983d 98f2 c3bb 9bbb 81be ae85 bbbd
00000340: 77ae a93d e006 7ebe d4af 8a3e a2db 5a3d
00000350: 18d8 81be 5e68 5d3c b4f5 73be 6a2b 62be
00000360: a3ac 89bd 52e9 543e d1e4 0fbd 1335 eabc
00000370: 5f75 90be 2580 8bbe 04fd ed3d bc62 8abe
00000380: a662 793e 9227 a83d b141 583e c8ac 223e
00000390: a015 aebd fa08 83be 1128 613d 9a71 b53c
000003a0: 35f2 d43d 1b51 36be c295 8c3e b90c 383e
000003b0: 730f 2fbe e39e 363d d1c3 e6bc 1562 3bbe
000003c0: 7754 22be d2b1 d03c 16ec 023c 0063 413e
000003d0: dcb4 513e e41c 80bd 4028 0fbd 3171 263e
000003e0: f3c6 943d 3689 853e 2719 183d 42b4 0cbe
000003f0: e82e 89bd ab67 a03d ee71 32be f7fe 803d

fc3.bias f4 [64]
0.15460753 0.27971327 -0.21400315 -0.17718549 0.1568855 0.21381018 0.25244907 0.0038193008
-0.06952215 0.05094982 0.123996206 -0.05800487 0.31478268 0.023372928 0.06803668 0.25573844
0.27905142 -0.1751427 -0.15477328 0.19447258 0.28508413 -0.068768375 0.020084767 -0.031762466
-0.18218352 0.056720227 -0.1336932 -0.17072971 0.23643048 0.038396332 0.31173965 0.1225963
0.100027464 0.27982914 0.245611 0.32076618 0.24774273 0.034803387 0.058748756 0.22326949
-0.15314697 -0.058590073 0.31728294 0.036026698 0.04772154 -0.11201409 -0.10049097 0.26662475
0.18620934 -0.11656416 0.22595893 -0.11387955 -0.111228004 0.22538932 -0.0067602643 0.2641742
0.11180865 0.168381 0.092071176 0.21086077 0.24288046 -0.15682624 -0.15794551 -0.058238514
00000000: 7051 1e3e 9436 8f3e a423 5bbe 1d70 35be
00000010: 98a6 203e 0ef1 5a3e 0141 813e 3c4d 7a3b
00000020: a161 8ebd c2b0 503d b9f1 fd3d 8496 6dbd
00000030: 322b a13e 9578 bf3c d156 8b3d 26f0 823e
00000040: d4df 8e3e 9c58 33be e37c 1ebe d223 473e
00000050: 8cf6 913e 6fd6 8cbd cf88 a43c 5c19 02bd
00000060: 518e 3abe 7853 683d dfe6 08be c5d3 2ebe
00000070: d51a 723e 7945 1d3d 579c 9f3e c513 fb3d
00000080: 33db cc3d c445 8f3e 7381 7b3e 773b a43e
00000090: 45b0 7d3e ff8d 0e3d 89a2 703d c2a0 643e
000000a0: 8fd2 1cbe 25fc 6fbd e972 a23e bb90 133d
000000b0: a977 433d a567 e5bd 36ce cdbd 0a83 883e
000000c0: a9ad 3e3e 31b9 eebd c761 673e ae39 e9bd
000000d0: 82cb e3bd 75cc 663e 3585 ddbb d741 873e
000000e0: effb e43d 126c 2c3e d08f bc3d e3eb 573e
000000f0: a8b5 783e 0f97 20be 78bc 21be 828b 6ebd

fc4.weight f4 [128, 64]
0.16736874 -0.054369573 0.09017541 0.060686227 -0.070539325 0.11990457 0.11069211 -0.012417011
0.036604427 -0.013636283 0.1558496 0.04467242 0.059058715 0.05969328 0.056065258 0.008273926
0.15362053 -0.073427744 0.091596365 0.0494483 0.11851272 0.11549406 -0.0033896144 -0.014059931
0.09039534 0.034029778 -0.07306784 -0.015327223 0.023473265 -0.068214655 0.0015821706 0.060417127
0.16047801 0.06641389 0.13672315 0.079870075 0.05202505 -0.0133880135 0.144291 0.12685402
-0.08576357 -0.008761226 0.019552048 0.075531326 -0.03980738 0.014540672 -0.042581506 0.008232109
0.04796963 0.15884787 0.098396674 0.09224341 0.10811918 -0.041458327 -0.03777032 0.069475144
0.035570912 0.06255061 -0.044872813 -0.055942394 -0.01750839 -0.041142546 0.06503043 -0.07658253
-0.02859718 0.03978925 -0.011982682 -0.06107973 0.11214424 0.03397669 -0.013386072 0.066667035
0.14877605 0.037392393 0.16314504 -0.044114728 0.048559394 -0.05031654 0.03739099 0.0002800447
0.008492481 0.047376845 -0.035714988 0.16338402 0.03546223 -0.050073665 -0.07236887 -0.046012897
-0.0059653046 0.14033616 0.1077808 -0.0074598505 -0.06800042 0.078011416 -0.058073085 -0.061854348
0.045645796 -0.0022537967 0.09855098 0.06761369 0.10706861 0.13260204 -0.025889263 -0.059309706
0.046918076 -0.0648028 0.096471824 0.07897455 -0.058338262 0.039757714 -0.033023853 0.04838006
0.04601684 0.0780062 0.09086229 0.07163274 -0.016540324 0.17306395 0.016491411 0.06526992
0.117641784 0.017714271 0.06835834 0.045817457 0.07123538 0.106539905 0.08128899 0.026061779
0.038262658 0.07179726 0.14824098 -0.0047121164 0.0468388 -0.082497284 0.042544164 0.1426605
-0.008353914 0.13834839 0.09236788 0.042032495 0.12685797 0.14271282 -0.03728027 0.106532946
-0.013321356 0.044796742 -0.06650491 0.011112152 -0.02239375 -0.03983472 0.08093283 0.09667806
-0.07323619 0.1496203 0.040996127 0.118089944 0.13050368 0.095242806 0.088834755 0.12330161
-0.0069907773 -0.074694335 -0.028899813 0.05763007 0.051295727 -0.0006585183 -0.057069223 0.01968313
0.12206638 0.07381806 0.06153585 -0.032333322 0.07351866 -0.038499188 0.1576778 0.07841649
-0.07055437 -0.048441343 -0.027548015 0.11066555 0.100786716 0.014058821 0.089563146 0.047338624
-0.0063558137 0.07679564 0.089587666 0.039498564 0.036935776 0.08187455 0.12252184 0.018635131
-0.03128302 0.0787003 -0.022575334 0.016395185 0.10663314 0.15168388 0.11138795 0.053585
-0.032955118 -0.073707536 0.0032986496 0.10555799 0.08396724 0.14409743 0.13295017 0.16839483
-0.009911501 0.14115854 -0.076193206 0.014697025 -0.072571635 0.13255481 -0.05012258 0.0659635
0.074871324 -0.012882251 0.06748318 0.1475563 0.12572289 0.02274492 -0.025174307 0.02793924
0.12148867 -0.07313571 0.1331419 0.16945119 0.040862028 -0.002024977 -0.07510621 0.14833818
-0.01099052 0.1343416 0.013992845 0.09353125 0.041003793 -0.017276231 0.12841508 -2.9090053e-05
0.12459375 0.015703183 -0.006003105 0.0005568541 -0.047164433 0.12659183 -0.08305709 0.0020270369
0.08614278 0.16302978 -0.0077458597 0.04419596 0.0076141837 0.038259357 0.07914353 0.06175086
00000000: b662 2b3e a1b2 5ebd e3ad b83d 1f92 783d
00000010: ec76 90bd 8790 f53d 8cb2 e23d b870 4bbc
00000020: 86ee 153d b76a 5fbc 0a97 1f3e 6dfa 363d
00000030: 8de7 713d f180 743d afa4 653d 5c8f 073c
00000040: b34e 1d3e 4961 96bd e096 bb3d 4d8a 4a3d
00000050: ccb6 f23d 2688 ec3d 4b24 5ebb a05b 66bc
00000060: 3121 b93d cf62 0b3d 97a4 95bd 081f 7bbc
00000070: 014b c03c 20b4 8bbd d660 cf3a f377 773d
00000080: 5954 243e 0104 883d 2701 0c3e ec92 a33d
00000090: 3818 553d 6659 5bbc 05c1 133e 05e6 013e
000000a0: d0a4 afbd 3f8b 0fbc 9e2b a03c 2bb0 9a3d
000000b0: 100d 23bd 003c 6e3c f269 2ebd f8df 063c
000000c0: ce7b 443d 04a9 223e 3284 c93d 1dea bc3d
000000d0: 976d dd3d 35d0 29bd 0db5 1abd fc48 8e3d
000000e0: ceb2 113d 891a 803d 8ecc 37bd da23 65bd
000000f0: c16d 8fbc 1685 28bd ad2e 853d 4dd7 9cbd
00000100: a244 eabc 0dfa 223d 0353 44bc bd2e 7abd
00000110: e1ab e53d 242b 0b3d 4151 5bbc ba88 883d
00000120: c058 183e c428 193d 7e0f 273e a5b1 34bd
00000130: 37e6 463d b718 4ebd 4b27 193d f7d2 9239
00000140: 0c24 0b3c 390e 423d e149 12bd 244e 273e
00000150: d840 113d 0b1a 4dbd 2136 94bd 0578 3cbd
00000160: 9a78 c3bb 48b4 0f3e 2ebc dc3d c371 f4bb
00000170: ce43 8bbd 73c4 9f3d 0bde 6dbd fc5a 7dbd
00000180: 16f7 3a3d 6fb4 13bb 19d5 c93d 0c79 8a3d
00000190: ca46 db3d d4c8 073e b815 d4bc bcee 72bd
000001a0: 2b2d 403d 55b7 84bd 0593 c53d 69bd a13d
000001b0: 1af4 6ebd fcd8 223d 0544 07bd 2b2a 463d
000001c0: 277c 3c3d b7c1 9f3d 0216 ba3d 30b4 923d
000001d0: 937f 87bc ad37 313e ff18 873c 3cac 853d
000001e0: 2dee f03d 851d 913c 75ff 8b3d 16ab 3b3d
000001f0: dbe3 913d 9831 da3d d87a a63d 837f d53c
00000200: 4eb9 1c3d 710a 933d 7ccc 173e 1968 9abb
00000210: 0bda 3f3d 56f4 a8bd ca42 2e3d 9815 123e
00000220: dbde 08bc 33ab 0d3e 5f2b bd3d 442a 2c3d
00000230: 0ee7 013e 4f23 123e 32b3 18bd f22d da3d
00000240: d141 5abc ca7c 373d ba33 88bd be0f 363c
00000250: 1973 b7bc bb29 23bd 1dc0 a53d 26ff c53d
00000260: dbfc 95bd 1036 193e 8eeb 273d 24d9 f13d
00000270: c2a2 053e a90e c33d ffee b53d 8e85 fc3d
00000280: e412 e5bb 58f9 98bd 4dbf ecbc 820d 6c3d
00000290: 781b 523d 6aa0 2cba 6bc1 69bd 843e a13c
000002a0: f0fd f93d ec2d 973d 040d 7c3d f26f 04bd
000002b0: f490 963d 53b1 1dbd 4a76 213e d398 a03d
000002c0: cf7e 90bd 6e6a 46bd 60ac e1bc 9fa4 e23d
000002d0: 4469 ce3d f856 663c e26c b73d 25e6 413d
000002e0: 6e44 d0bb 0847 9d3d bd79 b73d 3fc9 213d
000002f0: f849 173d d8ad a73d bbec fa3d b4a8 983c
00000300: a022 00bd 9f2d a13d e8ef b8bc 324f 863c
00000310: 7a62 da3d 0553 1b3e 5e1f e43d f27b 5b3d
00000320: f2fb 06bd faf3 96bd 282e 583b ca2e d83d
00000330: 04f7 ab3d 478e 133e 1724 083e b26f 2c3e
00000340: d963 22bc dd8b 103e 2f0b 9cbd cacb 703c
00000350: 70a0 94bd 73bc 073e 564d 4dbd df17 873d
00000360: 2356 993d 1410 53bc 9f34 8a3d 0019 173e
00000370: 80bd 003e 8e53 ba3c 593a cebc d5e0 e43c
00000380: 0dcf f83d 2dc8 95bd 5a56 083e 9d84 2d3e
00000390: f15e 273d 7ab5 04bb 49d1 99bd f7e5 173e
000003a0: 9511 34bc d890 093e 3f42 653c 508d bf3d
000003b0: 98f3 273d e286 8dbc 3e7f 033e 6a06 f4b7
000003c0: 022b ff3d f6a3 803c b2b5 c4bb d9f9 113a
000003d0: 7e2f 41bd 4aa1 013e d619 aabd 09d8 043b
000003e0: a06b b03d 47f1 263e fbd0 fdbb d306 353d
000003f0: 6780 f93b d8b5 1c3d 0116 a23d 78ee 7c3d

fc4.bias f4 [128]
-0.0068039857 0.009314394 0.09677361 0.02875386 0.11368305 -0.041837476 -0.041428383 -0.04285195
0.10928549 0.15835133 0.049377546 0.14036827 0.055399857 0.14454813 0.064006194 0.13367161
0.1100844 -0.041855544 0.099594 0.019915903 0.020156343 0.0068164896 0.15276176 0.046278104
-0.027905652 0.033922873 0.07038624 0.15791658 0.08538577 0.50861585 0.10871713 0.16876966
0.0368352 0.17531256 0.014640244 0.034791 -0.07583395 0.13647197 0.10663983 0.17429098
0.1300727 0.0014206298 0.12845409 0.034869943 0.16762586 0.11530666 0.051907647 0.039765637
0.07688045 0.16329624 0.04769426 0.15359855 -0.10647677 0.14880854 0.045802068 0.098687485
-0.076438785 0.08213382 0.12865578 0.018873872 0.04018976 0.005435763 -0.0073885024 0.11265541
0.017473686 0.109805524 -0.00879005 0.11064783 -0.01700176 0.007927486 -0.04243381 -0.004781764
0.0527361 -0.03884223 0.033121478 0.10388585 0.051628012 0.16551854 0.019203829 0.059502944
0.05527007 0.08461862 0.043796267 -0.085928105 0.029721444 0.07236906 0.107096255 0.13560487
-0.040339753 -0.05418273 0.055606533 0.12408386 0.01904288 0.009633939 -0.12334587 0.14560695
0.112775855 0.15295999 0.14497726 0.117664896 0.070748135 -0.08330295 0.06759046 -0.05152831
-0.038906995 0.0021940041 0.09221633 0.05840675 0.03980242 0.03597914 -0.00013140411 -0.07367243
0.16642666 -0.03951049 -0.010429299 0.02676485 0.07537966 0.145106 -0.037007365 0.04571209
0.06434078 0.06640925 -0.015244624 -0.050247986 0.041302834 -0.06614309 0.16078903 0.13683416
00000000: f8f3 debb 669b 183c 3e31 c63d 378d eb3c
00000010: a9d2 e83d c65d 2bbd cfb0 29bd 8785 2fbd
00000020: 12d1 df3d da26 223e 1c40 4a3d b3bc 0f3e
00000030: f6ea 623d 6d04 143e ae15 833d 36e1 083e
00000040: ee73 e13d b870 2bbd f0f7 cb3d ad26 a33c
00000050: ea1e a53c dc5c df3b 946d 1c3e 1c8e 3d3d
00000060: 659a e4bc b6f2 0a3d a926 903d e2b4 213e
00000070: bcde ae3d a634 023f 16a7 de3d f4d1 2c3e
00000080: 82e0 163d 2385 333e a2dd 6f3c 0281 0e3d
00000090: d44e 9bbd 4fbf 0b3e fc65 da3d 5679 323e
000000a0: c731 053e 6d34 ba3a 7889 033e c9d3 0e3d
000000b0: 1da6 2b3e e625 ec3d 1d9d 543d 4be1 223d
000000c0: 7f73 9d3d 2137 273e 0e5b 433d f048 1d3e
000000d0: 7e10 dabd 4461 183e f39a 3b3d aa1c ca3d
000000e0: f08b 9cbd c735 a83d 57be 033e 619d 9a3c
000000f0: 059e 243d 7c1e b23b 401b f2bb e1b7 e63d
00000100: fa24 8f3c b8e1 e03d 2404 10bc 549b e23d
00000110: 4647 8bbc 49e2 013c 13cf 2dbd 58b0 9cbb
00000120: cf01 583d 0819 1fbd 63aa 073d 1bc2 d43d
00000130: e577 533d b17d 293e 5951 9d3c 5cb9 733d
00000140: de62 623d 874c ad3d b763 333d 13fb afbd
00000150: 637a f33c 3b36 943d 4855 db3d 01dc 0a3e
00000160: 4c3b 25bd b6ee 5dbd adc3 633d ae1f fe3d
00000170: d0ff 9b3c abd7 1d3c c29c fcbd fd19 153e
00000180: 07f7 e63d 8ba1 1c3e eb74 143e 4bfa f03d
00000190: 66e4 903d bd9a aabd de6c 8a3d 590f 53bd
000001a0: f15c 1fbd 48c9 0f3b eadb bc3d eb3b 6f3d
000001b0: dd07 233d dd5e 133d 86c9 09b9 92e1 96bd
000001c0: c06b 2a3e c0d5 21bd a7df 2abc f541 db3c
000001d0: a760 9a3d ab96 143e 0995 17bd 9a3c 3b3d
000001e0: 19c5 833d 9301 883d 96c4 79bc d5d0 4dbd
000001f0: 292d 293d 0776 87bd e1a5 243e 411e 0c3e
